case6_best_model.pth (torch, 62658 bytes, 12 tensors)

net.0.weight f4 [16, 3]
00000000: a582 073f 6b08 f13e 2c31 8dbe 2d1a 1c3f
00000010: d197 43be 2e1c 0b3b 2328 c3be 5e9e 873e
00000020: de5c 353f 99e6 33bf 4acd b63e 42e9 9b3d
00000030: e924 033f e5e0 983d a47f 983e 9e34 94bd
00000040: 7cb4 b83e ab65 ba3d 074d 84be 5845 1d3e
00000050: bf14 a8be cb5a 98bd a749 3bbe ba56 b73e
00000060: b8c7 11bf c0a7 a0be 3ef4 e1bd 7c0c b5be
00000070: c996 b23b 23ba 2ebf da96 4f3f 64e8 01bf
00000080: 8475 bc3e 2ff6 353d c118 89be f69f dd3e
00000090: b227 1a3e 191a 0e3f 0a00 913c b2a7 80be
000000a0: 5ff4 2e3e 74f2 52be 9517 be3e 978f 043f
000000b0: 316b 953e 8f77 07bf 7607 073e f931 b43d
0.5293372 0.47076735 -0.27576578 0.6097744 -0.19100882 0.0021226513 -0.3811656 0.26488012
0.7084483 -0.7027374 0.35703498 0.0761285 0.51228195 0.0746477 0.29784882 -0.072365984
0.360752 0.09101423 -0.25840017 0.15358484 -0.32828328 -0.074391924 -0.18289815 0.35808355
-0.5694537 -0.31377983 -0.110329136 -0.35361087 0.005450104 -0.6825277 0.81089556 -0.50745225
0.36808407 0.044424232 -0.26776698 0.43286103 0.15054205 0.5550857 0.017700214 -0.2512794
0.17085408 -0.20600301 0.37127367 0.517816 0.29183343 -0.52916807 0.1318644 0.08798594

net.0.bias f4 [16]
00000000: 8343 cb3e f8d5 84be 547e 05bf 22bd 9bbd
00000010: 0d3e e1be 6d28 223f b941 4b3e 4797 f83e
00000020: 8e8e 533e 785f f33c 9f35 013f 113b f5be
00000030: 32a4 083e 3510 c9be 5deb bd3e 0ba9 d3bd
0.39699945 -0.25944495 -0.52145886 -0.076044336 -0.43992653 0.63342935 0.1984929 0.48552915
0.20659849 0.029708609 0.50472444 -0.47896627 0.13343886 -0.39270177 0.3709363 -0.10334977

net.2.weight f4 [64, 16]
00000000: e57d 80bd f80a 0a3e 14e5 893e 1d44 87bd
00000010: 4ada 75bf 22fc 53bc f0db 873e d720 9d3e
00000020: 3b4f ac3e bb47 90be 2247 94be 5f51 12bf
00000030: a683 4abe 8b74 1a3e d80e 0c3e 095a 803e
00000040: 7434 04be aa84 2ebe f8d3 073e e4f3 cebd
00000050: 5c5f 1b3e f0fe 72bd 9a71 123e 60e7 46be
00000060: ba30 01be c418 9c3d 387b 583d f489 82bd
00000070: 0298 183e fa07 2e3e f6a4 39be 96ab 08be
00000080: c249 bb3e 98c5 47be 707b e9bd 99b9 b1be
00000090: ce6d 4abe f4a1 133e 085c 543d ff76 4dbe
000000a0: c01b 293d 032b a7bd 4342 13be 0a71 8dbe
000000b0: 7da1 20be 3021 9dbe f23b 923e 55dc 6a3b
000000c0: 84c0 133e bafb 9abd 5422 28be f9d5 b7bd
000000d0: 2ba0 50be 9659 cfbe dfd4 d0bd 45cc 7fbe
000000e0: d65e df3d a7d9 a23a 334a 0b3d 124b 29bf
000000f0: 0047 b8be d259 15be 483b 6fbe 72c7 64be
00000100: 34fc 823e 4030 37bd 7434 463e 2704 9d3d
00000110: c0a2 edbd f061 9c3e 4f91 403c e5de 82bd
00000120: f06f 61be 86ae 71be 94f1 fe3d b6b1 5dbd
00000130: 8bfe 5c3e ef63 0cbe 84e5 953e a9d1 51be
00000140: 384e 5b3d 3f74 7c3d bde2 a13d f50f a8bb
00000150: 30b3 323e 15ef 34be fa32 123c d01d fabd
00000160: d091 bcbc b1a7 3abe d874 8d3e ec68 b0be
00000170: 6972 e93d 8c69 87bb 33f0 e83d d69f a5be
00000180: 28ed a43e 1047 74bd 6ced f4bd ffb9 8abe
00000190: 1288 1bbe 1e62 0b3c c2f1 63bd a3ee 0b3e
000001a0: 0afa b93c 7635 85bd bdb7 aebd 0fe1 a1be
000001b0: aff8 243e 37f5 77be 4913 34be 373c f6bd
000001c0: 8fd3 34be 2419 3d3e 2ac2 403e 8131 2bbe
000001d0: 8d86 ea3c 5bc9 d03d e857 a03d 5039 e4bd
000001e0: 782d 3e3e 4844 313e 6742 d93d 46df e9bd
000001f0: f043 91be 9269 783e 716c 2ebe 92a8 65bd
00000200: e69b a13e 156b 8a3e 75c1 0c3e e983 bcbe
00000210: 6a08 0cbd d684 68bd e2de 113e e6c6 3dbd
00000220: 5e36 97be dc28 8d3d d52a 623e da7c 2f3e
00000230: df14 183e 9233 8cbe d629 98bd 8251 08bf
00000240: 7233 96bd 1a87 0c3c 6ba4 3e3e 0c61 f33d
00000250: e774 0ebe 36b9 8fbd f942 ecbc 497f ae3e
00000260: 4676 c73d 0d8d 67bd 45fe 573e 7976 5bbe
00000270: eabf 15be 82a1 753d 9b29 90bd 6b3a b5bd
00000280: 849a 67be bb4d 5e3e bfb0 483e cb62 123e
00000290: 392e 7fbe c299 53be 559d 02be d6f1 663e
000002a0: 14d8 4f3e aae3 973e 0b5e 1b3e cd1e d93d
000002b0: 2aa9 32be e39f a33d a6ac 98be 1fb7 78be
000002c0: 4c61 2a3e 11e3 1bbd 2bba 12bd 226d c5be
000002d0: e0d8 89be 73db 39be ddf0 90bd 0152 ca3a
000002e0: bbcd 8b3c e56a 943e a9aa 06be 3c5e 7cbe
000002f0: 9f09 64be b587 64bc 040a a7be 586a 04bf
00000300: d98d 793e b31c 0bbd d809 2c3e 4c26 043e
00000310: 77f8 0b3e c795 49be d380 6a3e d8a2 59be
00000320: b982 d43d be15 a13e 8ca9 213d 183d 19bd
00000330: cb1f 0bbd 22b7 16bd 80b1 0d3e 48a9 6fbe
00000340: 4e3a 6a3e 153d 8b3e b769 5c3e ae5d babd
00000350: 6dc4 83be df58 5b3d 24c9 353e c711 96be
00000360: 5128 85bd 8e86 acbd e08c 57bb 97cb c3bd
00000370: ccfe 04be 6661 2a3d fb30 83be 9c43 293e
00000380: e09c 563e 48a2 20bd 003b e9bc 18f5 d0bd
00000390: 202f 67be fe1f 79be 044a be3d 4a8e 0cbe
000003a0: 9693 24be a0ca 9fbc 7080 aabd 84a4 a5bd
000003b0: 009c 033c 0034 59bd b849 b0bd 0c26 f5bd
000003c0: c4a2 20be 4a8c 7f3e 2731 e6bd ac95 833d
000003d0: bcf4 26be a01e 5d3c 3e77 963e fe9f b83c
000003e0: c843 43be 72f8 4e3e 82cf 843e 63d4 2c3b
000003f0: e1be 203e 64ad da3e 35e3 86bd 40da 1f3c
-0.062740125 0.13480747 0.26932585 -0.066047885 -0.9603621 -0.012938531 0.26534986 0.30689117
0.33654198 -0.28179726 -0.2896052 -0.5715541 -0.19776782 0.1508352 0.13677537 0.2506869
-0.12910634 -0.17042795 0.13264453 -0.10105112 0.15173095 -0.05932516 0.14301148 -0.194242
-0.12616244 0.07621911 0.052851886 -0.06373969 0.14901736 0.1699523 -0.18129334 -0.13346705
0.3657971 -0.1950897 -0.11400497 -0.34711912 -0.1976845 0.14417249 0.05184558 -0.20064925
0.04128623 -0.08162501 -0.14380746 -0.27625304 -0.15686603 -0.30689383 0.2856136 0.0035836895
0.14428908 -0.07567544 -0.16419345 -0.08976359 -0.20373599 -0.40498036 -0.10196852 -0.24980266
0.109067604 0.0012424485 0.03400631 -0.66130173 -0.3599167 -0.14585045 -0.23362458 -0.22341707
0.2558304 -0.04472375 0.19355947 0.076668076 -0.11603308 0.3054347 0.011753394 -0.0639017
-0.22015357 -0.23601732 0.12448421 -0.054124556 0.21581475 -0.13709997 0.2927667 -0.20490135
0.053541392 0.0616343 0.07904575 -0.0051288554 0.17451167 -0.17669328 0.008923287 -0.122127175
-0.023018748 -0.18228032 0.27628207 -0.3445505 0.11398775 -0.004132455 0.11373939 -0.32348508
0.32212186 -0.059638083 -0.11959347 -0.2709503 -0.15188625 0.00850728 -0.05565048 0.13665251
0.022702236 -0.065043375 -0.08531139 -0.3161702 0.1611049 -0.24214636 -0.17585482 -0.12023204
-0.17658828 0.18466622 0.18824068 -0.16718103 0.028628612 0.101946555 0.07829267 -0.11143744
0.18572032 0.17311203 0.10608368 -0.11419539 -0.28372145 0.24259022 -0.17033555 -0.056068964
0.31564254 0.27034822 0.13745673 -0.3681939 -0.03418771 -0.056767307 0.1424518 -0.046332262
-0.29533666 0.06892559 0.22086652 0.17137471 0.14851712 -0.27383095 -0.074298546 -0.5324937
-0.07334031 0.008577133 0.18617408 0.118837446 -0.13911782 -0.07017748 -0.028840529 0.34081486
0.09739356 -0.056531 0.2109309 -0.21431912 -0.1462399 0.05996848 -0.070391856 -0.08849033
-0.22617537 0.2170934 0.19598673 0.14295499 -0.24919976 -0.20664123 -0.1275533 0.2255319
0.20297271 0.2966588 0.15172593 0.10601578 -0.17447343 0.0798948 -0.2981922 -0.24288605
0.16638678 -0.038058344 -0.035822075 -0.38559824 -0.26923275 -0.1815012 -0.07077191 0.0015435816
0.017065873 0.28987804 -0.13151039 -0.24645323 -0.22269295 -0.013948371 -0.3262483 -0.5172477
0.24370517 -0.033962917 0.1680063 0.12905234 0.13669 -0.19686042 0.22900705 -0.21253526
0.10376496 0.314619 0.039468333 -0.03741178 -0.033965867 -0.036795743 0.13837242 -0.2340442
0.22873804 0.2719504 0.21524702 -0.09099899 -0.25735798 0.05355155 0.1775251 -0.29310438
-0.0650183 -0.08424102 -0.0032890365 -0.09560316 -0.12987822 0.041596793 -0.25623307 0.16529697
0.2095828 -0.039217263 -0.028470516 -0.10202998 -0.2257657 -0.2432861 0.09291461 -0.13726154
-0.16071925 -0.019505799 -0.08325279 -0.080880195 0.008032799 -0.053028107 -0.08607811 -0.119701475
-0.1568709 0.2495586 -0.11239844 0.06425032 -0.16304296 0.013496071 0.2938785 0.022537228
-0.19068825 0.20211962 0.25939566 0.002637171 0.15697815 0.42710412 -0.06586305 0.009756625

net.2.bias f4 [64]
00000000: 42f3 88bc be2f 7dbe 6c0f 613e b1fb 253e
00000010: 6868 04be dbf1 2f3e d5f8 933e 5975 a93c
00000020: 8dd4 04be 62ed 983e ab82 233e 1f57 503e
00000030: 4192 1fbe 88ff 253e eadd 2ebe 91f1 853e
00000040: 8a66 a8bd 7832 1c3e e2ec 1d3e 0b64 c83d
00000050: 7d44 6ebc d20c 143e 8df4 73bd 98de 85be
00000060: 3be2 dcbc 235c 8b3e c8d9 c3bd 64d8 ad3d
00000070: b62b 8bbd f368 943e bbbb 213e 9e01 0d3e
00000080: 4338 bcbd 6c2f 51be b73d 173d b0c6 10be
00000090: 9788 403e 97ff 07be 3061 073e 5789 ba3e
000000a0: 60f4 433e 4f00 523d fff9 2cbe 8187 a43e
000000b0: 43e0 a9bd bd7f 2fbe ee77 ae3e 9215 84bd
000000c0: 20e4 90bc 2052 9a3e 5aeb 13be 40f5 2cbe
000000d0: 06eb b93d bf25 293d f2d2 3f3d e9a3 4cbe
000000e0: 6ed5 b23d 5f46 95bc 28b4 fbbd 8c2a 55be
000000f0: ed65 533e 6afb 123e ae2c 46be 16a7 8d3e
-0.016717557 -0.24725243 0.21978539 0.16209294 -0.12930453 0.17182104 0.2890078 0.020685839
-0.12971707 0.2986861 0.15967815 0.20345734 -0.15583135 0.16210759 -0.17076841 0.26160863
-0.08222683 0.15253627 0.15422395 0.09784707 -0.014542696 0.14458016 -0.059559394 -0.26146388
-0.026963344 0.27218732 -0.09563023 0.08488539 -0.067954466 0.2898632 0.1579427 0.13770148
-0.091904186 -0.20428246 0.03692409 -0.14138293 0.18802105 -0.13281094 0.13220668 0.36432907
0.1913619 0.051269826 -0.16892241 0.3213463 -0.08294728 -0.17138572 0.34075874 -0.06449427
-0.017686903 0.3014078 -0.14445248 -0.1689043 0.0907803 0.041295763 0.046832033 -0.19984402
0.08732115 -0.018222032 -0.122902215 -0.20817012 0.2064435 0.1435372 -0.19352981 0.2766654

net.4.weight f4 [64, 64]
00000000: bcc1 db3d 4804 be3c a707 8fbd 7d86 193e
00000010: 53e9 153e cc97 be3d 0d59 26bd 2052 eb3c
00000020: 48a2 1f3d da8c 803d f4af b63b 032c f9bd
00000030: 32b2 07be 683c 613d 68de adbd 3491 e53b
00000040: 8125 3f3e 130a 06bc 4d46 a63d 3716 fbbc
00000050: 3f54 59bd b61f 2a3d bdd8 733e d2ed 7f3e
00000060: a4e8 cc3d a19c a83d e9bc 8f3d 82db 8f3c
00000070: 9e49 58bc e780 993d c4cf debd 51fc 2f3e
00000080: 7383 9b3e f451 48bd d365 a33a 0283 7fbd
00000090: c950 d83c a329 a23c e5d8 81bd d55b db3d
000000a0: ab8a f13d 845f 95bd 7137 4ebe 12ec 53bd
000000b0: b3c3 1abe 8266 33be 9da4 8b3d 4268 b13c
000000c0: f857 81bd 57dd 1cbc 9c13 11be aa69 133e
000000d0: 6fef ad3c 0dc1 adbd 06a7 4b3d 9f92 873e
000000e0: 1b3d 2c3e 3d0d 763c d031 eb3d b20b d4be
000000f0: 06d2 2b3d e96a df3d 3d60 7bbd ee92 4b3e
00000100: 8bb5 503e 806c b33a 12da f83d 1096 8f3e
00000110: 40c4 e5bd 69b6 c0bc ea94 553d ced1 02bd
00000120: 28c4 253e 85b4 d4bd f8db 3f3e 40de de3d
00000130: 4ce3 863c eeab e8bc f82c 793d 3620 17b9
00000140: 6818 b33e 59fd 04bd d426 1d3e 6321 13be
00000150: 10de a4bd 083f 093d 3716 0cbe 13b4 d2be
00000160: 5cb4 95bd 40fc ec3c 8ed5 e4bc 2883 b13b
00000170: b009 c03d 64cd 863d 04bb e2bd 117e a73d
00000180: ced9 b6bd b001 473c e9e2 743d 6efb 42be
00000190: 009e afbd 1964 56bd f04d 08bd 3594 053e
000001a0: fc1f abbc 0d30 a13d b70d e83c c0d9 7cbd
000001b0: 8149 853c 8156 a63d e47d 67bd 1473 c9bd
000001c0: da95 fa3d 3673 f83d 0297 25be e38e 033e
000001d0: a69e 843d 34cf 8ebd 06a3 8a3c 9b72 d9ba
000001e0: 8c17 01bd 9870 bb3d e4e7 dabd 2289 183e
000001f0: 40ef 7b3d 8015 8f3d eb6b 143e f4dd 843d
00000200: 3bd0 12be d0de ffbc 10f7 66bc b613 ef3d
00000210: 05ee 10be 8538 e93d cf61 bc3d d331 01bd
00000220: 6fa7 643d c340 833d acd8 2e3e 3b6e 743d
00000230: f542 303e c3e6 a43c 864c b33d 2c03 363e
00000240: 7f1b 95bc 62c4 90bd 5691 b3bb 44e0 0c3e
00000250: 3abc ac3c dc43 3e3d 2739 873c e0bd aa3e
00000260: b546 2a3c 1cec dc3d fcbf 313e f0bd 5dbd
00000270: 04e8 593d 76bc 3a3d 9321 9d3d 80c7 3e3e
00000280: 12ca cebd e0ac e8bc c584 0c3e 8f0e d3bc
00000290: 1951 26bc 08c6 b1bd f569 47bd 38d6 2a3d
000002a0: 5952 d2bd 2fbb 6f3d 8a51 0ebe 4992 30bd
000002b0: ca08 8fbe 114e 8ebe 4d30 033e 5dd6 0e3e
000002c0: d62a e3bd ae45 993d 0d71 bbbe 2968 d43d
000002d0: e70e 253e dd81 0a3e b5fb b4bd be87 fa3e
000002e0: f557 fe3d e90a 18be 7afe f73d cfa5 87be
000002f0: 3303 99bd bd02 acbd 6a5a 06bd 5e4c c33d
00000300: a426 353d fc08 90bd 8e58 743c 8efa 833e
00000310: 9ba7 42be 9c70 2e3b ba4c 8b3d 101c 173d
00000320: 16ec 183e 2911 893d 6c4e 3b3e abc3 a63d
00000330: a399 b9bd 5fb6 243e 1800 8f3c a1b6 153b
00000340: 7d47 543e 2310 ca3d bdc9 11be b1b9 5dbd
00000350: 0265 053e 6838 4dbe cb9e 43be c819 9dbe
00000360: 9157 273e 2800 fb3d 95ca 983a 2f24 433e
00000370: 95d3 4bbd 739c 8dbd 52f3 203d be4c 333e
00000380: dd6f 8f3d 00c0 17b8 7a81 643e f380 f8bc
00000390: f07f 913d a344 40be b1c2 163e 69f5 febd
000003a0: a961 1b3e 2791 293d 6a07 3ebe faa1 a93d
000003b0: 390a debc 0f7e 18be e360 d7bc 77a6 74bc
000003c0: 7e62 c73d a094 d63c d963 eabd 603e 72bb
000003d0: 3421 e53c 4114 523d 4a73 89bd 0f51 7b3d
000003e0: 18b0 4cbd b719 5cbe 80c5 6ebd 45e0 563d
000003f0: a4cd 34bd e412 a8bc 2775 b4bb 8202 12bd
0.10730311 0.0231954 -0.069838814 0.1499271 0.14639787 0.09306297 -0.04061227 0.028725684
0.038973123 0.06276865 0.0055751745 -0.12166598 -0.1325157 0.05498925 -0.08489686 0.007005835
0.1866665 -0.008181113 0.081188776 -0.030650241 -0.05305886 0.04153415 0.23813148 0.24993065
0.1000531 0.082329996 0.07018454 0.017560724 -0.013201145 0.07495289 -0.10879472 0.17186095
0.30373725 -0.04890628 0.0012466259 -0.0623808 0.026405709 0.019795245 -0.063401975 0.10710875
0.11794027 -0.07293609 -0.20138337 -0.051738806 -0.15113716 -0.17519572 0.06818507 0.02165616
-0.06315607 -0.009574256 -0.14167637 0.14395776 0.021232335 -0.08484087 0.049719833 0.2647905
0.16820185 0.015017805 0.1148411 -0.41415173 0.04194834 0.10909063 -0.061371077 0.19880268
0.20381753 0.0013688952 0.121509686 0.28044176 -0.11219072 -0.02352448 0.05214397 -0.031938367
0.16188109 -0.10385994 0.18736255 0.108822346 0.016465805 -0.028402295 0.0608339 -0.00014412482
0.34979558 -0.032468174 0.15346843 -0.14368205 -0.080501676 0.033507377 -0.1368035 -0.4115301
-0.073097914 0.028928876 -0.027933862 0.0054172464 0.09376848 0.06582144 -0.11070827 0.08178342
-0.08928262 0.012146398 0.05978671 -0.19041225 -0.08575058 -0.052341554 -0.033277452 0.13044818
-0.020889275 0.07870493 0.028326852 -0.0617311 0.016270401 0.08121968 -0.056516543 -0.098364025
0.12235613 0.1213135 -0.16170886 0.12847476 0.06475572 -0.069731146 0.016923439 -0.0016589941
-0.031516597 0.09152335 -0.10688761 0.14896062 0.061507463 0.06986523 0.14494292 0.06487647
-0.14337246 -0.031234175 -0.01409699 0.116736814 -0.14153297 0.11387733 0.09198343 -0.031541657
0.05582374 0.06408837 0.17074841 0.059675436 0.17213042 0.020129567 0.0875483 0.17774647
-0.018201588 -0.07068707 -0.005479972 0.13757426 0.021085847 0.046451434 0.016506745 0.33347988
0.010392834 0.10787222 0.17358392 -0.054136217 0.053199783 0.045589887 0.076724194 0.1863079
-0.100971356 -0.028402746 0.13722523 -0.025763778 -0.010151171 -0.086803496 -0.048685033 0.0417082
-0.10269613 0.05852812 -0.13898292 -0.04310826 -0.27936393 -0.27793935 0.12811394 0.1394896
-0.11092155 0.074839935 -0.36609688 0.103714295 0.16118966 0.13526101 -0.08837072 0.48931688
0.1241912 -0.14847912 0.121090844 -0.2649369 -0.07471313 -0.0839896 -0.03280107 0.0953605
0.044226304 -0.07032964 0.014913691 0.25777096 -0.19009249 0.0026617413 0.06801744 0.036891997
0.1493381 0.06692726 0.18291634 0.081427895 -0.09062507 0.16085194 0.0174561 0.002284445
0.20730396 0.09866359 -0.14237113 -0.054132167 0.13026813 -0.20041049 -0.19103543 -0.30683732
0.16341998 0.12255889 0.0011657054 0.19056772 -0.049762327 -0.06914606 0.03929455 0.17509744
0.07003758 -3.618002e-05 0.22315016 -0.030334925 0.0710448 -0.18776183 0.14722706 -0.12449152
0.15173973 0.041398194 -0.18557516 0.08282848 -0.027104484 -0.14891838 -0.026291316 -0.014932266
0.09735583 0.026193917 -0.11444826 -0.0036963448 0.027969934 0.051288847 -0.06711443 0.0613566
-0.049972624 -0.21494184 -0.05829382 0.052459974 -0.044141427 -0.02051682 -0.0055071297 -0.035646923

net.4.bias f4 [64]
00000000: 0bb6 8b3d 2a46 783d 6139 033e f556 033e
00000010: ec01 133e 0f2f eb3d 0abd ed3d 386c 0a3e
00000020: f3f3 fa3c 2f49 063d c80f 86bc d1bb e1bd
00000030: 3ee4 103e 50a2 bebd 7a19 d6ba 85c6 f8bc
00000040: f61a d1bd aaf9 e73c 6308 e83d 75cf 10be
00000050: b6b2 fabc ab9a 30bd f17a 803d 1152 ca3d
00000060: 5155 46bc dcb4 11bc ef3a b33d ab92 e1bc
00000070: 5336 b7bc 9b9b 34bd e4ec ee3d 97f0 b53d
00000080: 7de3 15bd b2bc 4c3e c962 1e3e 7f90 5e3d
00000090: 32d4 81bd b955 263d 3295 3a3e 4481 113e
000000a0: 2437 73bd 60b4 c93d 9cd4 ddbd dc2f 803d
000000b0: f3bd 0e3e 0107 e63c 5ff3 a6bd 2797 783d
000000c0: a121 9d3d 1cab dc3d ab78 c5bc d685 b5bc
000000d0: eeff 463d c61f 903c a687 32bc 68fa e5bc
000000e0: cad4 283d 0aba da3d 8efe cdba d216 f63d
000000f0: 269f ba3d e8a1 c03d 9036 453d 8e7e 4fbd
0.06821831 0.06061379 0.12814857 0.1282614 0.14356202 0.11483585 0.11608322 0.13517845
0.030633902 0.032784637 -0.016364947 -0.11022151 0.14149567 -0.093083024 -0.0016334497 -0.030368099
-0.102102205 0.028317291 0.11329725 -0.14141639 -0.030602794 -0.043116253 0.06273449 0.09878934
-0.012105302 -0.008893218 0.08751475 -0.027535757 -0.022364771 -0.04409371 0.11666277 0.088837795
-0.036593903 0.19993857 0.15467371 0.05433702 -0.06339301 0.040609095 0.18220976 0.14209467
-0.059378758 0.09848857 -0.10831568 0.062591285 0.13939647 0.028079512 -0.08151888 0.060691025
0.0767243 0.10774824 -0.02410539 -0.022158545 0.048583917 0.017593276 -0.010896599 -0.028073505
0.041218556 0.106800154 -0.0015716122 0.120160714 0.091123864 0.09405881 0.048147738 -0.0506578

net.6.weight f4 [64, 64]
00000000: c630 013d ea37 53bd 98c4 c63d 09cd 65bd
00000010: 2097 8bbd ca4e d3bd 589f 7ebd 269a 883d
00000020: 35b4 0e3e 7aee 36be 5769 353d f28c 01bd
00000030: 9168 a83d c6d8 ac3d deb5 b53c 0886 8cbd
00000040: 3813 753c 2423 99bd e3e1 b43d 514e 9dbd
00000050: 0551 cabd c53d d03b 93e5 b43d 98f3 043e
00000060: bd17 e7bd da22 f83d 5258 aa3d 9477 673d
00000070: cc12 d1bc 88c5 d73c 9bb4 cbbd 4e2e 293d
00000080: 6c1a ecbc 7575 143e 8289 e33d f332 24be
00000090: 8501 103e 21ce 183e 8aa1 623d 998f bdbd
000000a0: 8d71 1abe a9ff 033d 60cb d83e 898b 833d
000000b0: e34e d5bb e88f ebbd 3050 36be 5647 27bd
000000c0: c033 29bc 10d9 dcba 39ea 2d3e 6102 b6bd
000000d0: 6f50 403e 368b 883e 4ede b9bd 1d64 90bd
000000e0: 38e3 02bd 4ad4 aa3d f6bd 9f3d b67d 0d3c
000000f0: 341c e43d 0a79 1e3e d38b c63d c8e2 4fbe
00000100: e462 afbd b501 9c3c 8426 ed3c b53c 7d3d
00000110: 54d5 f73d 856e 1a3e 9f78 22bd 557e 59ba
00000120: 47b7 273d c2d8 9cbd a4a0 f83d 3363 c83c
00000130: 732b f33d e415 283d a71b be3d e20b 293d
00000140: 3d15 3dbc 3349 aebd b2aa ee3d 100c 823e
00000150: 07e0 e8be c951 5abc d313 f43d 933c 8a3d
00000160: 3e10 7abc 56c2 603d b0a5 553d 08da 9f3c
00000170: f6d2 b3bd e094 65bd a9db f13c 7568 963c
00000180: e0e9 1cbe 82a7 2c3e 44da c0bb 9cda 4fbe
00000190: d0c2 a0bd f519 883d 2fc8 263e c81a b93c
000001a0: d9ab eebd 65c3 5ebd 54ba 223e 33d1 b2bb
000001b0: d1b4 d23d 2e88 f4bd 59d9 19be bb28 1dbe
000001c0: 9f12 a6bd 1035 06bd 8de8 67bd 811b d3bd
000001d0: a83e 843d 1210 3dbd c406 053e 4734 3f3d
000001e0: b76f 04bb d77b 10bc c191 8bbc 6236 cbbd
000001f0: 3b97 ff3d 2381 0a3e f104 11be 3077 c7be
00000200: fef3 bbbd ee53 78bd e744 a33c 8f16 c2bd
00000210: c5b6 ab3d 3a77 cf3c ed81 8dbd c083 1abe
00000220: 46ff 193e cd25 7e3d 986d ad3d 7e71 41be
00000230: 751e 463e 38df 963d 8380 0f3d 2da8 443e
00000240: ace5 b0bd 5c70 3cbc df9a 2a3e de76 9fbd
00000250: ead7 f4bd ca6c b8ba 2f8f e6bc 8a3a 7d3e
00000260: 0ba0 af3d 9e3d 02bc b168 1ebd 2f03 5f3d
00000270: f1d4 e0bc 86aa d0bc e500 15be 8598 f13d
00000280: df41 363c 8474 b83d 2649 a4bc 8164 43be
00000290: 0ea4 ccbc 4a3b df3d bcbf eb3b dd19 da3d
000002a0: aadf 83bd 7443 9fbc fecd 303d ddcd c23d
000002b0: eea1 dfbd fa78 1c3d a07f 3abe 4bad e5bb
000002c0: 9601 73bd 9397 a93d 6daf f3bc e8e7 353d
000002d0: 2038 60bd 724a 303e 3edb 49bd 523d 37bd
000002e0: 2831 213d 2fd4 3a3e 09d3 9f3d fbbe cfbd
000002f0: 454a 77bc 4482 2e3e bb2f 393d c550 8bbd
00000300: ebaf db3c 5f19 d8bc 30a4 fcbc 9b45 913d
00000310: fb06 df3d ba8e 0cbd 9f9b 9739 ce97 353e
00000320: cd85 dbbc b2be 2b3e 7c8f ba3d cecd 123e
00000330: 931e 4fbe b44a 0f3d 02a9 e33d d6ae 953d
00000340: 4ead 563d b25b 80bd ee0f 05be 667d 17be
00000350: 3511 a43d 8bbf b13d d6de 753d fbc5 18be
00000360: 3ff5 24bc 9d2e 76bd eb95 f8bc 7683 97bd
00000370: 5593 b33c 2206 ce3d ba40 0a3e 8238 a73d
00000380: 62fe abbc ccbd db3d 922e 203e b639 d9bd
00000390: 7d49 26bc 5212 e43d 60b1 d4bd d6d1 bf3d
000003a0: 0b5c 7e3d 6231 1b3e 94b4 79bc 0aa6 353e
000003b0: 0fec 1a3e d186 8fbd 4c77 183e 29f0 bfbd
000003c0: 33cc 96bd 549c 97bc 428e 34bd f6d3 a6bd
000003d0: 3a23 40be c6f6 10be c27c 12bd 1fde a73d
000003e0: ad94 983d 3db6 0a3d 5c56 2f3e 78a0 fcbd
000003f0: 8132 9dbd fc0f 733d 7ac8 8bbd 0c30 473e
0.031540655 -0.051566996 0.09705466 -0.05610374 -0.06815934 -0.10317762 -0.06216368 0.066700265
0.13935931 -0.17864409 0.044289913 -0.031628557 0.082230695 0.08439784 0.022181448 -0.06861502
0.014958195 -0.07477406 0.08832147 -0.07680953 -0.098787345 0.0063550198 0.0883285 0.12983549
-0.112838246 0.121160224 0.08317627 0.056510523 -0.025521658 0.026339307 -0.09946557 0.041303925
-0.028821193 0.14497931 0.11110212 -0.1603506 0.1406308 0.14922382 0.055329837 -0.09255905
-0.15082379 0.03222624 0.42342663 0.064230986 -0.006509648 -0.11502057 -0.17804027 -0.040839516
-0.01032728 -0.0016849358 0.1698388 -0.088871725 0.18780683 0.2666871 -0.090756044 -0.07050345
-0.031954974 0.08341272 0.07799904 0.008635929 0.11138192 0.1547586 0.09694638 -0.20301354
-0.08563784 0.019043783 0.02894903 0.061825473 0.12101236 0.15081222 -0.039665814 -0.0008296718
0.04094627 -0.07658531 0.12140015 0.024461364 0.11873522 0.0410365 0.09282618 0.041271098
-0.011540708 -0.085100554 0.11653651 0.25399828 -0.4548342 -0.013325163 0.11917844 0.06749835
-0.0152626615 0.054872833 0.052159965 0.019513145 -0.08780472 -0.05605018 0.029523687 0.018360356
-0.15323591 0.16860774 -0.0058853943 -0.20298237 -0.078496575 0.06645576 0.16287301 0.022595778
-0.11653871 -0.05438556 0.15891391 -0.0054570674 0.10288394 -0.11940037 -0.15024318 -0.15347569
-0.081090204 -0.032765448 -0.056618262 -0.1030798 0.06457263 -0.046157904 0.12990862 0.046680715
-0.0020208189 -0.008818588 -0.017037274 -0.09922482 0.12480017 0.13525824 -0.14162041 -0.3895812
-0.09177397 -0.060626917 0.019930316 -0.09476959 0.0838447 0.025325406 -0.06909547 -0.15089321
0.15038785 0.06204777 0.08468169 -0.1889095 0.19347556 0.07366794 0.035034668 0.19204779
-0.086375564 -0.011501398 0.16660641 -0.07786344 -0.11955245 -0.0014070508 -0.028144447 0.24729362
0.08575448 -0.007949261 -0.03867406 0.054446395 -0.027445288 -0.025471937 -0.14551122 0.11796669
0.011124103 0.090065986 -0.020054411 -0.19081308 -0.024980571 0.1089998 0.0071944874 0.10649464
-0.06439145 -0.019441344 0.0431652 0.095119216 -0.109195575 0.03820131 -0.18212748 -0.0070091835
-0.059327684 0.082808636 -0.029746735 0.044410616 -0.054741025 0.17215899 -0.04928135 -0.044736214
0.03935352 0.18245004 0.07803924 -0.101438485 -0.015093391 0.1704188 0.045211535 -0.06802515
0.026817283 -0.026379285 -0.03084001 0.07093354 0.10890003 -0.034315802 0.0002891691 0.1773369
-0.0267972 0.16771963 0.09109399 0.14336321 -0.20226507 0.03498335 0.1111622 0.07308738
0.05241137 -0.062674895 -0.12994358 -0.1479393 0.080110945 0.08679112 0.060026966 -0.14919274
-0.010068237 -0.060103048 -0.030344924 -0.07398121 0.02192084 0.100597635 0.13501254 0.08165075
-0.020995323 0.1072956 0.15642765 -0.106067106 -0.010149357 0.11136307 -0.10385394 0.09366195
0.062099498 0.15155557 -0.015240807 0.1773912 0.15129112 -0.07008136 0.14889258 -0.09371979
-0.07363167 -0.01850716 -0.04408098 -0.08145897 -0.18763438 -0.14156637 -0.03576351 0.08196663
0.07450233 0.033865202 0.17122787 -0.123352945 -0.076756485 0.059341416 -0.06825347 0.19451922

net.6.bias f4 [64]
00000000: fff2 09bd 8507 dd3d 7e9c 87bd 2631 acbd
00000010: 3b93 133e a052 99bd b0eb b2bd 4472 6abd
00000020: 0ebd 183e db3c c3bc 35a7 dabd db1b 86bc
00000030: 684a 83bb 75af ecbd edb0 52bc e916 f33d
00000040: 4405 b13d c7e0 9b3d 170b 953b b35d 6ebd
00000050: 5472 0bbd 33de 3bbd 3f49 a7bd e548 f8bd
00000060: c79e b03c 68a1 d23d ac7c 673d 0f72 c63c
00000070: 7dd2 9f3c 3664 2ebd f4fc b93d e0b0 0fbd
00000080: 509b 38ba 62f3 52bd 0b95 b5bd d7ba 56bd
00000090: 4b6b 4bbd fc13 523d 78ca a0bd 653e 803d
000000a0: 37ee 04bd 900a 253e c740 efbd 656b d03d
000000b0: 31be 77bd 19fb 94bc 49ce c1bd 13c2 97bd
000000c0: 32ea 7cbd d270 f3ba d6a0 f93d b9e7 913d
000000d0: 7f97 583c 18c7 a23d 4aeb cebc 1176 60bd
000000e0: 2ddb a2bd bd71 cabd f2ff bd3d a946 2abd
000000f0: b5f3 86bd d76d 8a3d 243b 453d 4f6e 993d
-0.033679005 0.1079245 -0.066216454 -0.08407812 0.14411633 -0.074864626 -0.0873636 -0.05723788
0.14915869 -0.02383273 -0.106764235 -0.016370704 -0.0040066727 -0.11556903 -0.012859565 0.11869604
0.086435825 0.07611232 0.004548441 -0.058194827 -0.03404458 -0.045866203 -0.081682675 -0.121232785
0.021560086 0.10284692 0.05651538 0.02422431 0.019509548 -0.042576037 0.0908145 -0.03508079
-0.00070421863 -0.05150164 -0.08866318 -0.052424278 -0.04966287 0.05128859 -0.07851118 0.06261901
-0.032453742 0.1611731 -0.11682277 0.10176734 -0.060484115 -0.018186139 -0.09463174 -0.074100636
-0.061746784 -0.0018573052 0.1218888 0.07124276 0.013219713 0.0794813 -0.025258679 -0.054800097
-0.07951961 -0.09884975 0.09277333 -0.041571293 -0.06589452 0.067592315 0.048152104 0.07491743

net.8.weight f4 [64, 64]
00000000: 8f33 8fbd 464b 4d3e 3977 a0bd cd2e 2c3e
00000010: 7b62 233e 6c49 f9bc 5dc6 5abd bc97 6bbe
00000020: 4474 273e 45ce e2bd a01b 61bd 36d1 c93d
00000030: e05a e8bd bff2 a03d e0d3 2f3d f2db 503d
00000040: 6fb7 7a3d cd12 733d f087 2a3e fdf1 30bd
00000050: 3925 5b3d a3d0 e2bd 4d65 1c3e cc45 e03d
00000060: 81f1 8bbd 1181 ebbb d772 3a3e 0bf6 163e
00000070: 0d3e 173d 2caa afbd e85b d83d 6fe5 3f3e
00000080: 6225 2a3e d59c 7e3d 548b ccbd d678 a93d
00000090: b835 323c 9026 613e 580e 523d e6b5 3a3e
000000a0: 39e7 d6bb b350 e7bd 1c54 97bd 42d8 223e
000000b0: 4407 563e 1a97 0abb 3d45 adbd a898 083e
000000c0: fd41 d83d e1ba bdbd e6ca 583d b84f 3a3e
000000d0: 2c94 adbd bd43 9f3d 1fff ca3d c316 33bd
000000e0: f371 623d 1b55 2b3e da4b d63d e669 e9bd
000000f0: ca4f 983d d9e7 253e 062a 2cbd f99e 053d
00000100: a200 a03d d336 9b3d 96a1 eabb e188 903d
00000110: e21d 5a3d 4ce2 a0bc 1cdc 8cbd 08cd 80bd
00000120: fade f0bd 9202 99bd fa1d fb3c e91b bd3c
00000130: 865b 0fbd d05e 29bc 1243 a63d 9e61 2a3c
00000140: 57b3 d2bd f23c b23d 6980 833d a983 febb
00000150: 0fc7 343d b3c0 ddbd 0a81 733d 56f5 ae3c
00000160: 7bf1 edbc 8f6f 28bd e72c af3d d81d 8b3c
00000170: 098a b0bd e03a 663d 43ef 813b 580c 35bd
00000180: 950f 8c3d 3f35 dc3d 5f70 2fbb 1a33 60bd
00000190: ffa3 91bd 6241 aabd a659 833d 39f0 783d
000001a0: 270b 9dbd dd88 853d 0035 a33b 615a cdbc
000001b0: 0b73 77bd c3ce eabd e4e8 ebbd c5bf a03d
000001c0: 1608 37bd 0582 50bc 1f9b c4bd fb05 25bd
000001d0: edb8 8bbd 096a 15bc 290d 0dbe 609d 463c
000001e0: 5098 e2bd 63c3 e0bd 9584 b3bb 9024 5abc
000001f0: 3677 62bd f78c 5b3d 5dc5 e6ba 2086 2c3c
00000200: a7f6 7f3d 4770 2ebb 6f93 a4bd 62b5 25bd
00000210: 1184 563d e3c8 013e e40a 6a39 285e d73d
00000220: 4baf 97bd b092 18bd a19d f2bc 26cf 153c
00000230: 5554 113e 4be8 51be 3eb5 e23c 2846 083e
00000240: f04e f4bd 9faf da3d 0f55 98bd d5fa eebc
00000250: d87d 9ebd 0707 6f3d 1943 e8bc 5cb6 5dbd
00000260: ee85 adbc 1763 28bb a935 f83d f807 d33b
00000270: 9263 e53d 184d f5bd 17a3 98bd fd6b 963c
00000280: e56c 863d 2c8b ff3d f726 ff3d d13f 023c
00000290: 8349 b2bc 6859 2fbe aae0 ffbd 89b0 fabd
000002a0: 340e c13d cedc 943d 69d7 e63d fe60 753d
000002b0: a4f3 613c b3f6 0d3e 8561 123d 6270 a2bd
000002c0: e3e2 0bbc f0bf 39bd 0fb9 9d3d 35c0 1a3d
000002d0: 94b7 7b3e 0e0e 8bbd 1351 bb3d 29af 5f3d
000002e0: e69b cfbc 2e32 cabc 8b1c d63d d9d2 88bc
000002f0: 3c97 a03d 1850 5a3b 5d4a 453d f456 89bd
00000300: 5c28 81bd 049e 9f3d 65e0 bc3d 22fa 79bd
00000310: 18ac e9bd 7218 913d 284d fbbc 58b1 efbd
00000320: 9a70 c43c b0c7 4bbc 5870 b83d 0063 d93c
00000330: d078 a2bd 502f b9bc af77 bcbd 3067 6f3d
00000340: 18c6 153d 9c1e 973d 941a c2bd cc7f 8ebd
00000350: f66b a0bd 45ea d8bd 0a6a f3bd ba7b cebd
00000360: d854 b23d 1fbd 23bd 08ea bcbc 750d 113d
00000370: d4f9 fa3c 1031 663d 88c1 b4bd 0279 e33d
00000380: a09c 23bc 1c22 73bd ba99 a03d 62d9 d4bd
00000390: 4c3e 9dbd 4a46 903d d879 463d c4c4 4abd
000003a0: 76c0 48bc e68e cdbc 6432 503d 1071 cd3c
000003b0: 38a1 3b3d 88d1 ce3d 46b4 b4bd a88f c9bd
000003c0: f8ee f2bc 8026 69bd b00e b6bd 9af2 e83d
000003d0: 2cdd d53d 8cb4 ce3d fcab 9dbd 702c 72bc
000003e0: c22f c7bd 889b 38bd 9db1 d03d 5061 803c
000003f0: 3658 283d 307b febd faaa 493d 789c ac3d
-0.06992256 0.20048246 -0.0783524 0.16814728 0.15955536 -0.030430518 -0.05341183 -0.23007101
0.16352946 -0.11074499 -0.054957986 0.09854357 -0.11345458 0.078588 0.04292667 0.050991006
0.061210092 0.0593441 0.16653419 -0.043199528 0.053502295 -0.110749505 0.15273018 0.10950813
-0.068331726 -0.007187017 0.1820787 0.14742295 0.03692441 -0.085773796 0.10564405 0.18739866
0.16615823 0.062161285 -0.09987512 0.08275001 0.010877065 0.21987367 0.05128321 0.18233451
-0.0065583256 -0.11294689 -0.073890895 0.15902808 0.20901209 -0.0021147192 -0.08460472 0.13339484
0.10559461 -0.0926416 0.052927874 0.18194473 -0.08475527 0.07776592 0.09911942 -0.04372288
0.05528445 0.16731684 0.10463686 -0.11397152 0.074370936 0.16201724 -0.042032264 0.03262231
0.07812621 0.07578816 -0.007160376 0.070573576 0.053251155 -0.019639157 -0.0687792 -0.062891066
-0.117612794 -0.074711934 0.030653942 0.023084598 -0.034999393 -0.0103375465 0.081182614 0.01039925
-0.102881126 0.08703031 0.06420977 -0.00776716 0.04413515 -0.1082777 0.059449233 0.02135722
-0.02904581 -0.041122016 0.08553486 0.016982004 -0.08620078 0.05620849 0.00396529 -0.044201225
0.068389095 0.107523434 -0.002676986 -0.054736234 -0.07111358 -0.08313252 0.064135835 0.06077597
-0.07668143 0.06520245 0.0049806833 -0.02506751 -0.060412448 -0.11465218 -0.1151903 0.07849077
-0.044685446 -0.012726312 -0.095998995 -0.040288907 -0.06822381 -0.009119519 -0.13774551 0.012122482
-0.110642076 -0.10974767 -0.0054784515 -0.013314381 -0.05528947 0.05360123 -0.0017606426 0.010530025
0.062491085 -0.0026617215 -0.08035933 -0.040456183 0.052372042 0.12674288 0.00022320036 0.10516006
-0.07406481 -0.037249267 -0.029616179 0.009143626 0.14192326 -0.20498769 0.027674314 0.13308012
-0.11929119 0.10678028 -0.07438099 -0.02917234 -0.077388465 0.05835631 -0.028352307 -0.05412899
-0.021182027 -0.0025693828 0.1211961 0.006440159 0.11200632 -0.11977595 -0.07452982 0.01836204
0.06563739 0.12477717 0.12458604 0.007949785 -0.021763569 -0.1712395 -0.12494023 -0.12240703
0.09426537 0.07268678 0.11271555 0.059906952 0.013790999 0.1386364 0.035737533 -0.079315916
-0.008537981 -0.04534906 0.07701313 0.03778096 0.24581748 -0.0678979 0.09146323 0.054610405
-0.025342893 -0.02468213 0.10454663 -0.016702102 0.07841346 0.00333119 0.04816662 -0.06706038
-0.06306526 0.07793811 0.09222487 -0.06102956 -0.114097774 0.07084741 -0.03067644 -0.117037475
0.023979474 -0.012437746 0.09005803 0.026536465 -0.079331994 -0.022605568 -0.09202515 0.058448017
0.03656587 0.07378885 -0.094777256 -0.06957969 -0.07833092 -0.10591558 -0.1188546 -0.10082193
0.08707589 -0.03997528 -0.023060814 0.035413224 0.030636705 0.056199133 -0.08825976 0.11107065
-0.009986073 -0.0593587 0.07841821 -0.10393025 -0.07677898 0.070446566 0.048456043 -0.049504057
-0.0122529175 -0.025092553 0.050829306 0.025078326 0.045808047 0.10098559 -0.08823447 -0.098418534
-0.029654965 -0.056921482 -0.0888952 0.113743976 0.10442576 0.1009303 -0.07698819 -0.014781103
-0.09725906 -0.0450702 0.10190127 0.015671402 0.04109975 -0.1242584 0.04923532 0.084282815

net.8.bias f4 [64]
00000000: 12de cc3d 14f3 1bbd 1f03 e03d 5128 82bd
00000010: 4dd6 c8bc 3967 cc3d bf4d d1bd f350 f13c
00000020: 80de e83d 5eee 45bc bc42 f73d 0618 f9bd
00000030: 7ec4 143c 5dd5 9abd 6840 553d 36d1 283e
00000040: 2926 e2bd 3b6a 4ebd 5815 c4bd 1f61 3cbd
00000050: b221 383c e362 b03c 2082 c8bd ebe7 98bd
00000060: 3ccb 14bd 40af 103c 0ea8 cabd 08ad a4bd
00000070: 3cc9 c7bd 7741 bd3d 2b58 133e 899f 3bbd
00000080: e7e8 c83c 1042 f9bc d7ca 37bd 264b a33d
00000090: 6b6b a1bd 2c94 1d3d d84f a93d 7e96 f9bd
000000a0: 78e8 0e3e a171 c13d fa46 893b dac9 f33c
000000b0: 43ba 5ebd a682 3abd 16ac 66bd 704b 03be
000000c0: 0d39 043d 9e77 f13c 748e d4bd dd98 f53d
000000d0: 78ea b6bd c1a4 f13b 855f fbbc 935b 003e
000000e0: 23b7 dfbc dba2 863c 371c 8cbb 9161 d53d
000000f0: cc65 bcbd 269c 8abd ea84 d9bc 0081 fcbd
0.10003294 -0.038073614 0.10938095 -0.06355346 -0.02451625 0.09980626 -0.10219907 0.029457545
0.113705635 -0.012080757 0.120732754 -0.12162785 0.0090800505 -0.07560227 0.052063376 0.16486058
-0.11042435 -0.050394278 -0.095743835 -0.04599106 0.011238502 0.021531528 -0.097904444 -0.0746611
-0.036326632 0.008830845 -0.09895335 -0.080408156 -0.09755179 0.09241002 0.14389102 -0.04580644
0.024525119 -0.030427009 -0.044871178 0.07973318 -0.078818165 0.038471386 0.08267182 -0.12186907
0.13955867 0.09445501 0.0041893693 0.029759336 -0.05437685 -0.045534752 -0.056316458 -0.12821746
0.03228097 0.029475983 -0.10378733 0.11992047 -0.0893144 0.0073743765 -0.030685196 0.12534933
-0.027309006 0.016435077 -0.0042758244 0.10419 -0.09199104 -0.06768064 -0.026552636 -0.12329292

net.10.weight f4 [14, 64]
00000000: 4eea 37bd 6fe8 c8bd 1036 483c ad1b 793c
00000010: 139c 8d3d c54b 053e 71ef 443d 8f15 a1bd
00000020: c536 e93a 39c2 ad3d 6242 f0bd accb 69bb
00000030: c1e0 693c b327 52bd 6934 29be 0c09 b7bb
00000040: 6b1d 63be e3c2 fb3d a82e 1f3d 33a3 d0bd
00000050: f23b a43c 197f dd3d a491 293d b6a5 ba3d
00000060: c6c9 e2bd 0de0 66bd 496d 523d 8069 813d
00000070: 5d6b 873d f13c 943c 2592 ce3d 85ef 9dbd
00000080: f50e 1d3e 2f4c ce3d 9681 dd3d f5d5 583d
00000090: d3c4 bfbc e9ad cebd 0c7a d2bd a1c3 013d
000000a0: 1dbd 593d 017f 54be 9dbf 78bb d622 f4bc
000000b0: 2ba6 4d3e 9812 d43d cbb9 8a3d 39ef d43d
000000c0: 98c5 04be 10fd 17bd 0459 d33d 35c4 12be
000000d0: 6ee9 f7bd a015 173e f40a 1e3e 3971 543e
000000e0: d95a 323e 481b 023e 417f 313e caed 8abd
000000f0: e1b3 8bbd ba85 103d c593 313e 783b d83d
00000100: 51be c9bc 72f3 843d 7ad8 d9bb d638 c83d
00000110: da7f 48be 6287 043e 55de 4dbc 3187 0f3d
00000120: b8be 043d b309 b63c 9b86 fbbd 89a0 bcbd
00000130: 68ca 053d 58cc 8ebd 88f0 a13d bb84 14be
00000140: 756b 53be 2afb aebd 7330 1ebc ac97 f93d
00000150: 84fc 373e d02d 52be 04ae 65bd f722 8f3d
00000160: f89d 2abc d39b d03d aac8 243d bf8b 4cbc
00000170: c08d b2bd e10a 35bb 358b ae3d 5ceb bc3d
00000180: bfa7 28bd f050 33ba 7805 9b3d e0ff 94bd
00000190: b0f3 f63c 1c3e 903d 9457 fd3d 7b19 a6bc
000001a0: 3086 0c3e 2053 c63d ae4f 36bc 2ab8 913d
000001b0: f5d1 083e 9537 a1bc 4a62 91bd d1de 8e3c
000001c0: 9a93 b33d 2b65 89bd 32ef 68bd b465 8fbd
000001d0: 722c c4bd c56e 123e 7542 febc ac07 e3bb
000001e0: 2e3f 5f3c 101d 60bd 59c7 813e 7856 223c
000001f0: 1778 4e3d f58f 313d d8db 293e 9066 013d
00000200: 1bb3 be3c 305a a93c 72ac 473d 1313 8ebd
00000210: c872 edbc cb3d 9fbd b33d a5bd 29a5 453e
00000220: 6f9a 8d3c e587 7cbd 1fd2 5a3b 86dd 233e
00000230: 6e92 133d 5abf d4bd 3100 c23c 842b 8bbd
00000240: 13e8 76be 0dc3 5e3d 3b6a 323c 5ec5 763d
00000250: ff65 623e 59a6 003e 10be c13c 8d2b c5bd
00000260: 66f5 c1bd 8e77 7a3d 5fe4 57bd 795d f0bc
00000270: 0ece df3d 44df d73d 01d4 b23c 1a7c e03c
00000280: a42d 223d 7ec7 ab3d c17f f33c da10 c9bd
00000290: 69c6 9d3d 21bc 263d a2d0 fb3d 69c9 debd
000002a0: 96da dc3d fd13 05bd d075 39be ea1c cb3d
000002b0: b6f1 bebd 1961 113e 1e41 13bd 7d24 5dbd
000002c0: 7ed3 dbbd 64ad 9f3d 668c e43a b8ac 9ebd
000002d0: 6014 bdbd 1d57 80bd ae70 f0bd 1d85 53be
000002e0: ec4d d93d 4263 353c 5f75 633e 2a70 c9bd
000002f0: adf2 113d 9f01 51bd 1c08 243d beaf ce3d
00000300: 4e7e 81bd fe90 1cbd d5a1 e4bd b83f f9bd
00000310: 4ce8 8c3e 9c19 97bd a3c1 92bd 7ddc ffbd
00000320: 45f7 f5bd 8c85 c7bd 9d17 a7bd 724f 4b3e
00000330: 2f08 1abd 19e8 3f3c 66a3 2dbd e1c6 cf3e
00000340: ec8b 9cbd fd21 3c3d fdde a4bc f909 09be
00000350: 040c 793e f8de cc3d a626 bc3d 1ad3 723d
00000360: a9ba 613b 639c 123d be73 01be 81c0 313e
00000370: 4c4a 933c 6a37 183e a560 28be 23f6 d0bd
00000380: c9e8 033e dac2 c83c 9a10 c73e b914 4b3d
00000390: c372 12be f1b3 d5bc 856e dd3d 89f8 1e3e
000003a0: 9a9b 08be 6f27 303e 6b79 813e 7b87 b33c
000003b0: d761 84ba d3b8 a3bd e0d2 623d 3620 0f3d
000003c0: 8fc7 a5bd 2002 b63d 4e92 503d c86d b83d
000003d0: e01e cebb 8e2a 073e 3ef5 82bc 04ef 0dbe
000003e0: f287 0f3d 1b20 c13d 5638 153e be46 403d
000003f0: 10f7 043a 11a9 3a3d 61a9 16be e0c8 013c
-0.044901185 -0.09809958 0.012219921 0.015204352 0.069145344 0.13017185 0.04807991 -0.0786544
0.0017792812 0.08484311 -0.117314115 -0.0035674376 0.014274777 -0.05130739 -0.16523899 -0.0055857953
-0.22179191 0.12293031 0.038862854 -0.10187378 0.020048115 0.108152576 0.04139866 0.09113638
-0.110736415 -0.056366015 0.051373754 0.06318951 0.06612275 0.018095465 0.100864686 -0.077117
0.15337737 0.100731246 0.10815732 0.05293842 -0.023409283 -0.100917645 -0.10277185 0.031680707
0.053158868 -0.20751573 -0.0037956007 -0.029801767 0.2008292 0.10355109 0.067737184 0.103971906
-0.12966001 -0.037106574 0.10319713 -0.1433266 -0.1210507 0.14754343 0.15433866 0.20746316
0.17417468 0.1270572 0.173337 -0.06783636 -0.068214186 0.03528378 0.17341526 0.10558218
-0.024626883 0.06491746 -0.0066481205 0.097764656 -0.19580022 0.1294227 -0.012565215 0.035041038
0.032408446 0.022221422 -0.12281533 -0.09210307 0.032663733 -0.06972569 0.07907206 -0.14503758
-0.2064646 -0.085439995 -0.009655106 0.12187132 0.17967421 -0.20525289 -0.056074157 0.06989091
-0.010413639 0.10185971 0.04023043 -0.01248449 -0.08718443 -0.0027624893 0.085226454 0.09224579
-0.0411756 -0.0006840369 0.075694025 -0.07275367 0.030145496 0.070430964 0.1237022 -0.020275822
0.13723063 0.096838236 -0.011127396 0.07115205 0.13361342 -0.019679824 -0.07098825 0.017440232
0.08768387 -0.067087494 -0.05686874 -0.0700182 -0.0957879 0.14300068 -0.031037549 -0.006928405
0.013625903 -0.054715216 0.25347403 0.009908311 0.050407495 0.04335018 0.1658777 0.03159195
0.023278764 0.020672888 0.04874844 -0.06937232 -0.028985396 -0.07775458 -0.08068409 0.19301285
0.017285554 -0.061653037 0.0033389402 0.16002473 0.036028318 -0.1038806 0.023681732 -0.06795409
-0.24111967 0.054385234 0.010889585 0.060246818 0.22109221 0.12563457 0.0236502 -0.09627447
-0.09470634 0.061149172 -0.052708026 -0.029341446 0.10927974 0.105406314 0.021829607 0.027402926
0.039594308 0.083876595 0.029724004 -0.09817667 0.07703859 0.040706757 0.12295653 -0.1087826
0.107838795 -0.032489765 -0.18111348 0.09917624 -0.093234465 0.14197196 -0.035950772 -0.053989876
-0.10733698 0.077967435 0.0017436862 -0.07747787 -0.09232402 -0.062666155 -0.11740242 -0.20656247
0.106105655 0.011071028 0.22212742 -0.09835847 0.035631824 -0.051026937 0.040046796 0.10092114
-0.06322919 -0.038224213 -0.111636795 -0.121703565 0.27520978 -0.073779315 -0.071658395 -0.12493227
-0.120100535 -0.09742269 -0.08158801 0.19854525 -0.03760546 0.011713051 -0.042392157 0.4058142
-0.076438755 0.04593085 -0.02012586 -0.1338271 0.2432099 0.100034654 0.09187059 0.059283353
0.0034443534 0.035793673 -0.12641808 0.1735859 0.017979763 0.14864889 -0.16443117 -0.10203197
0.12881769 0.024506975 0.38879853 0.04958031 -0.1430159 -0.02608678 0.108120956 0.15524496
-0.13340607 0.17202543 0.25287947 0.021915188 -0.0010099959 -0.07994237 0.055376887 0.034942828
-0.080947034 0.08887124 0.050920777 0.09005314 -0.0062903017 0.13199827 -0.015986081 -0.13860708
0.035041757 0.09429952 0.14572272 0.046942465 0.00050722156 0.04557139 -0.1471305 0.0079214275

net.10.bias f4 [14]
00000000: fe3f b8bd bb07 873d 9501 51bd 0d32 a5bd
00000010: 57cb f5bd c335 eebc 5dce b53d 3d06 843d
00000020: 3369 9dbd 0db5 9cbd c9db 683d cd23 bebc
00000030: dc77 afbd c661 09bd
-0.089965805 0.06593271 -0.0510269 -0.08066187 -0.120016746 -0.02907837 0.08877251 0.06446502
-0.07686081 -0.0765172 0.05685023 -0.02321043 -0.08567783 -0.03354051
