case5_best_model.pth (torch, 62594 bytes, 12 tensors)

net.0.weight f4 [16, 2]
000000 a7 c1 13 3f 2c 06 14 3f f9 91 30 be 8e 5e 2d 3f
       0.57717365 0.5782192 -0.17243184 0.67722404
000010 fb 96 0b be bb 10 f9 3d 05 bb eb be a9 64 ec 3e
       -0.13631813 0.12161394 -0.46041122 0.46170548
000020 c5 ac 2c 3f 72 b0 09 bf 2a dc 24 3f 07 ea 08 3e
       0.67451125 -0.5378486 0.64398444 0.13370524
000030 72 62 0a 3f 7f 21 d4 3c 61 36 d7 3e e0 5e ba bd
       0.54056466 0.025894878 0.42033675 -0.09100127
000040 8c 77 15 3f e2 d0 64 3d 41 80 92 be 06 d1 22 3e
       0.5838554 0.05586327 -0.28613475 0.15900049
000050 c3 b8 e6 be 21 86 90 bd b1 0e 8d be c7 c9 00 3f
       -0.45062837 -0.07056833 -0.2755027 0.5030789
000060 74 15 32 bf 99 b1 90 be a8 d1 92 be 49 c4 e0 be
       -0.69563985 -0.28260496 -0.2867558 -0.43899754
000070 0e 74 3b 3d 4a bb 3a bf 7b 8d 29 3f a2 c6 26 bf
       0.045764975 -0.7294203 0.6623151 -0.6514684

net.0.bias f4 [16]
000000 71 5c 1e 3f 64 ac 1a 3e 6c 58 80 be c4 fb ee 3e
       0.61859804 0.15104824 -0.2506746 0.46676457
000010 2c 68 0b 3e 4e ca 1c 3f d4 6e 48 3e e6 2a 55 be
       0.13613957 0.6124619 0.19573528 -0.20817146
000020 eb c1 7b 3e 33 41 6e be b9 e8 a6 3e cc c7 22 3f
       0.24585693 -0.23267059 0.32599428 0.63586116
000030 61 26 df 3e c4 30 97 be 84 aa df 3e 74 7c 3d 3e
       0.43583968 -0.29529393 0.4368478 0.18504506

net.2.weight f4 [64, 16]
000000 78 e9 27 3e 00 a9 e9 bd 11 52 76 be f7 72 dc bd
       0.16397655 -0.11409187 -0.24054743 -0.10764115
000010 83 3c 25 be 06 b7 7a 3e bc 79 c1 3d c6 be a9 3d
       -0.16136365 0.2448388 0.09447047 0.0828834
000020 89 95 e8 3d e6 3e f1 bc 25 cc 31 3e ff a1 2f be
       0.113566466 -0.029448938 0.17363031 -0.1715164
000030 53 b2 e5 bb 15 05 6f be 22 d0 ce 3d b7 9f 5f bd
       -0.0070097833 -0.23341782 0.10098292 -0.054595675
000040 08 36 32 3e 3b da 51 3d 88 3f 4f 3e 3a bc cf bd
       0.17403424 0.05123351 0.20239079 -0.10143323
000050 8d 3f c9 bd ec 85 98 bd 9d c9 95 3e ec 51 d3 3d
       -0.098265745 -0.074474186 0.2925538 0.1031836
000060 86 f4 a5 3e 0c 98 56 be fe b3 4c be ab 8b 05 be
       0.3241312 -0.20956439 -0.19990537 -0.1304156
000070 80 82 fd bd 07 4a dd 3d 40 ec 0d 3e e0 a9 83 3e
       -0.123784065 0.10805135 0.13859653 0.25715542
000080 74 34 04 be aa 84 2e be f8 d3 07 3e e4 f3 ce bd
       -0.12910634 -0.17042795 0.13264453 -0.10105112
000090 5c 5f 1b 3e f0 fe 72 bd 9a 71 12 3e 60 e7 46 be
       0.15173095 -0.05932516 0.14301148 -0.194242
0000a0 ba 30 01 be c4 18 9c 3d 38 7b 58 3d f4 89 82 bd
       -0.12616244 0.07621911 0.052851886 -0.06373969
0000b0 02 98 18 3e fa 07 2e 3e f6 a4 39 be 96 ab 08 be
       0.14901736 0.1699523 -0.18129334 -0.13346705
0000c0 1d d3 83 3e 6d 55 15 bb d4 4a a9 bd 26 ed 59 be
       0.25747004 -0.0022786513 -0.082662255 -0.21281871
0000d0 99 3b 07 be cb 70 b7 3d 74 0b 39 bd 22 27 7b be
       -0.13206328 0.089570604 -0.04517694 -0.24526647
0000e0 a0 60 4a 3c 41 32 29 be 70 8f 3a be fa 17 ba bd
       0.012352139 -0.16523077 -0.1821878 -0.090866044
0000f0 43 66 43 be 74 4c 2f be be 26 92 3e 59 38 7f 3d
       -0.19081978 -0.17119008 0.28545183 0.062309597
000100 1c c7 9d 3d 66 c4 6e be 54 22 28 be 14 6c aa bd
       0.07703993 -0.23317108 -0.16419345 -0.083213955
000110 c0 1f 20 3d 86 42 61 be 64 9b dc bd 58 42 19 be
       0.03909278 -0.21998033 -0.10771826 -0.14966714
000120 00 9e 35 3a 50 84 be bd f0 ea 8d bc 24 79 2d be
       0.0006928146 -0.0930258 -0.017323941 -0.16940743
000130 98 b7 2f be d2 59 15 be 9c 41 af bd 50 0e 4a be
       -0.17159879 -0.14585045 -0.08557436 -0.19732022
000140 26 7c 5f 3e 5d 86 dd bc 99 74 5f 3e 27 59 da 3d
       0.21824703 -0.027041608 0.21821822 0.10661536
000150 32 fb 7c be 00 bb 25 3e 24 f6 40 be 54 6f b0 bd
       -0.24705198 0.16184616 -0.18843895 -0.08614984
000160 7d da 93 be 8a 5d 6a be cb 8c b6 3d a2 8f ff bc
       -0.2887763 -0.22887245 0.08913573 -0.03119642
000170 df f6 e1 3d a4 64 35 be 73 0a 33 3e a1 e5 59 be
       0.11033415 -0.17714173 0.17484455 -0.21279003
000180 5b 3a 45 bd 93 1f a5 3d 23 4b ff 3d 72 97 99 3e
       -0.048151355 0.08062663 0.12465503 0.29998356
000190 3a 9c 61 3e f4 84 27 be 2e d5 b0 bd 2a d2 32 be
       0.22032252 -0.16359311 -0.08634411 -0.17462984
0001a0 d1 f1 06 be 18 a5 2a be ec 43 a2 3e 1c 48 c1 bd
       -0.13178183 -0.16664541 0.31692445 -0.09437582
0001b0 32 14 5f 3e 7e 7c 57 3e e7 ed 00 3e 8e a7 04 be
       0.21785048 0.21043584 0.12590753 -0.12954542
0001c0 c0 37 8b 3e c5 ab 8b 3d c8 67 6b 3d 8f 80 5c be
       0.2719097 0.06819872 0.05747202 -0.21533416
0001d0 16 27 0f 3e 3f 5e 34 3b fe a7 80 bd b5 de 8b 3e
       0.13979754 0.0027521995 -0.06282042 0.2731835
0001e0 ba eb d9 3d 5b 84 fa bd b5 0f 0c be 70 3a 9c bb
       0.106406644 -0.12232276 -0.13677867 -0.0047677085
0001f0 c2 a6 d7 3d 54 d5 82 bd 6f 89 1a be c8 77 5c bd
       0.105298534 -0.06388345 -0.1509149 -0.05382517
000200 f3 f6 1a be 19 66 e2 3d 80 27 46 3e de be 5d be
       -0.15133266 0.1105463 0.19351006 -0.21654841
000210 e7 89 c9 3d b0 b7 2d 3e 57 b0 92 3d c7 1e b9 bd
       0.09840756 0.16964602 0.071625404 -0.090390734
000220 35 12 2a 3e 08 88 06 3e 2e 01 18 3e 3f 8f 80 3b
       0.16608508 0.1313783 0.148442 0.0039233263
000230 30 12 42 bc 5e d2 02 3d 2b 5d 5e 3c ce 20 07 bd
       -0.011845157 0.031938903 0.013572018 -0.03299027
000240 c8 8c 42 3e 33 27 79 3e dd d5 0b ba b2 ba e9 bc
       0.18999016 0.2433136 -0.00053342973 -0.028531406
000250 0f f7 9f bc 7a 69 80 3c 53 23 ba 3d 0e 50 c3 3c
       -0.019526986 0.015675295 0.09088769 0.023841884
000260 66 92 48 be 4e 5a 92 bd 01 84 66 3e 13 43 00 3e
       -0.19587097 -0.071461305 0.22511293 0.12525587
000270 1c db 64 bc 08 58 1a be 48 dc 34 be 35 8b 80 be
       -0.013968255 -0.15072644 -0.17662156 -0.25106207
000280 8c e4 a6 bd 90 e7 ac 3d 2c 3b 23 3e 98 63 ec 3d
       -0.081490606 0.084426045 0.15940541 0.115424335
000290 28 4a 62 be e4 f2 19 be b0 9a 21 bd 38 a4 77 3e
       -0.22098601 -0.15034062 -0.039454162 0.24183738
0002a0 18 21 14 3d d0 97 84 bd 7c d2 d3 3d e8 02 c3 bd
       0.036164373 -0.064742684 0.10342881 -0.09522039
0002b0 8c b2 25 be e4 d9 3a 3e ac ce e8 bd 28 47 4d bd
       -0.16181391 0.18247181 -0.113675445 -0.050116688
0002c0 7e ab 7e be 52 55 2b 3e 58 f4 41 3e f4 98 ba 3d
       -0.24870107 0.16731766 0.18940866 0.09111205
0002d0 90 80 32 be 18 a8 7c be f6 ea 4f be 36 e6 3e 3e
       -0.17431855 -0.24673498 -0.20304474 0.18642506
0002e0 6c d0 f5 3d d6 6c 57 3e 56 1c 06 3e 4c 95 81 3d
       0.12002644 0.21037611 0.13096747 0.06327304
0002f0 80 71 20 bb 86 b0 42 be 6c 55 5b be 02 73 6f be
       -0.0024481714 -0.19012651 -0.21419305 -0.23383716
000300 e4 97 d1 3d 28 60 fb bd 28 15 4e bd 50 54 13 be
       0.10234049 -0.122742 -0.050313145 -0.14387631
000310 d0 98 3a bd 86 2e 34 be 40 46 27 be 00 d6 a9 3d
       -0.04555589 -0.17595872 -0.16335392 0.082927704
000320 20 2a 98 bd 34 0a 1e 3e 0c 41 a4 bd 10 cb 3b be
       -0.0742991 0.1543358 -0.08020219 -0.18339181
000330 68 ac 34 bd d0 30 f8 bd 60 a4 9c bd fc b5 73 be
       -0.044109732 -0.12118685 -0.076485395 -0.2379989
000340 43 8b 00 3e 05 27 3e be d3 f2 88 3d 5d 11 f1 3d
       0.12553124 -0.18569572 0.0668694 0.1177089
000350 ea c5 20 3e 1b fe 49 be ec 0a 12 3e 31 dd 37 be
       0.15700498 -0.1972584 0.14261979 -0.17955472
000360 9e 26 80 3d 0e b8 42 3e 48 0f ce 3b 10 79 f3 3b
       0.06257366 0.19015524 0.0062884428 0.0074302033
000370 eb 04 71 bb 3c 1b 3b be 62 98 1d 3e 7a 67 87 be
       -0.0036776613 -0.18272108 0.1539016 -0.26446134
000380 b3 14 3f 3e 6c 1d 4e 3e c9 27 83 3e f1 5f 61 bd
       0.1866024 0.20128411 0.2561629 -0.055023137
000390 5a cd 2c be 7c 2b c4 3d 1a dc 21 3e 54 e7 92 be
       -0.1687521 0.095786065 0.15806618 -0.28692114
0003a0 41 14 b9 bc 35 cf 0e be 2e 07 ab bc 61 8b e4 bd
       -0.022592666 -0.1394623 -0.020877447 -0.11159397
0003b0 6c 77 d1 bd 0d 0c 0c be 60 fd 41 be d6 89 7a 3e
       -0.10227856 -0.13676472 -0.18944311 0.24466643
0003c0 e0 9c 56 3e 48 a2 20 bd 00 3b e9 bc 18 f5 d0 bd
       0.2095828 -0.039217263 -0.028470516 -0.10202998
0003d0 20 2f 67 be fe 1f 79 be 04 4a be 3d 4a 8e 0c be
       -0.2257657 -0.2432861 0.09291461 -0.13726154
0003e0 96 93 24 be a0 ca 9f bc 70 80 aa bd 84 a4 a5 bd
       -0.16071925 -0.019505799 -0.08325279 -0.080880195
0003f0 00 9c 03 3c 00 34 59 bd b8 49 b0 bd 0c 26 f5 bd
       0.008032799 -0.053028107 -0.08607811 -0.119701475

net.2.bias f4 [64]
000000 85 ae 0b 3d a4 ae 39 3e c0 2d b7 bd e0 44 22 3e
       0.03410198 0.18133026 -0.08944273 0.15846586
000010 cc 8e a4 bd ce 48 56 3b 4d eb 17 be ea 04 8b bd
       -0.08035049 0.0032697204 -0.14835854 -0.06788047
000020 db cc 8b bd 3d a7 6f bd 68 7a 23 be fa 41 66 be
       -0.068261825 -0.0585091 -0.15964663 -0.22486106
000030 d0 5b 85 3c 30 67 54 3e 3a 6d 89 3e ce 63 15 3e
       0.016279131 0.20742488 0.26841146 0.14588854
000040 f8 3d c3 bd be 2f 7d be f1 03 ba 3d 90 66 34 3e
       -0.09533304 -0.24725243 0.09082783 0.1761725
000050 1f c7 33 be 76 f4 05 3e 19 b5 6e 3e 20 1f 78 3c
       -0.17556427 0.13081536 0.23311271 0.0151441395
000060 d5 64 02 be 59 ea 64 3e e8 b9 e9 3d 15 f4 39 3e
       -0.12733777 0.22355022 0.11412412 0.18159516
000070 ba 47 2e be 78 de 07 3e bd 60 10 be 87 3a a2 3e
       -0.17019549 0.13268459 -0.14099403 0.31685278
000080 2c ef d8 bd 63 06 4b 3e 20 0c 4d 3d 5a fe 02 3e
       -0.105924934 0.19826655 0.05006039 0.1279234
000090 18 09 1d bd 94 30 da 3d cd 50 87 bd 62 23 49 be
       -0.03833875 0.10653797 -0.066072084 -0.19642404
0000a0 15 99 b4 bd d2 f2 63 3e 24 06 a4 bd ff 07 b8 3d
       -0.088182606 0.22260597 -0.08008984 0.089859
0000b0 c8 4c bd bd 2a 9a 6a 3e 5a d1 3d 3e b8 77 ea 3d
       -0.092431605 0.22910371 0.18536893 0.11448616
0000c0 01 d1 a3 bd 6c 2f 51 be f2 37 52 3d 97 5b 1a be
       -0.07998849 -0.20428246 0.051322885 -0.15074001
0000d0 9f 1d 76 3e e1 d7 0c be b4 49 1f 3e c2 35 7f 3e
       0.24034737 -0.13754226 0.1555546 0.2492285
0000e0 29 d3 27 3e 1a 33 16 3e bb 7b 68 be 4b 1e 91 3e
       0.16389145 0.14667931 -0.2270345 0.28343424
0000f0 18 27 2f bd 02 3b 28 be ac 39 7e 3e cc cb 8e bd
       -0.042761892 -0.1642876 0.24826688 -0.06972465

net.4.weight f4 [64, 64]
000000 92 66 45 3d ba 8f 25 3e 9a 75 b1 bd 90 a8 4f bd
       0.04819352 0.16168109 -0.08665009 -0.050697863
000010 28 85 a6 3c 6b 19 1e bd 99 fc 8b 3c 7e da f6 bc
       0.020327166 -0.03859846 0.017088221 -0.030133482
000020 c9 ba 97 3d e3 23 d8 bd 28 b4 7b bd 2e 67 ea bd
       0.07408673 -0.1055372 -0.061451107 -0.11445461
000030 64 bc 87 3d 78 15 2d 3d 1a 8e 8d bd 38 26 cb 3d
       0.066277295 0.042256802 -0.06911869 0.09919399
000040 c1 63 f8 3b 48 04 be 3c 5a 62 9d bd b0 3a 26 3d
       0.007580251 0.0231954 -0.07684775 0.040583313
000050 25 a4 e3 3d 24 42 02 3e 7a 47 e7 bd a6 ae e9 3d
       0.111152925 0.12720543 -0.1129293 0.11410265
000060 19 23 57 bd ef 93 ed 3d 7b ec 16 3e d6 de 07 3e
       -0.052523706 0.11600482 0.14738648 0.13268599
000070 98 8f c7 bd 68 2e 01 3e 6f 35 24 bd ae c2 03 3d
       -0.09744185 0.12615359 -0.04009002 0.032168083
000080 2c e2 b2 bd 1d fb 5c 3b 20 22 ba bb d0 52 9c 3b
       -0.08734545 0.003371901 -0.0056803375 0.004770614
000090 70 c4 a1 bc 1f 36 c6 3b 1e 4b ce 3d bf 82 02 3d
       -0.019746989 0.006048932 0.10072921 0.03186297
0000a0 17 d3 8c 3d a6 34 27 3d dc 6b cb 3d 65 37 51 3c
       0.068762 0.040821694 0.09932682 0.012769555
0000b0 50 d7 22 3c 92 86 08 3c 42 82 81 bd 4b 87 c0 bd
       0.00993903 0.008332865 -0.06323673 -0.09400805
0000c0 c6 70 20 3d f4 51 48 bd 48 13 30 3c cc f9 0e bd
       0.03917005 -0.04890628 0.0107467845 -0.034906194
0000d0 a0 52 35 3d 7d 13 05 3e c3 9e 6e bc 34 05 cd 3d
       0.04426825 0.12995715 -0.014564219 0.10010758
0000e0 8e 88 d9 3d 01 d9 93 bd 44 45 18 be 05 d7 94 bd
       0.10621749 -0.072191246 -0.14870173 -0.07267574
0000f0 0e 4b 8c bd de db cb bd 38 16 81 bc 99 9d ba 3b
       -0.06850253 -0.09954046 -0.015757665 0.0056950566
000100 c3 f4 c4 bd 64 b0 90 bd 94 36 39 bd ea 8d cc 3d
       -0.09616997 -0.07064894 -0.045218065 0.099880055
000110 10 c3 3d bd a3 da 29 bd 80 e3 1f 3d 64 de 48 bd
       -0.046328604 -0.041468274 0.03903532 -0.049040213
000120 44 88 33 3d 04 bb 0e 3e d0 31 eb 3d ea 7b bb bd
       0.043831125 0.13938528 0.1148411 -0.09154494
000130 b2 92 a4 3d d0 b0 fd 3d 3c 0b 9b bc 60 4f eb 3d
       0.080357924 0.1238724 -0.018926255 0.11489749
000140 70 09 06 3e 80 6c b3 3a 09 20 e6 3c 00 18 bb bb
       0.13089538 0.0013688952 0.028091447 -0.005709648
000150 2a c2 10 be 64 51 03 3d 35 1c 17 3d a4 4f a7 bd
       -0.14136568 0.032060042 0.036892135 -0.08169487
000160 07 4f fc 3d 79 fb 0f be d5 8d b9 3d 8f d0 1b 3e
       0.12319761 -0.14060773 0.090602554 0.15216278
000170 74 65 0b 3d 0f 2b be bd 9d 71 8a 3d 1d 00 e7 3c
       0.0340323 -0.092855565 0.06759951 0.028198296
000180 f0 38 0b 3d 05 11 6f 3c 32 e8 c2 3d 81 89 d5 b9
       0.033989847 0.01459146 0.09516944 -0.00040728974
000190 00 58 e6 bc 7e 64 09 3d 15 04 5f 3d da a0 1e 3e
       -0.028118134 0.033543102 0.054447252 0.15491048
0001a0 66 f0 30 bc 3c ff 33 3d f3 26 bb 3c e1 22 6e bd
       -0.010799503 0.043944582 0.02284572 -0.058138732
0001b0 fc 84 ae 3d 03 94 44 3d ee b4 18 be 9e 3e ed 3c
       0.085214585 0.047992717 -0.14912769 0.028960522
0001c0 a9 d4 18 bd b0 01 47 3c 5e 04 ce 3c da 40 00 be
       -0.037312184 0.012146398 0.025148567 -0.12524739
0001d0 ef 07 4e bc 47 54 2f bd d8 7b 36 bc 32 35 eb 3d
       -0.012575134 -0.042804983 -0.011137925 0.114847556
0001e0 dc 16 59 bd b8 33 b4 3d 8c 98 8c 3d 74 13 ce bd
       -0.053000316 0.08798927 0.068650335 -0.10062304
0001f0 30 a0 f0 3c 87 4c 39 3e 7e 5e 68 bd c6 57 e4 bd
       0.029373258 0.18095599 -0.05673074 -0.11149554
000200 cb b2 1d 3e 97 e5 f0 3d 24 d2 8e bd b2 51 eb 3d
       0.15400235 0.11762541 -0.06973675 0.114901915
000210 a0 00 83 bc 14 4f 17 be ea ce 9a 3b 08 17 7f 3d
       -0.015991509 -0.1477626 0.004724373 0.062277824
000220 5b c0 b8 bc af 5a 91 3c e4 e7 da bd 7e 69 b1 3d
       -0.02255266 0.017743437 -0.10688761 0.08662699
000230 b0 3f da 3d 5b fe 8e 3d e6 e0 86 3c 6c a0 28 3d
       0.10656679 0.06982108 0.016464662 0.041168615
000240 77 5b 00 be d0 de ff bc cf 23 d6 bb d2 52 aa bd
       -0.12534891 -0.031234175 -0.0065350304 -0.08316578
000250 13 4d a4 bd 88 6e d1 3d 05 61 8b 3d 06 7f e8 bd
       -0.08022513 0.1022616 0.068056144 -0.11352353
000260 8b 49 cc 3b 75 4f d0 3d df fd 0d 3e 87 3c 82 3d
       0.006234353 0.10171405 0.13866375 0.06359201
000270 77 0f e9 3d e8 a7 07 bd 88 9f ba 3d b7 e2 cc 3d
       0.11379903 -0.033119112 0.091124594 0.1000418
000280 7c bf f1 bd 21 80 b7 bd 60 43 cf 3c 4b 0a 5b 3d
       -0.11804101 -0.089599855 0.025300682 0.053476613
000290 48 5e 7e bd 7e 9f 01 3c a5 20 19 bd 9c a0 73 3c
       -0.062101632 0.007911561 -0.037384648 0.014869835
0002a0 88 ec c1 bd 00 cb 43 3d da 8b ac 3d 9d 32 aa bd
       -0.09468943 0.047801018 0.08425112 -0.08310435
0002b0 00 b8 9e 3a 00 ac ad bc 35 e3 4c 3d 55 e4 c6 3d
       0.001210928 -0.02120018 0.05002137 0.0971152
0002c0 96 65 f8 3c e0 ac e8 bc c5 41 cd 3d 5d 0c 59 bd
       0.030321877 -0.028402746 0.1002231 -0.052990306
0002d0 6c 5e 18 bd ce 3e 66 3c 7d 2d ce bd a0 db 5e 3c
       -0.037199423 0.01405306 -0.1006727 0.013602167
0002e0 88 88 53 bd 2a d1 74 3c 61 00 3e bc 05 47 e8 3d
       -0.05164388 0.014942447 -0.01159677 0.11341671
0002f0 38 e2 d7 bd c1 54 1b be b5 af 35 3d 12 3a f1 3d
       -0.10541195 -0.1516905 0.04435702 0.11778654
000300 82 d0 92 bd b6 79 ab 3d 76 72 bc bd d8 ec dd 3d
       -0.07168676 0.08372824 -0.09201519 0.1083619
000310 ec 2b ee 3d c3 ee b6 3d e8 89 25 be 0d d6 72 3d
       0.11629471 0.08932259 -0.16165888 0.059286166
000320 b3 af c3 3d 18 d9 83 3c 7a fe f7 3d 8c 5a 4b bd
       0.09554996 0.01609473 0.121090844 -0.0496469
000330 10 4d ee bc c8 e6 ed bc 84 7f 81 3d 20 92 07 3d
       -0.02908948 -0.02904071 0.0632315 0.03309834
000340 5d 5e be bc fc 08 90 bd 2a 5d d5 bd 35 3f 8d 3d
       -0.023238355 -0.07032964 -0.1041816 0.068968214
000350 6e 7d 2d be 78 10 48 3d 96 d0 5a bd a4 71 4f bd
       -0.16942379 0.04884383 -0.05342158 -0.050645486
000360 fe 0a 59 3d aa 58 7c 3d 6b 04 fb 3d 26 7d 64 3c
       0.052989 0.061607994 0.12256702 0.013945853
000370 24 47 9f bd 98 d5 d1 3d 72 59 24 3d 2f c7 d5 bb
       -0.07777241 0.10245818 0.040124364 -0.0065239887
000380 f6 ba a8 bd f8 80 7e 3d 20 29 f4 bd 32 7b 70 3d
       -0.08238785 0.062134713 -0.119219065 0.05871124
000390 dc 27 7d 3d 39 eb 19 be 48 96 02 be eb 93 8b bd
       0.06180559 -0.15031137 -0.1275264 -0.068153225
0003a0 d1 ed fd 3d f5 60 d6 3d 64 a8 d1 3c e5 17 0b 3e
       0.123988755 0.10467712 0.02559299 0.13583334
0003b0 e4 29 2b bd 16 5d 0e be 9c 6c 96 3d 57 3e 5a 3d
       -0.041787997 -0.13902697 0.07344934 0.05328211
0003c0 a3 96 1b 3e 00 c0 17 b8 d8 f6 ec 3d 15 a4 8a 3d
       0.15194182 -3.618002e-05 0.11570519 0.067695774
0003d0 80 91 00 3e 94 66 e7 bd c7 22 0b 3e 5a 3a da bd
       0.12555504 -0.11298862 0.13587485 -0.10655661
0003e0 46 69 3a 3e 8b 6b 94 3c 5c 4d d1 bd 73 a2 6a 3e
       0.18204221 0.018117687 -0.10219833 0.22913532
0003f0 90 6e d0 bc 48 c7 c8 bd 13 57 89 bd 2b a6 0e 3d
       -0.025443345 -0.09803635 -0.06706061 0.03482644

net.4.bias f4 [64]
000000 e0 1a 68 bd 74 45 0b bd 6e c2 9c bd 25 02 76 3d
       -0.056666255 -0.034001783 -0.07654272 0.06006064
000010 68 de 6f 3d 54 9d e8 3d 03 09 ec bc 08 82 d9 bc
       0.058561713 0.11358133 -0.02881289 -0.026551262
000020 df 46 13 3e c3 87 13 bd f9 68 39 bd 5f 11 f5 bc
       0.14382504 -0.036018144 -0.045266125 -0.02991551
000030 e8 ae e2 bd 5c 37 bd bd 66 65 e2 3d 02 b2 4d 3d
       -0.11068517 -0.092390746 0.110544965 0.05021859
000040 0d e7 9d 3d 70 1c 42 3d ce 1b e0 3d b3 5e 0a 3e
       0.07710085 0.0473904 0.10942803 0.13512687
000050 64 dc ed 3d 62 0d bc 3d 5b ea f5 3d ac 43 a7 3d
       0.11614302 0.0918224 0.120075904 0.08167204
000060 25 66 8e 3a a5 ce 6e 3c d1 e0 3f bd 42 c8 81 bd
       0.0010864182 0.014575635 -0.04684526 -0.06337024
000070 63 fb 1b 3e 10 c3 f0 bd 70 61 3e bd 63 2e 9c bd
       0.15232615 -0.11755955 -0.046479642 -0.07626035
000080 ee 3f 89 bd 4b 82 46 3d b6 f5 d6 3d 3e e1 a5 bd
       -0.06701647 0.0484641 0.104960844 -0.08099602
000090 7e 88 0b 3d 2c fe bc bd 60 e0 c1 3c 72 fc b9 3d
       0.034065716 -0.09228167 0.02366656 0.09081353
0000a0 87 0d 8e bc a4 c7 60 bd 92 2c da 3d 89 6e ba bd
       -0.017340435 -0.054877892 0.10653032 -0.09103114
0000b0 f5 cc a2 bd 40 c2 b0 bd 7c 25 fa 3d 8f 75 9b 3d
       -0.07949249 -0.086308 0.12214181 0.07590782
0000c0 d2 78 51 bd c4 d3 11 3e a1 15 07 3e 73 8d 8c 3d
       -0.051140614 0.14240938 0.13191845 0.06862917
0000d0 5c c8 b4 bd 01 b5 b7 3b df f1 22 3e 74 1f f0 3d
       -0.08827278 0.005606294 0.15912579 0.11724749
0000e0 7c ec 0b 3b ed d9 eb 3d 38 77 a7 bd b1 e9 89 3d
       0.0021350672 0.115161754 -0.08177036 0.06734026
0000f0 da b8 08 3e a5 cf 14 bd 1c eb 96 bd 9e 27 60 3d
       0.13351765 -0.036330838 -0.07369062 0.054725282

net.6.weight f4 [64, 64]
000000 50 ac 8e 3d c4 0a b2 3d a4 65 a8 bd 88 d0 b7 bc
       0.0696646 0.0869346 -0.082225114 -0.022438303
000010 e0 2d d5 bb 08 08 b3 bc 98 41 e3 bc 78 7c 38 bd
       -0.006505713 -0.021854416 -0.027741238 -0.045040578
000020 ac 53 30 3d a0 4d 73 3d 28 e4 c6 bc 8c 2b c9 3d
       0.043048546 0.0594002 -0.024278715 0.09822759
000030 00 18 30 ba 60 a0 f9 3c 44 23 00 3d 70 54 2e bd
       -0.00067174435 0.03047198 0.031283632 -0.042560995
000040 80 ce b3 bb d0 b9 64 bc 78 a0 41 3d fe 88 89 bd
       -0.005487263 -0.013960317 0.047272176 -0.06715582
000050 c4 07 6b bd f0 1a f7 bd e0 ba 5e bd 94 32 23 3d
       -0.057380453 -0.12065685 -0.054377437 0.039843157
000060 94 eb ce 3d 96 61 fc bd 24 31 38 bd aa 0f a1 3d
       0.10103527 -0.123233005 -0.04496874 0.07864316
000070 40 70 8a bd c6 d8 ac 3d 80 4d a5 3b 54 b1 f0 bd
       -0.06759691 0.08439784 0.005044639 -0.11752573
000080 60 25 ad 3c 28 72 99 bd 08 05 c7 3c f0 60 e5 bd
       0.021135986 -0.07492477 0.024294391 -0.1120013
000090 ae 8d f0 3d e4 73 5a bd 0c ba a3 3d ba 11 a1 bd
       0.11745773 -0.05333318 0.0799447 -0.07864709
0000a0 de 8d d6 bd 08 70 49 3d 36 e8 99 3d 80 5d 93 ba
       -0.10476278 0.049179107 0.07514994 -0.0011243075
0000b0 2a 80 d8 bd 54 71 0c bd d8 66 b1 bd 6c 08 11 3d
       -0.1057132 -0.034287766 -0.08662194 0.035408422
0000c0 38 cf a5 3c 6a e6 b1 3d 6a 8b ff 3d 00 af 6c bd
       0.020240411 0.08686526 0.12477763 -0.05778408
0000d0 c6 42 ca 3d 28 dc b1 3d d8 67 9d 3c 2c fe fa bd
       0.09876017 0.086845696 0.019214556 -0.12255511
0000e0 3c 8e b1 bd 30 18 5f 3d 70 3a be 3d 60 d0 88 3d
       -0.08669707 0.054466426 0.0928849 0.066803694
0000f0 50 07 41 3c 96 af 9b bd ee f2 e0 bd 98 4b 92 bd
       0.011781529 -0.0760185 -0.10983835 -0.071433246
000100 76 ad 78 bd b3 76 b7 3c 1d a3 1e 3c 08 a7 cb bd
       -0.0607123 0.022395467 0.009682444 -0.09943968
000110 5a e4 85 3d f8 50 0e 3e 20 76 2c be cd 68 77 bd
       0.06537695 0.13898075 -0.16841936 -0.06040268
000120 72 30 08 bd 7c 87 76 3d aa 4f e5 3d 53 ce e6 3d
       -0.033249326 0.0601878 0.11196835 0.11269822
000130 c6 36 ad 3d 1a 23 cf 3d 12 f9 c8 3d 95 1d 12 be
       0.08457713 0.10114117 0.098131314 -0.14269097
000140 63 2d bd bd e8 d1 c6 bb 93 41 7a bd 59 e3 bb bd
       -0.092371725 -0.0060675032 -0.061097693 -0.091742225
000150 94 f7 e5 3d ae d8 29 3e d6 7e d8 bc 34 b2 6c bd
       0.112288624 0.16586563 -0.026427668 -0.057787135
000160 bc df d3 3d 59 c3 03 3d 86 91 35 3d cd 70 0c bd
       0.10345408 0.03216872 0.044328235 -0.034287263
000170 bf 13 4b 3d 4b 1c 2a 3d d4 09 3a 3e d6 f2 a7 3d
       0.04957938 0.04153089 0.18167812 0.08200614
000180 fa 15 ae bd 3f 03 53 bd d1 2b f0 3d 31 d0 8b bd
       -0.085002854 -0.051516768 0.11727107 -0.06826819
000190 05 38 60 3c 88 a7 aa bc 5c 5d bc 3d 2a 56 8d bd
       0.013685231 -0.020831838 0.091974944 -0.069012
0001a0 bd c4 2c bd 6c b9 2c 3d 7b be 2a 3d 32 89 cb bc
       -0.04217981 0.04216902 0.041685563 -0.024845693
0001b0 3e 5d be bd f7 73 1e bd c0 60 3b bd 76 65 4e 3d
       -0.09295128 -0.03868481 -0.045746565 0.05038973
0001c0 c1 31 8e bd 9e c1 14 3e 59 03 bf 3d f8 d5 7c bd
       -0.069430836 0.14526984 0.093268104 -0.061727494
0001d0 42 cd 8b 3d 91 5b 73 bd a4 f0 20 3e 36 e3 04 3c
       0.06826259 -0.059413496 0.15716797 0.008110812
0001e0 a2 83 b3 3d b4 ed d9 bd 18 74 d3 bd 4a 49 69 3d
       0.08765341 -0.106410414 -0.103248775 0.05695466
0001f0 f3 99 da 3d 97 bd d3 bd 6f ea 7a bd 0a c6 e6 bd
       0.10673895 -0.10338896 -0.06125873 -0.11268242
000200 85 2b 2d be e6 6a e0 bb 27 e9 15 be 6a a1 c5 bd
       -0.16911133 -0.006848681 -0.14639722 -0.09649928
000210 c4 27 1d bd 5b ff 57 3c 8c 72 1d 3d cf d7 52 3d
       -0.038368 0.01318344 0.03843932 0.051475342
000220 74 a0 25 3c 53 38 a3 3c 7a f9 d7 bc 19 2d 4d bd
       0.010109056 0.019924318 -0.026364077 -0.050091837
000230 dc f4 b1 3d 64 a2 e5 3d ca d1 eb bd f0 eb f8 bd
       0.08689281 0.11212614 -0.115146235 -0.121543765
000240 07 4d a8 bd d6 22 94 bc 8b 75 0e bd e0 f9 50 be
       -0.08217817 -0.018083017 -0.034780066 -0.2040782
000250 e6 9e b9 3d b3 0d 6e 3d bd b4 26 bd a8 a7 f7 bd
       0.090635106 0.058118533 -0.04069971 -0.12092525
000260 15 66 2b 3e 6d 79 13 3e 49 8e 17 bd 87 2a 16 be
       0.1673816 0.14401789 -0.037000928 -0.1466466
000270 22 9d d0 3d 29 34 b0 3d 4e b3 70 3d f7 4e 19 3e
       0.10186221 0.08603699 0.05876475 0.14971529
000280 3c 6f 18 be 66 95 09 3d ba 77 1a 3e fa 58 d2 bd
       -0.14886183 0.033589743 0.15084735 -0.10270877
000290 02 81 23 3d 14 ae 59 bd a8 98 51 bd 17 c0 a3 3d
       0.039917953 -0.05314453 -0.051170975 0.079956226
0002a0 b5 69 21 3d fa bb e8 bd 40 ae e0 bd cc 3a a2 ba
       0.03940745 -0.11363979 -0.109707355 -0.0012377142
0002b0 88 7f 3c bd ab f8 26 bd 46 48 d2 bd 5f 20 0a 3e
       -0.04602006 -0.040764492 -0.10267691 0.13488911
0002c0 6a f8 e8 3d 42 1a 9c 3d a5 b1 f5 3c 17 ca 41 bd
       0.11375506 0.07622196 0.029991934 -0.04731187
0002d0 20 37 00 bc af 7d 10 bd eb ff 57 ba b9 0b e5 3d
       -0.007825643 -0.03527611 -0.0008239734 0.111838765
0002e0 f3 2d c3 3d 21 dd b7 3c e8 58 4a 3d 63 5c fa 3d
       0.095302485 0.02244431 0.049401194 0.122246526
0002f0 01 1b 87 bd 20 02 7e 3c dc 59 44 be 67 9b 3a bd
       -0.065969475 0.015503436 -0.19174904 -0.04555836
000300 87 75 16 bd e7 f9 e7 3d b5 48 e1 bd 78 ad b1 3d
       -0.036733177 0.11326962 -0.11000196 0.08675665
000310 a8 45 e9 bd 90 83 ac 3d 40 62 a5 3d 9e f5 c5 bd
       -0.11390239 0.08423531 0.0807538 -0.096659884
000320 cd ce 9e 3d 5a e2 08 3e 88 68 9d 3d 28 a2 25 be
       0.07754288 0.13367596 0.076859534 -0.16175139
000330 48 b0 04 bd bc 36 e8 3d 9d 03 9e 3c 44 d7 3d 3d
       -0.032394677 0.11338565 0.019288832 0.04634787
000340 54 f4 4c 3d e2 4f 3c bd d2 92 3b 3c 31 d5 ba 3d
       0.050037697 -0.04597462 0.011448579 0.09122694
000350 f4 07 04 3e b0 76 17 bd 40 48 e2 39 a8 ed c2 3c
       0.12893659 -0.036978424 0.0004315991 0.023794964
000360 56 3f eb bd dd 07 2a 3d ac 64 a1 3d 40 26 1a 3d
       -0.1148669 0.041511405 0.0788053 0.037634134
000370 29 2f 39 bd 3e 35 cb bd 79 9b fc 3b fe 06 8b 3d
       -0.04521099 -0.099222645 0.0077089635 0.06788443
000380 84 1d 93 3d f4 92 6f bd cc 6c c2 bd cb 4b cf bc
       0.07183364 -0.058489755 -0.094934076 -0.025304696
000390 fd 36 a8 bd d0 72 e3 3d 50 ce d5 3c 16 cb bc 3c
       -0.08213613 0.11105883 0.026099354 0.023046058
0003a0 2f f2 3a bc 00 cb c3 bc 20 2a d1 bc 8c 3c 27 bd
       -0.01141028 -0.023900509 -0.025532782 -0.040829226
0003b0 3e f4 30 bd ed eb d1 3d 3d 36 44 3e 40 e0 91 3d
       -0.043201678 0.102500774 0.19161315 0.071228504
0003c0 e5 f0 8e bd e4 87 0c 3e 7e 93 cd 3d 61 cf 27 bd
       -0.06979541 0.13723713 0.100378975 -0.040969256
0003d0 80 38 8d 3b 12 58 1f 3e 3e a9 98 bc 1e 1b ba 3d
       0.004309714 0.1556094 -0.018635388 0.090872034
0003e0 42 65 5e bd 22 d5 c9 3d 44 63 32 3d 6c 40 ff 3d
       -0.054295786 0.09855105 0.0435517 0.12463459
0003f0 26 f5 24 3e 13 44 0a be 5b 1a a7 3d 2d dc 7e 3c
       0.16109142 -0.13502531 0.08159324 0.015555424

net.6.bias f4 [64]
000000 10 83 b1 bc 1b 52 1d bd 79 d1 19 3e 22 a7 c8 3c
       -0.02166894 -0.03840838 0.15021314 0.024493758
000010 3f 69 e6 3b ee c8 b7 bd 7b e5 4a 3d 99 02 62 3d
       0.0070315893 -0.08973871 0.049535256 0.05517826
000020 e0 f4 d7 3d c2 24 0c bd 36 4f 88 3d 93 4c cd 3b
       0.10544753 -0.034214742 0.06655733 0.006265232
000030 5b 6c 89 3d 00 96 0f 3b 48 8e b0 bc 00 cd 8d 3d
       0.0671012 0.0021909475 -0.02155222 0.06923866
000040 2d b6 73 bd c4 dc cc 3d aa a7 91 bd f5 a4 d0 bd
       -0.05949991 0.10003045 -0.071120575 -0.10187713
000050 4e e1 0a 3e ac ef 40 bd 51 ac ba bd 38 24 bb bd
       0.1356251 -0.04710357 -0.09114898 -0.091377676
000060 16 59 14 3e 5e b7 19 bb 86 72 a2 bd bb f0 a8 bc
       0.14487109 -0.0023455243 -0.07932 -0.020622602
000070 97 ef 85 bd f6 02 b8 bd 6e e0 5c bd 24 a7 9e 3d
       -0.06539839 -0.0898494 -0.05392497 0.07746723
000080 b0 4d 60 3d 78 49 df 3d c4 d1 13 3d f4 0d 56 bd
       0.05476159 0.10902685 0.03608872 -0.0522594
000090 93 33 20 bd b3 46 b0 bd 3e f4 b8 bd 46 b9 dc bd
       -0.039111685 -0.08607235 -0.090309605 -0.107775256
0000a0 08 5c cc 3c ac 9d 9e 3d ed 36 fa 3d 00 0a 50 bb
       0.024946228 0.07744917 0.122175075 -0.0031744242
0000b0 47 8e 21 bc fb 4b aa ba 5f 9c a4 3d 75 7b 79 bb
       -0.009860582 -0.0012992615 0.08037638 -0.003806797
0000c0 87 3e 19 bb 21 43 a5 bb b7 68 e9 bd b9 85 a7 bd
       -0.0023383216 -0.005043403 -0.11396926 -0.081798024
0000d0 64 28 5b bd 05 7c 46 3d 13 80 03 be 38 04 a1 3d
       -0.053505316 0.048458118 -0.12841825 0.07862133
0000e0 af 9d 2d bd 32 54 f1 3d f4 ba e9 bd 6b 36 c9 3d
       -0.042386707 0.11783637 -0.114126116 0.098248325
0000f0 16 6e 6d bd d3 ec ab bc 66 23 ee bd 7c 39 90 bd
       -0.057966314 -0.02098695 -0.116278455 -0.07042214

net.8.weight f4 [64, 64]
000000 d6 45 f2 bd 48 6d 57 3c 21 08 fb 3d b5 4e 8e 3d
       -0.118297264 0.013148613 0.1225741 0.06948606
000010 5b 38 b0 3d e4 2a f7 3c de ca fc bc 99 b6 26 bd
       0.08604499 0.030171819 -0.030858453 -0.040701482
000020 0d b7 f5 bc a0 27 cc bd 29 ce 93 3d fa 3a 17 bd
       -0.029994512 -0.09968495 0.07217056 -0.03692148
000030 8c 66 b0 bd 00 10 fe 3c 00 00 57 36 4b 2e b8 3d
       -0.08613309 0.031013489 3.2037497e-06 0.08993205
000040 5d ac a7 bd 30 4c 11 3e 2d 5e 23 bd 3e d2 4f 3d
       -0.081871726 0.1418922 -0.039884735 0.050737612
000050 bb 39 01 3e c0 f8 ea bb 17 f0 c6 bd c0 ae f7 bd
       0.12619679 -0.0071707666 -0.09713762 -0.12093878
000060 ee b7 1b 3e b5 76 bb bd 95 5b 35 bd 7d 12 aa 3d
       0.15206882 -0.09153501 -0.044276793 0.083043076
000070 24 7b cc bd 0b b0 f6 3d ec 14 a6 3c 33 fc 32 3d
       -0.09984425 0.12045296 0.020273648 0.043697547
000080 31 e0 2c 3d 6d d3 cb 3c cb a4 b5 3d 1e d1 dd bd
       0.042205993 0.02488109 0.088693224 -0.108309016
000090 2f a5 37 3d 00 db fc bc 6e 48 f2 3d e0 f4 d3 3d
       0.044835266 -0.030866146 0.11830221 0.103494406
0000a0 ef 7d b0 bc 52 99 c9 3d 98 dd 0d 3c 6a 15 87 3d
       -0.021544425 0.09843697 0.008658789 0.06595881
0000b0 a1 63 37 bd b6 61 c6 bc 77 b4 98 3d ba c6 9b 3d
       -0.044772748 -0.024216514 0.07456296 0.076062635
0000c0 be ea 00 3e d3 c7 6c 3d 74 82 10 bd 5a ee ee 3c
       0.12589547 0.057807755 -0.03528066 0.02916639
0000d0 c0 89 f6 3b 07 47 f2 3d c1 eb 0e 3d 37 c0 04 3e
       0.0075237453 0.11829954 0.0348928 0.12963949
0000e0 c8 bd d2 3c 99 fd 92 bd 72 6b a1 bd 55 85 0b 3e
       0.02572526 -0.07177276 -0.07881822 0.13625081
0000f0 47 7f e1 3d 17 97 fb 3c 30 df b6 bd e0 5a b3 3d
       0.11010604 0.030711694 -0.089292884 0.087575674
000100 dc 63 54 3d b9 96 c0 bd 56 80 49 3d 69 71 20 3e
       0.051853046 -0.09403748 0.049194656 0.15668263
000110 b0 91 5c bd b0 a2 29 3c b3 64 9f 3d f7 65 12 bd
       -0.053849876 0.010353729 0.07782879 -0.035741773
000120 14 b0 8a 3d 07 48 8b 3d 78 05 00 3e 46 d1 e0 bd
       0.067718655 0.068008475 0.12502086 -0.10977416
000130 79 81 88 bb e2 f6 d0 3d d4 12 da 3d 61 70 0b bd
       -0.004165825 0.10203339 0.106481224 -0.03404272
000140 22 26 ab 3d da bb d5 3d 26 01 ce 3b e8 a3 a4 3d
       0.08356883 0.104362205 0.006286758 0.08039075
000150 a3 ef d4 3d 90 52 98 bc 5e ab 89 bd ae c5 87 bd
       0.103972696 -0.018594056 -0.06722139 -0.06629501
000160 25 16 8c bd c9 3c e3 bd 3b 1d 44 3d 7c fa 2f 3d
       -0.06840161 -0.11095578 0.04787944 0.04296349
000170 c7 58 1d bd 90 4e 33 bc 80 29 03 3e 70 83 1d 3d
       -0.038414743 -0.010944024 0.128088 0.038455427
000180 59 c4 b8 bd 37 80 12 3e c3 42 db 3d 50 eb 6b 3c
       -0.09021825 0.14306723 0.10706093 0.014399365
000190 c0 70 13 3d 12 d6 16 be 2e 24 96 3d f8 2b f9 3c
       0.0359962 -0.14730099 0.073311195 0.030416474
0001a0 98 a0 fa bb d2 ed 20 bd 4d de 2b 3e a8 9e dc 3c
       -0.007648539 -0.039289303 0.1678402 0.026931122
0001b0 8e d4 9e bd fc 91 34 3c d3 9b 72 3d ec 2e af bc
       -0.07755385 0.0110211335 0.059230637 -0.021384679
0001c0 98 4d 98 3d 67 56 ea 3d 01 b3 29 bd fc bf 42 bd
       0.07436675 0.11442261 -0.041430477 -0.04754637
0001d0 d6 63 89 bd 7c cd ee bc 36 74 39 3d 8a 51 a2 3d
       -0.06708495 -0.029150717 0.045276843 0.079257086
0001e0 e1 07 95 bd aa 1c b7 3d fa 97 5b 3b 1f 7c bd 3c
       -0.072768934 0.08941014 0.0033507333 0.023130475
0001f0 1a 27 d8 bc ee 69 8e bd 90 56 d8 bd 9e ad 14 3e
       -0.026385833 -0.06953798 -0.105633855 0.14519355
000200 88 bc a7 bc e0 cd b2 bb 14 62 9a bd 38 fc ba bc
       -0.02047564 -0.005456671 -0.07538238 -0.022825345
000210 c0 bb 47 bd 50 52 38 3c e6 5c f4 bd 60 9d 46 3c
       -0.048763037 0.011250094 -0.119317815 0.012122482
000220 50 98 e2 bd 64 f6 b5 bd c0 e4 2e bb 90 24 5a bc
       -0.110642076 -0.08884886 -0.0026686639 -0.013314381
000230 ac eb 0f bd 84 df 94 3d 70 e3 13 3c b0 3b d4 3c
       -0.035136864 0.07269195 0.009026393 0.025907367
000240 48 7e 51 3d 00 47 e7 3b aa c0 e2 bd 7c 68 3e bd
       0.05114582 0.0070580244 -0.11071904 -0.046486363
000250 44 be a0 3d e2 d8 92 3d f0 1d 31 3d 00 f7 e1 3d
       0.0784879 0.07170273 0.04324144 0.1103344
000260 9a 19 85 bd b0 92 18 bd 20 91 98 bc d8 a9 fb bc
       -0.06499024 -0.037249267 -0.018623888 -0.030720636
000270 48 cf dc 3d 80 cd ff bd 90 05 c2 3c 00 47 fb 3d
       0.10781723 -0.12490368 0.023684293 0.122694016
000280 4c 4e 8e bd 28 76 cb 3d 98 90 dc bd 78 30 ad 3c
       -0.06948528 0.09934646 -0.107697666 0.021141276
000290 2a bc 91 bd e8 fd 21 3d e0 01 e0 3c a8 21 e1 3c
       -0.071159676 0.039548784 0.027344644 0.027481869
0002a0 c8 4a e8 bc 9c 97 1e bd 62 e9 f7 bd d8 de a9 3c
       -0.028355971 -0.038718805 -0.12105061 0.020736143
0002b0 80 60 f4 3d 3a a3 c0 bd dc f6 44 bd fc 5a 06 3d
       0.119324684 -0.09406133 -0.048086986 0.032801613
0002c0 54 f1 82 3d 40 f4 39 3d f0 de a5 3d d0 75 81 3c
       0.06393686 0.04539895 0.080991626 0.015803248
0002d0 50 ef fb bc f4 64 d5 bd aa e0 ff bd 98 0a c4 bd
       -0.030753762 -0.10419646 -0.12494023 -0.09572333
0002e0 8c 9a 80 3d d6 10 e6 3d 9c ae f3 3d 42 b9 bf 3d
       0.062794775 0.1123368 0.118985385 0.09361507
0002f0 a0 65 d3 3b d8 47 b0 3d 0c a7 42 3d 66 56 ad bd
       0.0064513236 0.08607453 0.04752259 -0.08463745
000300 98 2d c0 bc 25 e5 f3 bd 21 75 d5 3d 1d 58 ab 3c
       -0.02345924 -0.1190894 0.10422731 0.02091604
000310 55 46 de 3d f0 ff 77 bc 08 7a be 3d 02 0c 63 3d
       0.108532585 -0.015136704 0.09300619 0.055431373
000320 03 0c b0 bc f8 1f 2a bc c8 73 b6 3d a8 ab 86 bc
       -0.021490103 -0.0103835985 0.08908802 -0.016439274
000330 8a 0e c7 3d a8 a4 e0 3c 84 93 48 bd f8 77 83 bd
       0.0971957 0.027422264 -0.048968807 -0.064193666
000340 b4 0a 79 bd 3c 72 97 3d a4 b4 b4 3d 48 b4 70 bd
       -0.060801223 0.07394835 0.08823517 -0.05876568
000350 8e 5a f6 bd 72 18 91 3d dc 09 0e bd 5c 0e eb bd
       -0.12028991 0.07084741 -0.03467737 -0.11477348
000360 e7 c1 a3 3c ca 1b 99 bc ab a1 ab 3d 00 63 d9 3c
       0.01998992 -0.018690009 0.08380445 0.026536465
000370 d4 d5 9d bd 50 2f b9 bc 51 22 be bd 30 67 6f 3d
       -0.077068 -0.022605568 -0.09283889 0.058448017
000380 0d 52 f8 3c e0 50 8a 3d 5c 46 ca bd cc 7f 8e bd
       0.030312562 0.06753707 -0.09876701 -0.06957969
000390 18 98 a8 bd 55 15 e1 bd 64 c8 ee bd ba 7b ce bd
       -0.082321346 -0.10990397 -0.11659315 -0.10082193
0003a0 63 86 a5 3d 45 14 34 bd ab 1e d6 bc 68 53 1a 3d
       0.08082273 -0.043964643 -0.02613767 0.0376772
0003b0 38 57 f4 3c 28 a2 4c 3d e5 8f c1 bd 64 aa d6 3d
       0.029826745 0.04995933 -0.09451274 0.10481718
0003c0 58 05 85 bc 9d 5f 86 bd c3 6e 98 3d 1f a8 e1 bd
       -0.0162379 -0.065612055 0.07443001 -0.11018395
0003d0 54 9b 98 bd 7d 77 83 3d 8c dd 2c 3d d6 61 64 bd
       -0.074515015 0.06419275 0.04220347 -0.055757366
0003e0 ac 10 85 bc a7 3d ee bc 64 32 50 3d e0 35 9a 3c
       -0.016243301 -0.029082133 0.050829306 0.018824518
0003f0 c9 8b 22 3d fd a5 c6 3d 54 11 b0 bd b4 b7 d1 bd
       0.03968409 0.096996285 -0.08597055 -0.10240117

net.8.bias f4 [64]
000000 44 93 61 3d 1f 7f eb 3d c8 d3 d9 bd bc d9 f0 bd
       0.055072084 0.11498856 -0.10636097 -0.117602795
000010 6e 05 21 bd 47 f5 11 3d fe 04 08 be 73 ac 83 bc
       -0.03931182 0.035634305 -0.13283154 -0.016073441
000020 ff b9 be 3d 00 4a d3 bd 9e af 91 bc 60 77 d8 bc
       0.0931282 -0.10316849 -0.017783936 -0.02642411
000030 50 45 c4 3d 91 92 cb bd 0c fb db 3d 8a 4e 80 bd
       0.09583533 -0.09940065 0.10741243 -0.0626498
000040 b9 94 98 3d 0f a8 a3 ba 8b de fd 3d a8 0a 7b bd
       0.074502416 -0.0012485998 0.12395962 -0.06128946
000050 ff c1 db bc 8f 94 ee 3d 7a 23 81 bd 92 04 42 3d
       -0.026825903 0.11649429 -0.06305595 0.04736764
000060 35 a0 ba 3d aa 5d fd 3b 74 f8 f6 3d 34 1a ee bd
       0.09112588 0.007732113 0.120591074 -0.116260916
000070 b6 95 d1 3b 13 3a fd bd 01 e8 6e 3d cd d0 14 3e
       0.0063960208 -0.123645924 0.058326725 0.14532776
000080 1f 68 00 be be f1 a1 bd d4 fd e0 bd 4e cc 95 bd
       -0.12539719 -0.07907437 -0.10985914 -0.07314359
000090 01 47 22 3d 55 d1 a7 3b 80 a0 d6 bd 3d 8a 6a bd
       0.039618496 0.00512139 -0.10479832 -0.05726074
0000a0 44 aa a7 bd 60 61 1b 3c fa 7f 98 bd 23 7e cf bd
       -0.081867725 0.009483665 -0.074462846 -0.101314805
0000b0 2c 1b cd bd e3 85 d7 3d e3 40 db 3d 7c 42 72 bd
       -0.10014948 0.10523584 0.107057355 -0.059145436
0000c0 82 1b d9 3c b5 67 88 3c 23 0e 07 bd 18 ea a1 3d
       0.026502375 0.016651014 -0.032972466 0.07905978
0000d0 ae 31 ac bd a9 ff 02 3d c9 a2 96 3d 82 8b d9 bd
       -0.08407913 0.031982098 0.073552676 -0.10622312
0000e0 5b 21 ec 3d 1b c7 93 3d 11 02 72 3d 80 cd 85 bc
       0.115297996 0.07215711 0.059084002 -0.016333342
0000f0 bc 31 a9 bd 70 8c 8c bd 32 fa c0 bd 66 bd 03 be
       -0.08261439 -0.06862724 -0.09422721 -0.12865219

net.10.weight f4 [14, 64]
000000 b1 4c 49 bc f5 ca a8 3c 8c cd f7 bd 63 fe f4 3d
       -0.012286351 0.02060459 -0.12099752 0.11962583
000010 c6 0b 4c bd 4e ed b2 3c 85 f7 aa bd f8 9a 0b 3e
       -0.049815916 0.021841671 -0.08347992 0.13633335
000020 08 05 26 bd 28 bf 05 3d 9c c4 83 3c bc c8 6a 3d
       -0.040532142 0.032653004 0.016084962 0.05732034
000030 ea 3e 0b be 1e bc a2 bd 32 a8 3b bd 00 81 fc bd
       -0.13598219 -0.07946037 -0.0458147 -0.12329292
000040 cd 91 2d bd 9e 90 21 be 0b 3d e7 3c 90 37 54 3c
       -0.042375375 -0.15777823 0.02822735 0.0129527
000050 6e d8 a8 bd d2 a4 cd 3d 9e 08 f2 3d 73 c3 95 bd
       -0.08244406 0.100412026 0.1181805 -0.073126696
000060 d8 f7 7d ba d5 64 f4 3b 43 c1 e1 bd 84 0c 00 3d
       -0.00096881157 0.007458309 -0.1102319 0.031261936
000070 1f c8 3f 3d a5 42 c9 bd 47 8d 04 be fd bc a6 bc
       0.04682171 -0.098271646 -0.12944518 -0.020353789
000080 b5 18 c2 bd f1 cb 18 3e fd a0 7e 3c 67 3f 2f bd
       -0.09477369 0.14921547 0.015541312 -0.042785075
000090 1a ec f5 3a 57 72 be bc fd 48 4c 3d 4c d3 09 3e
       0.001876238 -0.02324788 0.049874295 0.1345951
0000a0 6a 22 d7 bd 00 20 36 bd 1e c9 c4 3b de 7d 89 bd
       -0.10504611 -0.04446411 0.0060054203 -0.067134604
0000b0 20 ca c9 bb 7f ac 1a bd dc 5d bb 3d e4 43 89 bd
       -0.0061581284 -0.03776216 0.09148762 -0.06702402
0000c0 c7 24 e2 3d cd 47 d0 3d ba b5 bd bd f8 0c 19 bd
       0.11042171 0.10169945 -0.09263177 -0.037365884
0000d0 30 1d 40 bc e6 2d b9 bd 47 8e 15 be be 7a 1d 3e
       -0.011725709 -0.090419576 -0.14605056 0.15378854
0000e0 63 57 bb 3d 9b 01 8d bd a2 47 92 3b 28 92 09 3d
       0.09147527 -0.06885072 0.0044641057 0.03358665
0000f0 f3 22 c7 3d 54 c2 e2 3d 61 95 bb 3d 29 e1 cc 3d
       0.09723463 0.110722214 0.09159351 0.100038834
000100 cc ba 9b bd b3 ce e0 bc e0 fc 74 3d 41 35 ba bd
       -0.07603988 -0.027442312 0.059811473 -0.090921886
000110 eb f8 c7 bd c3 6e 98 3d 9a 22 d8 3d 68 53 ab 3d
       -0.09764274 0.07443001 0.10553475 0.08365518
000120 f1 7d b7 3d b4 8d 6f 3d d4 c1 f4 bc 10 8b e6 bc
       0.08959568 0.058484748 -0.02987758 -0.028142482
000130 dd ae 69 bc 30 67 f6 bc fb c5 7f 3d 78 3b d8 3d
       -0.014262882 -0.0300785 0.06244467 0.10558218
000140 6a c2 dc bc a6 94 71 3c 00 aa 8f bd 86 d5 cc 3d
       -0.026948173 0.014744913 -0.07014847 0.10001664
000150 55 be 09 be 0d 3b c8 3c c4 a2 c0 3c 15 70 70 3d
       -0.13451512 0.02444222 0.023515113 0.05870064
000160 83 e7 d0 3c 37 16 8b bc 56 42 1d be 9c d6 8c bd
       0.025501018 -0.016978366 -0.15357336 -0.06876871
000170 61 cd ac 3d 51 89 05 bc 23 92 cf 3c 32 4a b8 bd
       0.084376104 -0.008150415 0.025338238 -0.08998527
000180 57 f6 89 3d 29 99 65 bd 7d 23 89 3b ca 14 eb 3d
       0.06736439 -0.056054268 0.0041851387 0.114785746
000190 86 40 8f 3d 7d d3 0e be e8 ee 55 bd 69 c2 ed 3d
       0.06994729 -0.13947864 -0.052229792 0.116093464
0001a0 38 2b bc bc 6e 24 ca 3d 2c 91 86 3c 6b e2 8c bc
       -0.022969827 0.0987023 0.016426645 -0.017197808
0001b0 dc 9b 9f bd f4 e4 b2 3c 0e a4 e5 3d 52 bb c4 3d
       -0.077934 0.021837689 0.112129316 0.09606041
0001c0 00 12 6a bd 4d 9b a8 bc 4e 7c c4 3c 3d 6b be bd
       -0.057146072 -0.020581866 0.023985054 -0.09297798
0001d0 60 d0 88 3c 49 7b 5c 3d e2 b3 ce 3d 2a 54 8b 3c
       0.016700923 0.05382851 0.10092904 0.017007906
0001e0 cb 82 fe 3d d0 09 10 3e de 39 37 bd 60 32 9f 3c
       0.124272905 0.14066243 -0.04473292 0.0194332
0001f0 84 cf d0 3d 80 d5 6d bc 16 da 58 bd f8 d4 b8 3c
       0.101958305 -0.014516234 -0.052942358 0.022562489
000200 07 67 63 3d 2b 74 d2 bd 96 4a ce bd e3 ff b7 bd
       0.055518176 -0.102760635 -0.1007282 -0.089843534
000210 59 26 ca bd a2 35 e9 3d 12 a2 64 bd 9b ae 01 bd
       -0.098705955 0.11387183 -0.055818625 -0.031660657
000220 45 a4 1a bd 36 96 83 bd 85 19 bb 3d 2c d1 36 bd
       -0.037754316 -0.06425135 0.09135727 -0.044633076
000230 fa 2e 89 3d 75 40 ce 3b de 49 06 3e 90 66 01 3d
       0.06698413 0.006294305 0.13114116 0.03159195
000240 34 f3 a0 bc e1 aa a1 3c 29 52 66 3d 6e 7d 89 bd
       -0.019647218 0.019734802 0.056230698 -0.06713377
000250 f1 3d 0d bd ad 6d bd bd 01 25 c8 bd 47 5d 7f 3d
       -0.0344829 -0.092494346 -0.09772683 0.062344816
000260 87 b8 23 bc 78 27 dc bc 80 30 f2 3c 1a 12 92 3d
       -0.009992725 -0.026874289 0.029564142 0.07132359
000270 9d a6 ac 3d 53 8f 50 bc e3 db 61 3d 1a 3e 03 3c
       0.084302165 -0.012729484 0.05514134 0.008010412
000280 b8 34 87 bd ac ad ef 3c 6d f0 4f 3c d6 66 9d 3d
       -0.06601852 0.029257618 0.012691599 0.0768563
000290 f2 8e df 3d 7a b6 bb 3d 34 42 b8 3c ed a4 f3 bd
       0.109159365 0.09165664 0.022492506 -0.118966915
0002a0 de 55 d6 bd 4c e0 6f 3d 93 6b 55 bd c9 d8 f2 3b
       -0.104655966 0.058563516 -0.052104544 0.0074110967
0002b0 42 13 c5 3d 45 d4 84 3d 2e b9 63 bc f0 60 a1 3c
       0.09622814 0.064858 -0.013899131 0.019699544
0002c0 83 33 e3 3b 57 b4 3e 3c ef c0 e6 3d 03 d6 8f bd
       0.006933631 0.011639676 0.11267268 -0.07023241
0002d0 fe d8 de 3d 8c 4b 1b 3b 33 45 fb 3d 2c f5 59 bd
       0.10881232 0.0023696152 0.12269058 -0.05321233
0002e0 8d f9 a3 3d ec 72 87 bd 50 87 c9 bd 8e 15 ba 3d
       0.080065824 -0.066137165 -0.09840262 0.090861425
0002f0 12 4d 13 3d 0e a9 fb 3d 7a 17 4c 3d 7f a2 42 bd
       0.03596217 0.12288104 0.049827076 -0.04751825
000300 9a a1 98 bd 96 6a cb 3d 10 00 cb bc c9 ba a1 bd
       -0.07452698 0.09932439 -0.024780303 -0.078969546
000310 22 0f b3 bd 41 06 ac bd a0 2f b1 bd 9b a0 a6 bd
       -0.08743121 -0.0839963 -0.08651662 -0.08136102
000320 c9 56 c1 3d 80 a0 6c 3c ea 08 92 3c 8c e2 7b bd
       0.09440381 0.014442563 0.017826516 -0.06149535
000330 b2 13 e6 3b 06 9b d2 3d c4 a3 07 bd be af ce 3d
       0.007021391 0.102834746 -0.033115163 0.10092114
000340 5b 63 2c bd 06 64 f5 bc 30 fc fb bd 98 b7 fd bd
       -0.04208694 -0.029954921 -0.1230396 -0.12388533
000350 55 04 73 3d 91 cd fe bd cf 9a 27 bd c6 76 82 bd
       0.059330303 -0.124415524 -0.04091912 -0.063703105
000360 a3 0b b9 bd 84 d7 89 bd b0 d9 88 bd 56 95 f9 3d
       -0.09035423 -0.067305595 -0.066821456 0.12186687
000370 d6 56 44 bc 7f 55 ea bb 13 5a e2 3b 16 71 c9 3d
       -0.011983594 -0.007151305 0.0069077103 0.098360226
000380 5e 03 9b bd 05 a5 95 3d a4 f7 92 bd 95 9b df bd
       -0.075690016 0.073068656 -0.0717614 -0.10918347
000390 be 20 a3 3d f7 cd 1a 3d c9 ce b3 3d 7d 02 57 3d
       0.079652295 0.03779408 0.087796755 0.052492607
0003a0 18 da a6 3c 28 6a 1d 3d 21 8a 96 bd 41 f2 ea 3d
       0.020367667 0.038431317 -0.07350565 0.114719875
0003b0 70 e7 a4 bd 6a e7 a8 3d e6 ce d3 bd 70 01 b9 bd
       -0.08051956 0.08247264 -0.10342197 -0.09033477
0003c0 8b 2c 42 3d cb 6e a6 3d ae bf 23 3d 8c 99 2f 3c
       0.04740576 0.08126601 0.039977722 0.010717761
0003d0 36 23 df bd 82 82 09 bc 50 b3 ab 3d b9 1f 0c 3e
       -0.10895388 -0.008392932 0.083838105 0.13683976
0003e0 04 f4 36 bd 92 a2 ff 3c 5a 4f cb 3d 5c e1 3d 3d
       -0.044666305 0.03120545 0.099272445 0.046357498
0003f0 a3 1a 07 3d 20 49 ce bd 44 2a c4 3c 58 d3 fe 3c
       0.032984387 -0.10072541 0.023945935 0.031106636

net.10.bias f4 [14]
000000 b4 17 a0 3d e9 af 02 bd 0f 3d 97 bd fb 31 c1 3c
       0.07817021 -0.031906042 -0.07384693 0.023583403
000010 28 f7 c7 bb 70 b4 6b 3d ab 68 95 3d f9 a6 9e bd
       -0.0061024614 0.057545125 0.072953545 -0.07746691
000020 22 15 88 3c 9a d5 01 3b b8 93 3a 3d b9 ce 85 bd
       0.01661164 0.0019811154 0.04555103 -0.0653357
000030 80 cb e2 3b 66 a8 60 3d
       0.0069212317 0.054848097
