case3_best_model.pth (torch, 62722 bytes, 12 tensors)

net.0.weight f4 [16, 4]
0.37443855 0.62344563 -0.07815805 0.40613022 -0.16159716 0.14728099 -0.27659643 0.37042987
0.41918534 -0.38670257 0.4592136 0.17971148 0.34944162 0.038252525 0.41820964 -0.14217438
0.40645865 0.049988683 -0.24852909 0.19777149 -0.29452497 -0.10190174 -0.19431846 0.47750998
-0.42661986 -0.15172936 -0.24343222 -0.39629966 0.039733857 -0.616612 0.32712483 -0.44066352
0.451172 0.14705794 -0.18881333 0.34794933 -0.003337564 0.57715476 -0.028421516 -0.24998441
0.08262396 -0.38217103 0.16831252 0.6070053 0.41870186 -0.16687165 0.22615626 0.033336192
0.33392888 -0.25190845 -0.4623066 -0.2685067 -0.4818028 0.3564949 0.25452855 0.20870087
0.18879905 0.12495417 0.34934255 -0.47909316 0.060699563 -0.44751328 -0.020395225 -0.17270581
00000000: 69b6 bf3e 229a 1f3f 5411 a0bd 4df0 cf3e
00000010: ba79 25be d4d0 163e 0c9e 8dbe fca8 bd3e
00000020: 769f d63e e1fd c5be 0c1e eb3e 4906 383e
00000030: 03ea b23e aeae 1c3d 931f d63e 2996 11be
00000040: 591b d03e efc0 4c3d 697e 7ebe 9c84 4a3e
00000050: facb 96be dcb1 d0bd 6bfb 46be 307c f43e
00000060: eb6d dabe f15e 1bbe 4c46 79be cae7 cabe
00000070: f8bf 223d 49da 1dbf e87c a73e a69e e1be
00000080: 0400 e73e 5b96 163e 4858 41be 6a26 b23e
00000090: 08bb 5abb 6ac0 133f 3dd4 e8bc eafb 7fbe
000000a0: c036 a93d ecab c3be 1e5a 2c3e b364 1b3f
000000b0: 1760 d63e 67e0 2abe 8295 673e 888b 083d
000000c0: baf8 aa3e 25fa 80be 73b3 ecbe b679 89be
000000d0: dbae f6be 8086 b63e 9151 823e aeb5 553e
000000e0: 8a54 413e f9e7 ff3d 07dd b23e b34b f5be
000000f0: 1ba0 783d 7620 e5be e313 a7bc cbd9 30be

net.0.bias f4 [16]
0.28601754 -0.05656309 0.4669183 -0.26963782 -0.30981252 -0.2263658 0.47345194 0.1988527
0.56912684 -0.2535272 -0.1957369 -0.42229563 -0.33018112 0.2819998 0.18613383 0.5076284
00000000: e470 923e b3ae 67bd ea0f ef3e f80d 8abe
00000010: bf9f 9ebe 70cc 67be 4b68 f23e 0ba0 4b3e
00000020: 4cb2 113f 51ce 81be 416f 48be 2237 d8be
00000030: 800d a9be 4762 903e de99 3e3e eff3 013f

net.2.weight f4 [64, 16]
-0.088749096 -0.13787268 0.0828329 -0.039488826 -0.04133989 -0.124525264 0.20633262 -0.22568052
-0.109172724 0.18101493 0.063100725 -0.06324879 0.22790268 0.15506916 -0.18032484 -0.16385466
0.2685419 -0.1578906 -0.10896244 -0.2797396 -0.09932469 -0.11743655 0.006641729 -0.299919
0.059750214 -0.07976425 -0.30760002 -0.37083468 -0.15303078 -0.12536086 0.33105415 0.022746187
0.10560985 -0.23031582 -0.12309522 -0.046318572 0.06966701 -0.38003814 -0.4602872 -0.16129869
0.032643948 -0.11039819 -0.06206112 -0.20835109 -0.20511211 -0.47405455 -0.14044465 -0.28821728
0.22447391 -0.0067435727 0.22420268 0.11772283 -0.17649037 0.26541668 0.024213443 -0.094375335
-0.19018 -0.30025983 0.02176345 -0.02813879 0.12512662 -0.09818767 0.2708832 -0.16079736
-0.05751359 0.042207655 0.112467416 0.18630591 0.2714631 -0.17874797 0.10856564 -0.12640506
-0.01231005 -0.25632614 0.123303436 -0.19814083 0.1694878 0.11471799 0.13949682 -0.1178729
0.2431572 0.046814136 0.042473447 -0.25923502 0.14928588 -0.12710613 -0.025098713 0.2385227
0.123988785 -0.12958291 -0.25990796 -0.029880168 0.21930392 -0.17016745 -0.17297548 -0.004958765
-0.1657123 0.11013735 0.23076028 -0.25124994 0.083905146 0.19119716 0.10612451 -0.07959385
0.17975172 0.027709853 0.09626078 -0.025383275 -0.03548815 0.08123518 -0.06543198 -0.031398956
0.13084048 0.14951696 0.052307658 -0.067307554 -0.011117831 0.009544243 0.1151047 0.16048418
-0.25993794 -0.10785855 0.28393203 0.13787113 -0.16399755 -0.18377031 -0.07975089 -0.14242376
-0.112854406 0.11614987 0.15613522 -0.074763775 -0.21166542 -0.055437807 0.041438587 0.26270843
0.012465946 -0.11084793 0.117333785 -0.18253234 -0.045504667 0.27574858 -0.101966016 0.008388217
-0.31324247 0.24028416 0.21682489 0.017942628 -0.20700441 -0.11266254 -0.17451756 0.21559231
0.061733954 0.09131012 0.19333062 0.04430297 -0.033963747 -0.250023 -0.25800163 -0.2176543
0.14602675 -0.04457618 -0.09526422 -0.21697535 -0.054660108 -0.12088222 -0.12899436 0.04801515
-0.05479666 0.24446307 -0.109904826 -0.34037763 0.004755296 -0.010858146 -0.01039927 -0.19049451
0.16857037 -0.22545698 0.15366115 0.17089345 0.19318298 -0.35073826 0.18753564 -0.06803631
0.1089149 0.35089794 0.012180333 0.045808163 -0.046019454 -0.24555278 0.16983196 -0.22996348
0.20102468 0.22338508 0.29496324 -0.05593736 -0.16034266 0.10693238 0.17449658 -0.22315598
0.013933493 -0.24917449 -0.006394229 -0.10052244 -0.05279234 -0.043462258 -0.22393724 0.26829776
0.24856621 -0.05493345 0.06566572 0.024129923 -0.19500226 -0.22789758 0.16064928 -0.1281326
-0.12227642 0.08675872 -0.12489502 -0.14707121 0.024454506 0.022732064 -0.069039136 -0.092018485
-0.19730876 0.29988614 -0.14715943 0.039382014 -0.22055599 0.016720401 0.34241197 0.14270751
-0.27896997 0.22868471 0.12467555 -0.020272093 0.18416227 0.37957206 0.0085567245 0.06583567
-0.050964285 -0.060698405 0.25008932 0.21870886 -0.10157246 -0.13008146 -0.07008079 -0.22370815
-0.14714867 0.026353363 0.19725646 0.1042364 -0.28330943 -0.2651083 0.19015126 -0.1749976
00000000: 16c2 b5bd 7f2e 0dbe 4ca4 a93d 09bf 21bd
00000010: 0454 29bd 1a07 ffbd dc48 533e cb18 67be
00000020: f395 dfbd fa5b 393e f43a 813d 9588 81bd
00000030: 525f 693e 73ca 1e3e 13a7 38be 84c9 27be
00000040: 537e 893e 13ae 21be b327 dfbd 073a 8fbe
00000050: be6a cbbd 9382 f0bd dca2 d93b fc8e 99be
00000060: a4bc 743d 705b a3bd c07d 9dbe 0bde bdbe
00000070: 1ab4 1cbe 995e 00be ee7f a93e 3656 ba3c
00000080: fa49 d83d e9d7 6bbe 5919 fcbd 8bb8 3dbd
00000090: 94ad 8e3d 5c94 c2be c4aa ebbe 7c2b 25be
000000a0: a9b5 053d 7218 e2bd cd33 7ebd fd59 55be
000000b0: e908 52be 47b7 f2be b9d0 0fbe 3791 93be
000000c0: 7ddc 653e 30f9 dcbb 6395 653e ab18 f13d
000000d0: e4b9 34be b2e4 873e 455b c63c db47 c1bd
000000e0: 8cbe 42be a8bb 99be 4349 b23c 5283 e6bc
000000f0: 3121 003e 9e16 c9bd 34b1 8a3e 10a8 24be
00000100: 5f93 6bbd efe1 2c3d 5155 e63d fac6 3e3e
00000110: 36fd 8a3e b509 37be aa57 de3d 5470 01be
00000120: 18b0 49bc 2e3d 83be 8386 fc3d 6ee5 4abe
00000130: 368e 2d3e 44f1 ea3d 41d8 0e3e 5967 f1bd
00000140: 33fe 783e 2ec0 3f3d a3f8 2d3d 74ba 84be
00000150: 66de 183e 1c28 02be d19b cdbc 4b3f 743e
00000160: d5ed fd3d 62b1 04be a812 85be 41c7 f4bc
00000170: 3591 603e 6040 2ebe 7c20 31be 237d a2bb
00000180: 7cb0 29be b18f e13d 6c4c 6c3e d5a3 80be
00000190: 76d6 ab3d 30c9 433e cf57 d93d 1a02 a3bd
000001a0: d610 383e c6ff e23c 5f24 c53d 96f0 cfbc
000001b0: 065c 11bd a15e a63d 3401 86bd 319c 00bd
000001c0: 0cfb 053e f91a 193e 8e40 563d 8bd8 89bd
000001d0: 9027 36bc 755f 1c3c 03bc eb3d f755 243e
000001e0: 9616 85be f2e4 dcbd 8a5f 913e 172e 0d3e
000001f0: f9ee 27be 492e 3cbe 6f54 a3bd 89d7 11be
00000200: 3620 e7bd fcdf ed3d e9e1 1f3e c01d 99bd
00000210: d2be 58be c112 63bd 82bb 293d b881 863e
00000220: f83d 4c3c 3d04 e3bd b24c f03d c2e9 3abe
00000230: 1a63 3abd eb2e 8d3e 8fd3 d0bd bb6e 093c
00000240: 5161 a0be 0d0d 763e 5807 5e3e 6bfc 923c
00000250: f7f8 53be 9ebb e6bd bbb4 32be 3bc4 5c3e
00000260: bedc 7c3d cd00 bb3d 76f8 453e 0877 353d
00000270: 921d 0bbd 0403 80be ca18 84be c5e0 5ebe
00000280: 0988 153e 8395 36bd e319 c3bd c92e 5ebe
00000290: 47e3 5fbd 1991 f7bd 1917 04be 89ab 443d
000002a0: 7672 60bd 8754 7a3e c815 e1bd fa45 aebe
000002b0: 50d2 9b3b 5de6 31bc b361 2abc fe10 43be
000002c0: b69d 2c3e 32de 66be 5959 1d3e b1fe 2e3e
000002d0: c2d1 453e f793 b3be 5809 403e 9f56 8bbd
000002e0: c60e df3d e5a8 b33e 0590 473c 57a1 3b3d
000002f0: e57e 3cbd 3072 7bbe 6ee8 2d3e 8c7b 6bbe
00000300: 6ad9 4d3e 0fbf 643e 6c05 973e 931e 65bd
00000310: de30 24be 5dff da3d 3baf 323e 0083 64be
00000320: 4e49 643c 9927 7fbe ae86 d1bb b6de cdbd
00000330: c83c 58bd 7b05 32bd ce4f 65be 535e 893e
00000340: 2488 7e3e e601 61bd c07b 863d 1eac c53c
00000350: acae 47be fc5d 69be 3f81 243e 3135 03be
00000360: 0f6c fabd 8eae b13d f6c8 ffbd d699 16be
00000370: d154 c83c 9838 ba3c 6464 8dbd 3074 bcbd
00000380: 4f0b 4abe ad8a 993e f6b0 16be 094f 213d
00000390: 6ed9 61be 39f9 883c 9f50 af3e eb21 123e
000003a0: 27d5 8ebe 532c 6a3e e555 ff3d a911 a6bc
000003b0: 0995 3c3e 4557 c23e 8131 0c3c dad4 863d
000003c0: edbf 50bd e49e 78bd b50b 803e 37f5 5f3e
000003d0: 3905 d0bd 1334 05be 8486 8fbd c013 65be
000003e0: 24ae 16be 02e3 d73c 99fd 493e e579 d53d
000003f0: ef0d 91be 46bc 87be 03b7 423e 9232 33be

net.2.bias f4 [64]
-0.08630142 0.21601039 0.07573662 0.13582169 0.0015873979 0.18416128 -0.038653336 -0.20122536
-0.013644906 0.17004435 -0.029620308 0.08397224 -0.020280335 0.2657738 0.2111541 0.13501662
-0.1419345 -0.2639195 0.07877378 -0.1477536 0.2169821 -0.27583948 0.15916815 0.2988108
0.1443404 0.16634244 -0.16982913 0.26501772 -0.02454104 -0.18242837 0.31340766 -0.06255092
0.02700148 0.26096183 -0.17330018 -0.1358433 0.12757643 0.027774416 0.09814273 -0.18478936
0.10857662 -0.10698943 -0.089580104 -0.19515783 0.20119831 0.14858255 -0.21034035 0.2746597
0.092181176 0.07210962 -0.16030952 0.11106412 0.27611738 0.24296524 -0.18845575 0.27130106
0.022385933 0.18966055 0.23309483 0.27159947 -0.13171604 0.2501377 -0.08760354 0.045644447
00000000: cdbe b0bd d431 5d3e cd1b 9b3d d714 0b3e
00000010: 3c10 d03a c694 3c3e f652 1ebd 050e 4ebe
00000020: e28e 5fbc 1b20 2e3e 4aa6 f2bc a3f9 ab3d
00000030: f222 a6bc 8113 883e c838 583e cc41 0a3e
00000040: 4757 11be 7520 87be 2654 a13d b84c 17be
00000050: 8e30 5e3e d53a 8dbe fafc 223e bbfd 983e
00000060: f8cd 133e ac55 2a3e b0e7 2dbe 67b0 873e
00000070: 4b0a c9bc 81ce 3abe f876 a03e b21a 80bd
00000080: 3532 dd3c ca9c 853e 9a75 31be 821a 0bbe
00000090: 65a3 023e 2c87 e33c 0eff c83d 6c39 3dbe
000000a0: 6b5d de3d 461d dbbd c675 b7bd 74d7 47be
000000b0: ee06 4e3e 0626 183e 7663 57be 32a0 8c3e
000000c0: 7cc9 bc3d 35ae 933d 2e28 24be 9675 e33d
000000d0: 425f 8d3e e1cb 783e 8bfa 40be f9e7 8a3e
000000e0: b462 b73c 6036 423e 69b0 6e3e 160f 8b3e
000000f0: 92e0 06be 0c12 803e 7c69 b3bd acf5 3a3d

net.4.weight f4 [64, 64]
-0.2532992 0.0020250545 -0.0071341847 -0.022502195 -0.0014669695 0.054688614 0.15620056 0.104398504
0.067435436 0.02289521 0.102034755 -0.020597985 0.098967776 0.053674016 -0.07829015 -0.0812979
0.06063388 0.13765946 -0.037526816 -0.028870404 -0.16403392 0.17430517 -0.029733552 0.122537665
0.14472616 -0.11921239 -0.21371755 -0.062915765 -0.05813094 -0.06452299 0.10771694 -0.008979489
-0.11369342 0.016078396 -0.045218065 0.11885332 -0.07513287 -0.11994337 0.06246494 -0.057591125
0.15552466 0.05488962 0.14091347 -0.12616096 0.114461824 0.12060247 0.01529381 0.22324121
0.045509133 0.019990357 0.022256572 0.028402165 -0.077971384 0.08427409 0.07657094 -0.04474472
0.09662124 0.017411692 0.16579276 0.18391274 -0.018925449 -0.051371764 -0.05806871 0.045088224
-0.14292526 0.08916459 0.013414419 -0.030680588 -0.004642551 0.07490041 0.07076132 0.2624519
-0.039162796 0.033091504 0.15115412 -0.052730326 0.20047596 0.036195602 -0.097431496 0.13691024
0.09867675 0.19444594 -0.041053463 -0.08537723 -0.061124623 0.070544645 -0.045218833 0.14730653
-0.01061264 0.10035698 0.026497016 -0.10790897 -0.016557109 0.10425439 0.11114207 -0.087882884
-0.0016711128 0.19110239 -0.06973675 0.06633475 -0.030162636 -0.05554497 -0.002694703 0.031066643
0.008895314 0.018488407 -0.035324708 0.14898875 0.14566447 0.08534292 0.088857025 0.10350689
-0.09436173 -0.03268043 -0.08199439 -0.054632463 -0.058802027 0.16839741 0.17898338 -0.10172324
0.034805287 0.14033525 0.19525848 0.10738347 0.06113152 -0.028192766 0.22107619 0.09886572
-0.3966817 -0.18558878 -0.022631966 0.014385944 -0.057017673 0.047066927 0.008377959 0.048704904
-0.009169797 0.025601296 0.26167324 -0.09880504 0.045542963 0.04455871 0.10149997 0.06412538
0.028359197 -0.08557933 0.10253028 0.025947753 -0.043835964 -0.045636293 -0.044036508 0.087564275
-0.06250691 0.011814345 -0.029654702 0.060039595 -0.04630438 -0.101718895 0.20416999 0.1825326
-0.13640226 0.08564224 -0.09201519 0.05127472 0.07888492 0.07240249 -0.074927986 -0.01642492
0.14195445 0.0222902 0.07114436 -0.28300753 0.022172814 -0.019672615 0.03303923 0.13883807
-0.018313704 -0.024937434 -0.03713334 0.10618648 -0.04492976 0.023948126 -0.13217856 -0.030425223
0.115186885 0.056919504 0.16747329 0.048539735 -0.123362675 0.15933704 0.10076531 0.011511266
-0.0836219 0.014502076 -0.119219065 0.026767131 0.056193665 -0.113766044 -0.06863597 -0.08986573
0.10506332 0.10729503 0.007825106 0.107191615 -0.045077324 -0.12568578 0.039286617 0.04428357
0.12254779 -0.001752648 0.08925663 0.076620474 0.08223376 -0.12404151 0.09779591 -0.11392963
0.10634533 -0.011724839 -0.113174 0.028662074 -0.027173921 -0.11765978 -0.045317277 0.0056226407
0.09474748 -0.04074177 0.07424599 0.009942378 0.0004844747 0.030951047 -0.08868832 -0.100511305
-0.04319348 -0.11648175 -0.05829382 0.0057507306 -0.08413214 -0.059299562 -0.020160653 -0.01986323
-0.075269826 -0.0010718469 -0.02671481 0.031100834 0.0008681284 -0.062421218 -0.043035492 -0.0079573635
-0.08295818 0.018910797 -0.009673239 0.043404255 0.018235154 0.08790898 -0.0041206777 -0.09544165
00000000: 6fb0 81be c7b6 043b e1c5 e9bb 8656 b8bc
00000010: 5447 c0ba 2b01 603d 0af3 1f3e e2ce d53d
00000020: 971b 8a3d bc8e bb3c 99f7 d03d 1bbd a8bc
00000030: 9eaf ca3d 49d9 5b3d 9656 a0bd 837f a6bd
00000040: 3b5b 783d 9af6 0c3e b8b5 19bd a081 ecbc
00000050: 82f8 27be 0e7d 323e c793 f3bc 07f5 fa3d
00000060: 1833 143e a025 f4bd c6d8 5abe fbd9 80bd
00000070: b51a 6ebd a124 84bd b39a dc3d b51e 13bc
00000080: 19d8 e8bd d7b6 833c 9436 39bd 5f69 f33d
00000090: 43df 99bd dfa4 f5bd 3ddb 7f3d ace4 6bbd
000000a0: db41 1f3e f0d3 603d 9f4b 103e 5730 01be
000000b0: f66a ea3d 6efe f63d e392 7a3c 5899 643e
000000c0: c967 3a3d d1c2 a33c 6a53 b63c a8ab e83c
000000d0: 76af 9fbd e597 ac3d 3ad1 9c3d 3d46 37bd
000000e0: 5be1 c53d f7a2 8e3c 94c5 293e 9f53 3c3e
000000f0: 8b09 9bbc 336b 52bd 75d9 6dbd 6eae 383d
00000100: 005b 12be ed9b b63d 27c8 5b3c db55 fbbc
00000110: 8a20 98bb 6365 993d 50eb 903d 1860 863e
00000120: 2b69 20bd f58a 073d 25c8 1a3e c1fb 57bd
00000130: 9249 4d3e d741 143d 2a8a c7bd 3332 0c3e
00000140: 0917 ca3d d61c 473e ad27 28bd 42da aebd
00000150: d05d 7abd b679 903d 6237 39bd 86d7 163e
00000160: a3e0 2dbc f687 cd3d 4510 d93c 61ff dcbd
00000170: c6a2 87bc 5383 d53d 749e e33d f1fb b3bd
00000180: 3e09 dbba 58b0 433e 24d2 8ebd 83da 873d
00000190: a217 f7bc 1f83 63bd 9d99 30bb 797f fe3c
000001a0: a7bd 113c 0075 973c a4b0 10bd 8290 183e
000001b0: 1129 153e 45c8 ae3d acfa b53d 6cfb d33d
000001c0: b940 c1bd eadb 05bd adec a7bd 4ac6 5fbd
000001d0: 65da 70bd 5f70 2c3e 6b47 373e 4654 d0bd
000001e0: fd8f 0e3d 0bb4 0f3e d7f1 473e ddeb db3d
000001f0: 0b65 7a3d 84f4 e6bc cc61 623e 1c7a ca3d
00000200: dd19 cbbe fc0a 3ebe ac66 b9bc 06b3 6b3c
00000210: 5d8b 69bd 40c9 403d b543 093c cb7e 473d
00000220: eb3c 16bc cfb9 d13c 09fa 853e 4c5a cabd
00000230: 428b 3a3d 3283 363d 37df cf3d 2b54 833d
00000240: 8c51 e83c 3744 afbd 65fb d13d 6290 d43c
00000250: 578d 33bd 1fed 3abd a05f 34bd e654 b33d
00000260: 9f03 80bd f490 413c 6bee f2bc 14ec 753d
00000270: a9a9 3dbd ff51 d0bd f011 513e d3e9 3a3e
00000280: 09ad 0bbe 3365 af3d 7672 bcbd 7105 523d
00000290: 6b8e a13d c247 943d d873 99bd 8e8d 86bc
000002a0: 825c 113e f099 b63c 22b4 913d 5de6 90be
000002b0: c3a3 b53c 7728 a1bc 2554 073d 912b 0e3e
000002c0: 9f06 96bc 9749 ccbc 2119 18bd 4c78 d93d
000002d0: 4508 38bd dc2e c43c d159 07be 513e f9bc
000002e0: 1ae7 eb3d 6d24 693d 1e7e 2b3e 9ad1 463d
000002f0: 92a5 fcbd 4029 233e 0b5e ce3d c099 3c3c
00000300: f541 abbd 1e9a 6d3c 2029 f4bd be46 db3c
00000310: 542b 663d 2cfe e8bd 0491 8cbd 860b b8bd
00000320: 702b d73d 7fbd db3d e034 003c 4787 db3d
00000330: 00a3 38bd c6b3 00be 01eb 203d b062 353d
00000340: 56fa fa3d 1cb9 e5ba 2ecc b63d 32eb 9c3d
00000350: 2c6a a83d 7a09 febd 3949 c83d f053 e9bd
00000360: 95cb d93d 8a19 40bc c5c7 e7bd bacc ea3c
00000370: d89b debc 9cf7 f0bd 9c9e 39bd 213e b83b
00000380: f70a c23d d8e0 26bd 480e 983d 5be5 223c
00000390: 1801 fe39 0d8d fd3c 39a2 b5bd dfd8 cdbd
000003a0: a6eb 30bd fc8d eebd 80c5 6ebd a070 bc3b
000003b0: 794d acbd 19e4 72bd f427 a5bc 36b8 a2bc
000003c0: 1127 9abd 377d 8cba 04d9 dabc 2dc7 fe3c
000003d0: 1c93 633a 64ad 7fbd fc45 30bd 9a5f 02bc
000003e0: fae5 a9bd d1ea 9a3c 817c 1ebc a9c8 313d
000003f0: e461 953c a009 b43d c006 87bb e976 c3bd

net.4.bias f4 [64]
-0.062128488 0.06604171 0.11603525 -0.110132426 0.04963231 -0.09393685 0.063441195 0.113036156
0.01480859 -0.04144689 0.1055539 -0.024122741 0.016446998 -0.10407348 0.0965188 0.06113986
-0.05039046 0.15693085 0.19804929 0.08859096 -0.04933102 0.0017906188 0.12854926 0.13971063
-0.034636594 0.11575887 -0.047479883 0.09552245 0.1618469 0.03546021 -0.12949522 0.05167978
0.051327597 0.10310491 -0.056272473 -0.014765674 0.002206144 0.0179946 -0.016883604 -0.01783684
0.12944978 0.102296606 -0.026378345 0.13261026 0.049873695 0.0711393 0.048572104 0.0034553993
0.0053735734 0.07351642 0.018826999 -0.06975245 -0.04088009 -0.052693255 -0.027850123 0.042945452
0.08576423 -0.09388168 -0.047655784 0.096261285 -0.042300947 0.13380289 0.032614917 -0.11237637
00000000: 717a 7ebd e040 873d e4a3 ed3d 1c8d e1bd
00000010: 404b 4b3d f761 c0bd 75ed 813d 807f e73d
00000020: ba9f 723c 37c4 29bd a52c d83d 0e9d c5bc
00000030: dbbb 863c 7a24 d5bd a6ab c53d ca6d 7a3d
00000040: 3a66 4ebd 7bb2 203e 6fcd 4a3e 2d6f b53d
00000050: 530f 4abd 32b3 ea3a 6ba2 033e 4e10 0f3e
00000060: 1adf 0dbd fd12 ed3d 447a 42bd 46a1 c33d
00000070: 32bb 253e ba3e 113d 659a 04be 2dae 533d
00000080: e33c 523d ab28 d33d f77d 66bd baeb 71bc
00000090: f494 103b 6969 933c 7c4f 8abc 911e 92bc
000000a0: 7c8e 043e e280 d13d 6617 d8bc fcca 073e
000000b0: 5c48 4c3d 7bb1 913d 8bf3 463d fb73 623b
000000c0: cd14 b03b c78f 963d 143b 9a3c 5fda 8ebd
000000d0: e271 27bd e2d4 57bd f125 e4bc 92e7 2f3d
000000e0: 28a5 af3d 0a45 c0bd b632 43bd a324 c53d
000000f0: c243 2dbd a003 093e 3897 053d 9525 e6bd

net.6.weight f4 [64, 64]
-0.049375895 -0.1131618 0.043313947 -0.105827674 0.06429639 0.05032404 0.03621706 -0.15973683
-0.05193878 -0.030153764 0.11139649 -0.033406314 -0.20028755 -0.034287766 -0.032480378 0.071691066
0.021117138 0.017774433 0.16648869 -0.08930728 0.049788777 0.14296505 0.053713094 -0.116006166
-0.047226127 -0.039614342 -0.029402092 0.108978085 -0.064899035 -0.010349541 -0.053209975 -0.14015152
-0.097063765 0.05700438 0.17835245 0.03532109 0.084351346 0.13640593 -0.011444996 -0.029915085
-0.0057971054 0.05939835 0.11482504 0.05869367 0.13152906 0.16320051 0.03132993 -0.16835466
-0.13907805 0.05353104 -0.02164358 0.007975485 0.10877669 0.087749414 0.039590698 -0.048144523
0.050638985 0.06379449 0.16871287 0.09065327 0.104211666 0.100592874 0.13419089 0.07994977
-0.031310316 -0.11792357 0.09725967 0.0026086827 -0.17327884 0.016773572 0.03328069 -0.13968502
0.040507752 -0.13525268 0.11857238 -0.101361744 -0.21561638 -0.052253887 0.044813953 0.06554947
-0.08447368 0.017305441 0.070517614 -0.11166383 -0.03822863 0.04478691 0.18053062 0.055648614
0.0764761 -0.23978527 -0.31169456 0.023304095 -0.014494247 -0.021140903 -0.26433808 -0.07988676
-0.19859254 0.018802699 -0.063509755 -0.004020395 0.028378068 -0.07639881 0.14529571 0.09686122
0.043517865 0.012474621 -0.025478829 -0.058920488 0.1503618 0.17863758 -0.129171 -0.25176305
-0.18535975 0.02160864 -0.034716047 -0.08420824 0.03993948 -0.13355651 0.0025596248 -0.2182416
0.17620595 0.17839411 0.062076863 -0.013809561 0.15268557 0.14226119 0.026791515 0.08642235
-0.09182924 -0.03510886 0.15985984 -0.07623286 -0.052623864 -0.098284625 -0.09103199 0.16113685
0.107394435 -0.11114343 -0.037874885 -0.0069485805 -0.023751518 -0.06883827 -0.0031275395 0.057842866
0.069179974 0.054899048 0.029384492 -0.095708095 -0.009965334 0.10481132 0.001839327 0.10823914
0.060488712 -0.003665043 0.115387075 0.12823029 -0.13753854 0.09486383 -0.10734231 -0.03145973
-0.15798216 0.15934166 -0.0683656 0.25634032 0.06082009 0.15800993 0.104608364 0.045617
0.06893617 0.16614154 0.07365651 -0.07431758 -0.037721626 0.16964607 0.06560376 0.04393193
-0.03038766 -0.103969835 0.008847732 0.0057260883 0.18726282 -0.041567095 -0.040589757 0.10706309
-0.13955484 0.1430784 0.33542928 0.07307182 -0.08563725 -0.120780185 0.19444798 0.06751373
-0.025872571 -0.10168803 -0.13657665 -0.038004022 -0.01590026 0.11353594 0.11174307 0.075884916
0.027802512 -0.12887037 -0.01612851 -0.033946328 0.022146447 0.084651485 0.106035426 -0.033268612
-0.08637148 0.09327018 0.25380048 -0.071901076 -0.024389643 0.16193262 -0.12923698 0.056583207
-0.005565114 0.06808835 0.1365489 0.27725387 0.09516733 -0.1546039 0.12775351 -0.075247236
-0.14312807 0.02788606 -0.07508223 -0.10924414 -0.1961519 0.15102702 -0.02907522 0.11504561
0.1739039 0.033303026 0.11209603 -0.06383669 -0.090139434 0.053787425 -0.21799533 0.17177196
0.09970968 -0.012004091 0.15342662 0.055775627 0.23147123 0.19099225 0.0002556493 0.176703
0.017236022 -0.03292546 0.07437718 -0.16589835 -0.13626717 0.124314204 -0.10492362 0.076354966
00000000: 613e 4abd 60c1 e7bd f769 313d 2ebc d8bd
00000010: d3ad 833d 9520 4e3d 5758 143d 0d92 23be
00000020: c2bd 54bd 0705 f7bc d823 e43d 0fd5 08bd
00000030: 2e18 4dbe 5471 0cbd 250a 05bd c4d2 923d
00000040: d9fd ac3c b09b 913c 037c 2a3e bce6 b6bd
00000050: 51ef 4b3d 6e65 123e 4302 5c3d a494 edbd
00000060: 2f70 41bd a642 22bd a8dc f0bc e72f df3d
00000070: c9e9 84bd 1f91 29bc b4f2 59bd e183 0fbe
00000080: 5ec9 c6bd 6d7d 693d 06a2 363e d9ac 103d
00000090: 66c0 ac3d ffad 0b3e cb83 3bbc 7b10 f5bc
000000a0: a5f5 bdbb af4b 733d 6429 eb3d c668 703d
000000b0: 8eaf 063e 091e 273e d053 003d 2a65 2cbe
000000c0: 7a6a 0ebe 5d43 5b3d e14d b1bc 9cab 023c
000000d0: 50c6 de3d f7b5 b33d db29 223d 3133 45bd
000000e0: d36a 4f3d b0a6 823d 11c3 2c3e 6ca8 b93d
000000f0: ed6c d53d a303 ce3d 5669 093e b4bc a33d
00000100: 3f3f 00bd ea81 f1bd 1430 c73d 6ff6 2a3b
00000110: 0270 31be bb68 893c 5551 083d 9709 0fbe
00000120: 75eb 253d ae7f 0abe 13d6 f23d bf96 cfbd
00000130: 8aca 5cbe 2c08 56bd d68e 373d cd3e 863d
00000140: 8900 adbd 24c4 8d3c 8a6b 903d 02b0 e4bd
00000150: a095 1cbd 7b72 373d 05dd 383e cdef 633d
00000160: 809f 9c3d 458a 75be 6e96 9fbe 3be8 be3c
00000170: 4779 6dbc b02f adbc 5257 87be ab9b a3bd
00000180: d85b 4bbe 1e08 9a3c 6711 82bd 85bd 83bb
00000190: 1f79 e83c fb76 9cbd 66c8 143e 2d5f c63d
000001a0: ca3f 323d 5a62 4c3c fab8 d0bc 9c56 71bd
000001b0: 72f8 193e c5ec 363e 6745 04be 16e7 80be
000001c0: f2ce 3dbe 9a04 b13c 6a32 0ebd 5f75 acbd
000001d0: 9597 233d 0ac3 08be 61bf 273b ba7a 5fbe
000001e0: 556f 343e f2ac 363e 4f44 7e3d 7f41 62bc
000001f0: 9b59 1c3e ebac 113e e179 db3c 33fe b03d
00000200: f810 bcbd 4fce 0fbd 4cb2 233e f91f 9cbd
00000210: 1f8c 57bd 7349 c9bd fb6e babd 0f01 253e
00000220: 9df1 db3d 2b9f e3bd b222 1bbd ebb0 e3bb
00000230: 8b92 c2bc 14fb 8cbd 68f7 4cbb a4ec 6c3d
00000240: 3bae 8d3d d3dd 603d bfb7 f03c 9b02 c4bd
00000250: a445 23bc 51a7 d63d 9315 f13a 7bac dd3d
00000260: 03c3 773d 3831 70bb 0f50 ec3d cd4e 033e
00000270: e7d6 0cbe f847 c23d 49d6 dbbd ebdb 00bd
00000280: 13c6 21be 762a 233e 4403 8cbd 0a3f 833e
00000290: 7d1e 793d 5bcd 213e e93c d63d e4d8 3a3d
000002a0: 682e 8d3d 0221 2a3e 39d9 963d d133 98bd
000002b0: fe81 1abd b3b7 2d3e 445b 863d f8f1 333d
000002c0: 8bef f8bc 23ee d4bd 14f6 103c e9a1 bb3b
000002d0: d3c1 3f3e 4242 2abd 7241 26bd e543 db3d
000002e0: 77e7 0ebe 2583 123e 63bd ab3e aea6 953d
000002f0: 9562 afbd 9a5b f7bd 5f1d 473e a344 8a3d
00000300: b7f2 d3bc d041 d0bd c0da 0bbe 1baa 1bbd
00000310: 4341 82bc 8885 e83d 8dd9 e43d 8d69 9b3d
00000320: 18c2 e33c 98f6 03be f01f 84bc 4e0b 0bbd
00000330: 776c b53c c25d ad3d 1a29 d93d ab44 08bd
00000340: 88e3 b0bd 7004 bf3d 23f2 813e df40 93bd
00000350: cacc c7bc aad1 253e b356 04be cbc3 673d
00000360: 8f5b b6bb e871 8b3d 7ad3 0b3e 38f4 8d3e
00000370: 17e7 c23d 7c50 1ebe d1d1 023e 391b 9abd
00000380: 2a90 12be 4e71 e43c b6c4 99bd 64bb dfbd
00000390: 0bdc 48be d4a6 1a3e 282f eebc 089d eb3d
000003a0: dd13 323e c168 083d 9a92 e53d cfbc 82bd
000003b0: 069b b8bd 3450 5c3d 2b3a 5fbe fde4 2f3e
000003c0: 9734 cc3d cfac 44bc de1b 1d3e fc74 643d
000003d0: cb06 6d3e 7993 433e ab08 8639 a2f1 343e
000003e0: 8f32 8d3c d9dc 06bd 1053 983d 42e1 29be
000003f0: 9f89 0bbe 7298 fe3d 32e2 d6bd fe5f 9c3d

net.6.bias f4 [64]
0.08084727 0.10500531 0.02105553 -0.009693403 -0.03827032 -0.042003404 -0.10939631 -0.05933462
0.052134715 0.052737027 0.1249104 0.024352793 -0.017763041 -0.015301676 0.08093929 0.005490819
-0.0439222 -0.008301229 -0.14011799 -0.06550358 -0.07043975 0.0056288554 -0.040702593 0.10436807
-0.07589628 0.12814854 -0.09930058 0.09967471 -0.049521636 -0.03957012 -0.082354836 -0.08512839
-0.08194971 -0.0014434961 0.15126745 0.046777274 0.13328739 0.08350288 -0.05268716 -0.058025327
-0.04193502 -0.11678591 0.10707968 -0.04022586 -0.051827982 0.049041536 0.02843936 0.0726148
-0.06969872 0.1398703 -0.0966129 0.06415026 0.10956113 0.006067294 -0.10099646 -0.123926036
0.15017998 -0.1217016 -0.006784341 0.12389042 -0.103192545 0.11837119 0.020657517 0.058069494
00000000: 4193 a53d 060d d73d a67c ac3c 14d1 1ebc
00000010: 57c1 1cbd c30b 2cbd 2c0b e0bd dc08 73bd
00000020: 368b 553d c802 583d 06d1 ff3d 827f c73c
00000030: cc83 91bc e1b3 7abc 80c3 a53d 54ec b33b
00000040: c4e7 33bd e101 08bc 177b 0fbe be26 86bd
00000050: b742 90bd 4372 b83b c3b7 26bd edbe d53d
00000060: 826f 9bbd 5f39 033e 1a5e cbbd 4122 cc3d
00000070: 33d7 4abd 4714 22bd a7a9 a8bd cb57 aebd
00000080: 40d5 a7bd b133 bdba dbe5 1a3e 8799 3f3d
00000090: 7d7c 083e 8f03 ab3d 7ece 57bd f7ab 6dbd
000000a0: 0ec4 2bbd 742d efbd 974c db3d dfc3 24bd
000000b0: 9449 54bd c7df 483d a9f9 e83c 11b7 943d
000000c0: 34be 8ebd 293a 0f3e fcdc c5bd 3661 833d
000000d0: 9661 e03d 27d0 c63b 3bd7 cebd efcc fdbd
000000e0: c8c8 193e b03e f9bd 2d4f debb 43ba fd3d
000000f0: 9d56 d3bd 986c f23d f439 a93c 47da 6d3d

net.8.weight f4 [64, 64]
0.030173972 0.03244553 0.07830413 -0.081165686 -0.03723915 -0.0834081 0.11830221 0.11257347
-0.04078185 0.040240653 -0.033254597 0.10011618 -0.11663341 -0.07471875 0.060686596 0.07698016
0.11255321 0.025546836 -0.05792346 0.08526725 -0.010079337 0.12940452 0.0072597153 0.120983966
0.0061577344 -0.16540313 0.00051716476 0.13655831 0.13090837 0.12765747 -0.083637804 0.09390915
0.10466589 -0.09863065 0.028285326 0.08023933 -0.08074335 0.03062282 0.035712555 -0.041841775
0.07917698 0.11116128 0.17300153 -0.035411317 -0.0075992974 0.049286064 0.14282747 -0.036418673
0.055870093 0.23067044 0.009229816 0.033358477 0.022507166 -0.055585638 -0.08764347 -0.07451193
-0.11694622 -0.06889939 0.023031153 -0.0055072606 -0.047298767 0.11868515 0.17120224 -0.053779352
-0.087732635 0.11986811 0.09911897 0.015800362 0.106811635 -0.06566762 0.07170936 0.029467253
-0.0061901836 -0.050449282 0.08590614 0.018263264 -0.044469874 0.053821597 0.022029443 -0.039167672
0.088265926 0.16078004 -0.031319458 -0.026813878 -0.07351358 -0.13303047 0.16376647 0.071705185
-0.071900465 0.16433018 0.017537 0.0028405136 -0.024033058 -0.16664697 -0.11322912 0.19007975
0.007840932 0.03730489 -0.060451288 0.095625676 -0.02016665 0.025820114 -0.11617569 -0.07744183
-0.107281 -0.08884886 0.028661981 -0.09300473 -0.011558769 0.13845634 0.04270958 0.03413849
0.07929544 -0.13602096 -0.16565523 0.0485375 0.12647477 0.14757122 0.13104853 0.10148951
-0.03980105 0.01282521 0.04944615 -0.043677013 0.13108087 -0.28337544 -0.015635993 0.21556187
-0.06347549 0.107746236 -0.10643519 0.03188345 -0.10884104 0.040951613 0.027344644 0.0025304551
-0.019677276 -0.07843802 -0.115306385 0.03235091 0.052110225 -0.09406133 -0.046318233 -0.026961416
0.06393686 0.04424395 0.09385546 0.02781406 -0.032866724 -0.14402574 -0.13980326 -0.08541269
0.062135294 0.061167628 0.13781093 0.109853625 0.016651602 0.089045905 0.055729393 -0.15568765
-0.009325447 -0.13561495 0.10685981 0.024022749 0.11015064 -0.010679399 0.09925856 -0.015773222
-0.015256941 -0.0041339397 0.11378063 -0.0018760273 0.082510985 0.024405811 -0.029345063 -0.060851507
-0.07315517 0.086895406 0.07147176 -0.059425395 -0.17349027 0.06940485 -0.046281382 -0.14547433
0.0016596394 -0.011027957 0.0915363 0.023248954 -0.08812805 -0.100300886 -0.075488046 0.050971925
0.09654676 0.14170146 -0.034303494 -0.0663646 -0.12728873 -0.12766743 -0.11659315 -0.11488523
0.15120518 -0.06592836 0.036248095 0.10345479 0.008715831 0.067232184 -0.013352165 0.0033585103
-0.009986073 -0.10167218 0.14084172 -0.11818741 -0.041037943 0.1780078 -0.0018332036 0.010380375
-0.018232238 -0.054248907 0.08837532 0.100026205 0.11923756 0.22745717 -0.0254669 -0.19940141
0.008401063 -0.06508996 -0.03683897 0.04841803 0.16105975 0.17063604 -0.07698819 -0.021745693
-0.09981867 -0.0450702 0.1703985 0.13697998 0.024931926 -0.1663124 0.11743555 0.13608381
-0.09180169 0.22153698 -0.08448324 -0.16838665 -0.056984406 -0.042786196 -0.14698318 -0.14636081
0.06289463 -0.061428275 0.052936863 -0.08126258 0.14702205 0.2615568 0.17364442 -0.13436404
00000000: 682f f73c 9be5 043d ea5d a03d 323a a6bd
00000010: 1488 18bd ded1 aabd 6e48 f23d eb8c e63d
00000020: df0a 27bd 62d3 243d f935 08bd b609 cd3d
00000030: 7fdd eebd 2506 99bd 8292 783d c6a7 9d3d
00000040: 4c82 e63d 9947 d13c 2641 6dbd 99a0 ae3d
00000050: ce23 25bc 9e82 043e e8e2 ed3b 71c6 f73d
00000060: d2c6 c93b 705f 29be 5792 073a f1d5 0b3e
00000070: d80c 063e a4b8 023e 4c4a abbd 7153 c03d
00000080: 125b d63d defe c9bd a1b6 e73c 8554 a43d
00000090: c55c a5bd b5dc fa3c 5447 123d 4862 2bbd
000000a0: 8a27 a23d 86a8 e33d 5027 313e 750b 11bd
000000b0: 8703 f9bb 2fe0 493d 5d41 123e bf2b 15bd
000000c0: 0ad8 643d df34 6c3e a738 173c e6a2 083d
000000d0: f360 b83c c4ad 63bd 6b7e b3bd b699 98bd
000000e0: 8081 efbd 201b 8dbd d4ab bc3c 4076 b4bb
000000f0: 5abc 41bd 3311 f33d a44f 2f3e bd47 5cbd
00000100: 2bad b3bd 697d f53d e3fe ca3d c36f 813c
00000110: 0fc0 da3d bf7c 86bd 5bdc 923d 4f65 f13c
00000120: 06d7 cabb e8a3 4ebd 8fef af3d d79c 953c
00000130: 0b26 36bd 0974 5c3d 1777 b43c 486e 20bd
00000140: c4c4 b43d 86a3 243e d548 00bd c7a8 dbbc
00000150: 4a8e 96bd 2439 08be 66b2 273e 2bda 923d
00000160: 8d40 93bd 2c46 283e c1a9 8f3c e927 3a3b
00000170: fae0 c4bc 81a5 2abe abe4 e7bd 44a4 423e
00000180: 4177 003c 03cd 183d c59b 77bd 65d7 c33d
00000190: 8834 a5bc b484 d33c 85ed edbd d299 9ebd
000001a0: 24b6 dbbd 64f6 b5bd 88cc ea3c 4479 bebd
000001b0: fe60 3dbc 80c7 0d3e 3ef0 2e3d cdd4 0b3d
000001c0: a665 a23d 1449 0bbe 86a1 29be 42cf 463d
000001d0: 9a82 013e e91c 173e 9631 063e bbd9 cf3d
000001e0: 6d06 23bd d420 523c 0c88 4a3d abe6 32bd
000001f0: 103a 063e 9616 91be 0e17 80bc 40bc 5c3e
00000200: 70ff 81bd 0faa dc3d b1fa d9bd 3898 023d
00000210: 0de8 debd e1bc 273d e001 e03c fed5 253b
00000220: 3d32 a1bc 1da4 a0bd c125 ecbd 6382 043d
00000230: 8871 553d 3aa3 c0bd 30b8 3dbd 30de dcbc
00000240: 54f1 823d 2539 353d 4b37 c03d 50da e33c
00000250: 429f 06bd 7c7b 13be 9628 0fbe d9ec aebd
00000260: 9481 7e3d e88a 7a3d 4f1e 0d3e f0fa e03d
00000270: f168 883c b35d b63d 8144 643d 956c 1fbe
00000280: c2c9 18bc a5de 0abe 51d9 da3d 5bcb c43c
00000290: a996 e13d a5f8 2ebc 1248 cb3d d836 81bc
000002a0: 40f8 79bc 0076 87bb d205 e93d 08e5 f5ba
000002b0: 85fb a83d b2ee c73c 0f65 f0bc 6e3f 79bd
000002c0: 61d2 95bd 38f6 b13d c95f 923d 0b68 73bd
000002d0: 6fa7 31be 2124 8e3d 8c91 3dbd 39f7 14be
000002e0: 4288 d93a 9bae 34bc 6277 bb3d 9774 be3c
000002f0: 7b7c b4bd 8d6a cdbd 7a99 9abd f0c7 503d
00000300: 4fba c53d 301a 113e d281 0cbd 2aea 87bd
00000310: fa57 02be 40bb 02be 64c8 eebd f348 ebbd
00000320: 88d5 1a3e 7305 87bd e278 143d 1be0 d33d
00000330: d8cc 0e3c 07b1 893d 0ac3 5abc 741a 5c3b
00000340: a09c 23bc 8139 d0bd d038 103e 3e0c f2bd
00000350: 6717 28bd ad47 363e 1b48 f0ba 7312 2a3c
00000360: c65b 95bc 1a34 5ebd 1ffe b43d 8ada cc3d
00000370: d232 f43d 88ea 683e f69f d0bc e22f 4cbe
00000380: 9da4 093c e34d 85bd 76e4 16bd fc51 463d
00000390: d9ec 243e 37bb 2e3e fcab 9dbd 0624 b2bc
000003a0: bb6d ccbd 889b 38bd f27c 2e3e 7b44 0c3e
000003b0: 0a3e cc3c cc4d 2abe 0d82 f03d 8e59 0b3e
000003c0: 8602 bcbd 97da 623e 8d05 adbd 8d6d 2cbe
000003d0: 7b68 69bd 9440 2fbd c282 16be 9cdf 15be
000003e0: e6ce 803d 379c 7bbd 53d4 583d ff6c a6bd
000003f0: f38c 163e c6ea 853e d8cf 313e ba96 09be

net.8.bias f4 [64]
-0.09237572 -0.028329553 -0.09144536 -0.020031929 0.05374388 0.018633507 -0.12283064 -0.076652125
-0.053524394 0.009717019 -0.06419714 -0.097738564 -0.10014948 0.14706591 0.15514098 -0.05156277
0.037971806 -0.028994959 -0.01773694 0.09283385 -0.096685335 -0.007861927 0.084179714 -0.11171552
0.1315346 0.08082477 0.042909987 -0.034015343 -0.06390558 -0.096732594 -0.09062944 -0.13361649
-0.017666453 0.029915905 -0.084126055 0.14643854 -0.09385351 0.043022692 -0.026910286 0.14915067
-0.06916275 0.032489713 0.08570362 0.055548497 -0.087731816 -0.03707888 -0.0030463662 -0.12329292
-0.060998123 -0.10606731 0.037744973 0.02617957 -0.11680949 0.14475046 0.10721685 -0.106527
0.012996874 0.06890815 -0.074288234 0.026825331 0.017416231 -0.038743068 -0.03436476 0.014608218
00000000: 7b2f bdbd 6113 e8bc b447 bbbd 001a a4bc
00000010: 8b22 5c3d 4ca5 983c a18e fbbd cafb 9cbd
00000020: 653c 5bbd 2234 1f3c ca79 83bd 282b c8bd
00000030: 2c1b cdbd 7298 163e 47dd 1e3e 7c33 53bd
00000040: 5388 1b3d d686 edbc 0f4d 91bc ac1f be3d
00000050: f602 c6bd 50cf 00bc 6a66 ac3d 1bcb e4bd
00000060: 02b1 063e 7587 a53d 62c2 2f3d ac53 0bbd
00000070: eee0 82bd bd1b c6bd ee9b b9bd c3d2 08be
00000080: 3db9 90bc 3312 f53c 484a acbd fcf3 153e
00000090: 4536 c0bd 9038 303d f672 dcbc f4ba 183e
000000a0: 33a5 8dbd ef13 053d 6185 af3d d286 633d
000000b0: bdac b3bd 06e0 17bd 8ba5 47bb 0081 fcbd
000000c0: 2bd9 79bd d139 d9bd 799a 1a3d 8a76 d63c
000000d0: d039 efbd 7739 143e 8294 db3d d42a dabd
000000e0: d7f0 543c b71f 8d3d 6e24 98bd ccc0 db3c
000000f0: 7cac 8e3c 0db1 1ebd 10c2 0cbd 4f57 6f3c

net.10.weight f4 [14, 64]
-0.09375163 0.09839242 -0.021372436 -0.01168733 -0.004276019 0.0136872 0.05553147 0.08878921
-0.12841563 -0.04260185 0.02518485 -0.06981553 -0.0061581284 -0.123500146 0.1277342 -0.09500384
0.14086649 0.06057445 -0.10622319 -0.07606639 -0.022879666 -0.11668207 -0.1032041 0.100328095
0.03755607 -0.11453551 -0.039097596 0.07071604 0.20427297 0.32133135 0.078419015 0.10466835
-0.10951117 -0.0062555014 0.06436559 -0.15106347 -0.12164382 -0.033936616 0.11983238 0.054591905
0.07596742 0.060559608 0.03330592 -0.029504009 0.01194643 -0.066178866 0.094802506 0.10558218
-0.033312872 0.05045851 0.009435785 0.06623379 -0.11244832 0.02012854 -0.0004314572 0.1062668
-0.0009029254 0.028427906 -0.122398436 -0.07522839 0.12014203 -0.039257616 0.06427255 -0.12905331
0.02286788 -0.10500526 -0.072567 0.12485861 0.087339215 -0.1205306 -0.0902502 0.07375631
-0.058598984 0.04888317 0.07633048 -0.013865113 -0.077934 -0.031753674 0.05628342 0.09625353
-0.057573706 -0.028369155 0.022657774 -0.14197254 0.018108103 0.021974517 0.115273505 -0.013990923
0.10365336 0.06345237 -0.060618967 0.027958948 0.113926515 -0.21320811 -0.06846696 0.027453095
0.0750079 -0.17153773 -0.119645305 -0.078345805 -0.091366194 0.09253055 -0.13127173 -0.021632005
-0.033205025 -0.10050705 0.09051108 -0.05114641 0.068891436 -0.093784414 0.13587573 0.03159195
-0.027111482 0.003907654 0.045934584 -0.07765804 -0.03707233 -0.12439377 -0.0969627 0.11278045
-0.027878122 -0.08069519 0.0058108866 0.06139964 0.11224766 -0.0874028 0.088727295 -0.0050079473
-0.07282426 0.053935565 -0.015937302 0.03402693 0.10833281 0.030296385 -0.02758203 -0.093913615
-0.13465992 0.048053775 -0.059927024 0.0017282516 0.09622814 0.015376331 -0.031094326 -0.020342533
-0.0110776555 0.016615171 0.12221728 -0.10816772 0.110192075 0.008304873 0.11057855 -0.050248206
0.09249615 -0.12690592 -0.12931034 0.105506815 -0.020318579 0.085354276 0.050662488 -0.041791942
-0.14478493 0.09096438 -0.0074590533 -0.07869716 -0.091481544 -0.05595454 -0.02412529 -0.09322671
0.1326697 0.005628024 0.0150833335 -0.06656769 -0.004686488 0.115583286 -0.053100247 0.10092114
-0.038132776 -0.05811235 -0.112999916 -0.1636227 0.054499358 -0.10591509 -0.07659856 -0.089592375
-0.11406432 -0.116754934 -0.08160934 0.11524008 0.004837555 -0.101365015 0.018273182 0.1159056
-0.14825067 0.050240215 -0.08500381 -0.1502929 0.07767688 0.047820706 0.26261404 0.057228014
-0.00925428 0.121942446 -0.16070698 0.12045854 -0.08051956 -0.037020016 -0.13474259 -0.08925583
0.12652104 0.07814704 -0.016280212 0.06659541 -0.10410774 -0.019290816 0.10234083 0.11927507
-0.12513472 0.22884819 0.12088251 0.08252587 0.15795293 -0.22551383 0.03593558 0.037087373
0.044164956 0.1421224 -0.07080361 0.1595816 -0.01009301 0.1703693 -0.097257875 -0.112767264
0.089275055 0.1532477 0.12308522 0.030639967 -0.04757687 -0.08323183 -0.111454844 0.0079214275
0.11199504 -0.038967434 0.056024972 0.03340719 0.111193135 0.038482904 -0.024306465 0.2769689
0.124314405 -0.07174461 -0.087209955 -0.045429036 0.06698801 -0.065667346 -0.11570289 -0.023725314
00000000: db00 c0bd f781 c93d 3f15 afbc 377c 3fbc
00000010: d91d 8cbb 4740 603c f774 633d 1ed7 b53d
00000020: 637f 03be 477f 2ebd 7550 ce3c 72fb 8ebd
00000030: 20ca c9bb a5ed fcbd c1cc 023e 6091 c2bd
00000040: 4e3f 103e ea1c 783d 8b8b d9bd b2c8 9bbd
00000050: 236e bbbc 02f7 eebd ac5c d3bd d178 cd3d
00000060: 65d4 193d 9891 eabd cd24 20bd 92d3 903d
00000070: ef2c 513e 8b85 a43e 269a a03d 5c5c d63d
00000080: 6447 e0bd f3fa ccbb 1bd2 833d 62b0 1abe
00000090: 6520 f9bd 1f01 0bbd ae6a f53d c39b 5f3d
000000a0: cf94 9b3d 5a0d 783d ca6b 083d 64b2 f1bc
000000b0: f6ba 433c c988 87bd d127 c23d 783b d83d
000000c0: 1473 08bd 95ad 4e3d 8d98 1a3c 95a5 873d
000000d0: 4e4b e6bd 9ce4 a43c 3535 e2b9 68a2 d93d
000000e0: 4cb2 6cba a4e1 e83c 08ac fabd 5811 9abd
000000f0: 060d f63d 98cc 20bd 54a1 833d 8d26 04be
00000100: 6c55 bb3c ff0c d7bd 029e 94bd dfb5 ff3d
00000110: e7de b23d bfd8 f6bd 19d5 b8bd 8c0d 973d
00000120: 7d05 70bd b839 483d 2853 9c3d 802a 63bc
00000130: dc9b 9fbd 2410 02bd 7289 663d 9220 c53d
00000140: 68d2 6bbd 6e66 e8bc cc9c b93c 4061 11be
00000150: 7257 943c e703 b43c 8414 ec3d 2f3a 65bc
00000160: 3648 d43d 51f3 813d 984b 78bd 2a0a e53c
00000170: 4e52 e93d 3a53 5abe 6838 8cbd 50e5 e03c
00000180: be9d 993d 96a7 2fbe 9908 f5bd c473 a0bd
00000190: 331e bbbd a880 bd3d 196c 06be 9a35 b1bc
000001a0: fe01 08bd a4d6 cdbd e05d b93d e67e 51bd
000001b0: f416 8d3d 0b12 c0bd 0223 0b3e 9066 013d
000001c0: e618 debc c70b 803b e725 3c3d 2e0b 9fbd
000001d0: 28d9 17bd 29c2 febd 6194 c6bd 70f9 e63d
000001e0: a960 e4bc 8543 a5bd 4069 be3b 307e 7b3d
000001f0: 1ae2 e53d 3d00 b3bd a8b6 b53d b519 a4bb
00000200: e324 95bd 8aeb 5c3d f28e 82bc d25f 0b3d
00000210: 98dd dd3d 2030 f83c b6f3 e1bc c855 c0bd
00000220: 4ae4 09be 09d4 443d 0a76 75bd 8086 e23a
00000230: 4213 c53d 02ed 7b3c 87b9 febc 62a5 a6bc
00000240: 0e7f 35bc 8a1c 883c 0e4d fa3d 0a87 ddbd
00000250: 62ac e13d 2911 083c 0277 e23d 10d1 4dbd
00000260: 9f6e bd3d a0f3 01be ee69 04be f513 d83d
00000270: 2673 a6bc 39ce ae3d 7883 4f3d 072e 2bbd
00000280: 8042 14be 884b ba3d 136b f4bb fa2b a1bd
00000290: ad5a bbbd 9630 65bd 66a2 c5bc a5ed bebd
000002a0: 91da 073e 4a6b b83b 1620 773c a454 88bd
000002b0: 1c91 99bb eeb6 ec3d a57f 59bd beaf ce3d
000002c0: 1d31 1cbd 3707 6ebd 806c e7bd b68c 27be
000002d0: b83a 5f3d 03ea d8bd b5df 9cbd 357c b7bd
000002e0: 8e9a e9bd 361d efbd cc22 a7bd fe02 ec3d
000002f0: 5a84 9e3b 7698 cfbd a4b1 953c ea5f ed3d
00000300: 06cf 17be afc8 4d3d 7a16 aebd 62e6 19be
00000310: 0e15 9f3d a5df 433d 5975 863e ec67 6a3d
00000320: 439f 17bc f6bc f93d 5f90 24be f8b2 f63d
00000330: 70e7 a4bd 4da2 17bd f6f9 09be c3cb b6bd
00000340: bb8e 013e 8e0b a03d 145e 85bc 2d63 883d
00000350: 7036 d5bd c607 9ebc 1298 d13d 7d46 f43d
00000360: 5123 00be 2e57 6a3e 4091 f73d 5303 a93d
00000370: 6abe 213e 19ed 66be 3031 133d eee8 173d
00000380: 50e6 343d 8988 113e 7c01 91bd 5c69 233e
00000390: 275d 25bc 4a75 2e3e 232f c7bd 86f2 e6bd
000003a0: d7d5 b63d f7ec 1c3e 1b14 fc3d ab00 fb3c
000003b0: f7df 42bd 7375 aabd 7042 e4bd e0c8 013c
000003c0: a85d e53d 519c 1fbd 717a 653d fad5 083d
000003d0: 3ab9 e33d 40a0 1d3d 5a1e c7bc dece 8d3e
000003e0: 8d98 fe3d d7ee 92bd 229b b2bd cc13 3abd
000003f0: 0331 893d 9a7c 86bd a3f5 ecbd 975b c2bc

net.10.bias f4 [14]
-0.08820356 0.025889678 0.12407235 -0.010484162 -0.075542234 -0.01988284 -0.09095603 0.0990192
-0.06839883 -0.0004128985 -0.09274923 0.017334271 -0.060577884 -0.055496532
00000000: 11a4 b4bd 9716 d43c a519 fe3d c3c5 2bbc
00000010: e3b5 9abd 56e1 a2bc 2847 babd 94ca ca3d
00000020: b014 8cbd 4c7a d8b9 4ff3 bdbd 9a00 8e3c
00000030: 8420 78bd 5550 63bd
