case2_best_model.pth (torch, 62658 bytes, 12 tensors)

net.0.weight f4 [16, 3]
0	0x3ee5cd98	0.44883418
1	0x3f076459	0.52887493
2	0xbdf03471	-0.117287524
3	0x3f15483a	0.58313334
4	0xbe0394e7	-0.1284977
5	0x3d9fc897	0.07801931
6	0xbeb94f7a	-0.36193448
7	0x3e91e941	0.2849827
8	0x3f18e8f3	0.5973045
9	0xbf019da5	-0.5063117
10	0x3f10da68	0.5658326
11	0x3e419804	0.18905646
12	0x3efa52ae	0.48891205
13	0x3cce377e	0.025172945
14	0x3e168361	0.14698555
15	0xbd9ecf17	-0.07754343
16	0x3f09b1b8	0.537868
17	0x3dee884a	0.11647089
18	0xbe83f583	-0.25773248
19	0x3e69406d	0.22778483
20	0xbe93658d	-0.28788415
21	0xbcf51dda	-0.02992146
22	0xbe969018	-0.2940681
23	0x3eefbb5d	0.46822634
24	0xbf000e01	-0.5002137
25	0xbee1ae70	-0.44078398
26	0xbdd65834	-0.10466042
27	0xbeccdde9	-0.40013054
28	0xbc927e76	-0.017882567
29	0xbf1430fb	-0.5788724
30	0x3f058aea	0.5216509
31	0xbecaff69	-0.39647987
32	0x3f025f4e	0.50926673
33	0x3e110e8d	0.14165707
34	0xbe5d785d	-0.21627946
35	0x3ed55920	0.4166956
36	0x3d26a2f9	0.040682767
37	0x3f0061cf	0.50149244
38	0x3c472cb6	0.012156656
39	0xbe92f5b1	-0.28703073
40	0x3e4a1739	0.19735421
41	0xbe4bf6d8	-0.19918382
42	0x3e7ca51d	0.2467236
43	0x3f0ddc18	0.5541396
44	0x3eb039e9	0.34419182
45	0xbe8024e9	-0.2502816
46	0x3ed71378	0.4200704
47	0x3d06a1e7	0.032869246

net.0.bias f4 [16]
0	0x3eb719dc	0.35761917
1	0xbea25141	-0.31702617
2	0xbf022919	-0.5084396
3	0xbdde7942	-0.10862972
4	0xbee3ef7f	-0.4451866
5	0x3f0318ec	0.512099
6	0x3e3a79c2	0.1821051
7	0x3e9a0ad2	0.3008638
8	0x3e54d76d	0.20785303
9	0xbaa6329f	-0.0012679881
10	0x3eec101b	0.46106037
11	0xbea7f02d	-0.32800427
12	0x3e4412df	0.19147824
13	0xbea38ce0	-0.31943417
14	0x3e702b39	0.23453988
15	0xbe06132b	-0.1309325

net.2.weight f4 [64, 16]
0	0x3d966149	0.073427744
1	0xbd555778	-0.05208537
2	0x3e511266	0.20417175
3	0xbe1afbf6	-0.15135178
4	0xbe18ad8a	-0.1490995
5	0xbe1bf08e	-0.15228483
6	0x3e63014a	0.2216846
7	0x3daa9fe4	0.08331278
8	0x3e765610	0.24056268
9	0xbe53454e	-0.20631906
10	0xbe7deb98	-0.24796903
11	0xbe4848fe	-0.19559094
12	0xbe2f75ff	-0.17134856
13	0x3dc8e065	0.09808425
14	0x3db0d463	0.086342596
15	0x3e5176d4	0.20455486
16	0xbe043474	-0.12910634
17	0xbe2e84aa	-0.17042795
18	0x3e07d3f8	0.13264453
19	0xbdcef3e4	-0.10105112
20	0x3e1b5f5c	0.15173095
21	0xbd72fef0	-0.05932516
22	0x3e12719a	0.14301148
23	0xbe46e760	-0.194242
24	0xbe0130ba	-0.12616244
25	0x3d9c18c4	0.07621911
26	0x3d587b38	0.052851886
27	0xbd8289f4	-0.06373969
28	0x3e189802	0.14901736
29	0x3e2e07fa	0.1699523
30	0xbe39a4f6	-0.18129334
31	0xbe08ab96	-0.13346705
32	0x3e8b25ed	0.27177373
33	0xbdd61a1e	-0.104542
34	0xbdee1926	-0.116258904
35	0xbe8943b4	-0.26809466
36	0xbe242b5f	-0.1603217
37	0x3e014e41	0.12627508
38	0xbb89c8ad	-0.0042048306
39	0xbe5a074a	-0.21291843
40	0xbd5fa42f	-0.054599937
41	0xbe2faaef	-0.1715505
42	0xbe5d673d	-0.21621414
43	0x3958354a	0.00020619217
44	0xbe340cc4	-0.17582995
45	0xbe440525	-0.19142587
46	0x3e906a08	0.28205895
47	0x3c43793d	0.011930761
48	0x3e11ce8d	0.14238949
49	0xbe916dd5	-0.28404108
50	0xbe2c2db6	-0.16814312
51	0xbc1419e4	-0.009039376
52	0xbdd0e02c	-0.101990074
53	0xbde2570c	-0.11051759
54	0xbd8254e8	-0.06363851
55	0xbe7d7b42	-0.2475405
56	0xbcbc03e0	-0.022951066
57	0xbdc6a52c	-0.09699473
58	0xbd1207d3	-0.035651993
59	0xbe2d7924	-0.16940743
60	0x3d07e00e	0.03317266
61	0xbe09e171	-0.13464905
62	0xbbd4d9f6	-0.0064957095
63	0xbe049804	-0.12948614
64	0x3e59f2fb	0.21284096
65	0xbd0369be	-0.032083265
66	0x3e2b9c40	0.16758823
67	0x3db255e9	0.08707792
68	0xbe39f437	-0.18159567
69	0x3e1dd5e8	0.1541363
70	0xbdba4b63	-0.0909641
71	0xbe4e057f	-0.20119284
72	0xbe827d79	-0.25486353
73	0xbe4655df	-0.19368695
74	0x3d71f43e	0.059070818
75	0xbe1356b0	-0.14388537
76	0x3dc51143	0.09622433
77	0xbe3976e5	-0.18111761
78	0x3e316915	0.17325242
79	0xbe2bc9e5	-0.16776235
80	0xbc87d51f	-0.016581116
81	0x3cd9dd3e	0.026594754
82	0x3e060bfc	0.13090509
83	0x3e3aba9f	0.18235253
84	0x3e570842	0.20999244
85	0xbe0e8ec8	-0.13921654
86	0x3dcc479e	0.099745974
87	0xbd862d94	-0.06551662
88	0xbd4fe7c1	-0.050758127
89	0xbe25c897	-0.161898
90	0x3e8021f3	0.250259
91	0xbe135298	-0.14386976
92	0x3e31f4c9	0.17378534
93	0x3d8fcf10	0.07021916
94	0x3e05dbf2	0.13072184
95	0xbe1f1146	-0.15533933
96	0x3e8115ec	0.25212038
97	0x3c29ccf7	0.010363809
98	0x3ba1e1c7	0.004940245
99	0xbe9ac6f2	-0.30229908
100	0x3d7770b4	0.060410216
101	0x3d0bf894	0.03417261
102	0xbde79a0c	-0.11308679
103	0x3e69a8d5	0.2281831
104	0xbcbcf232	-0.023064706
105	0xbe41dd36	-0.18932042
106	0xbe0302cf	-0.1279404
107	0x3b6fd699	0.0036596416
108	0x3e5885e5	0.21144827
109	0xbe5267d9	-0.20547427
110	0xbdd28382	-0.102789894
111	0xbe46d7b8	-0.19418228
112	0xbe416bf8	-0.18888843
113	0x3de4b08c	0.11166486
114	0x3e76d521	0.2410474
115	0xbe8f1587	-0.27946112
116	0x3da80b8c	0.082053274
117	0x3dd15c35	0.10222665
118	0xbc7b5076	-0.015339008
119	0xbcf10cbf	-0.029425023
120	0x3e1eddbf	0.15514277
121	0x3da3d89a	0.08000298
122	0x3e03e209	0.12879194
123	0x3b918fa4	0.004442172
124	0xbe45faf5	-0.19334014
125	0x3d1f7899	0.03893337
126	0xbd27bf26	-0.040953778
127	0xbe405783	-0.18783383
128	0x3e449e79	0.19201078
129	0x3e58391d	0.21115537
130	0xbdb20a81	-0.0869341
131	0xbe0e8cd6	-0.13920912
132	0x3c8a200e	0.016860988
133	0x3d63763c	0.05553268
134	0x3e2b7b81	0.16746332
135	0x3dd7be77	0.10534375
136	0xbe85f7f4	-0.26165736
137	0xbcc6d68f	-0.024272231
138	0x3e7b6bb9	0.24552812
139	0x3e0f9bae	0.14024231
140	0x3d9b37da	0.07579012
141	0xbe70594e	-0.23471567
142	0xbda02fdc	-0.078216285
143	0xbe7887d2	-0.24270561
144	0xbdb49b48	-0.0881868
145	0x3d8db70c	0.06919679
146	0x3e762a5f	0.24039601
147	0x3e36a032	0.17834547
148	0xbe71f55b	-0.23628752
149	0xbdea5255	-0.11441485
150	0xbddc5198	-0.1075775
151	0x3e9d15ae	0.30680603
152	0xb9c3adc8	-0.00037322775
153	0xbe1a724d	-0.15082665
154	0x3e025fb9	0.12731828
155	0xbd1df693	-0.03856523
156	0xbe1fec76	-0.15617546
157	0x3e0a297f	0.13492392
158	0xbd9582fa	-0.073003724
159	0xbcaaa49a	-0.020830441
160	0xbe838f53	-0.25695285
161	0x3e2b32b8	0.16718566
162	0x3e999fac	0.30004632
163	0x3e463b32	0.19358519
164	0xbe32c6f9	-0.17458715
165	0xbe6b98f7	-0.2300757
166	0xbe842616	-0.25810307
167	0x3e8e58a9	0.27802017
168	0x3e08ae63	0.13347773
169	0x3e1f61c2	0.15564635
170	0x3e266ce0	0.1625247
171	0x3e0c1464	0.13679653
172	0xbd9b10ea	-0.075715855
173	0xbe42b086	-0.19012651
174	0xbe3ef202	-0.18647006
175	0xbe8917b8	-0.26775908
176	0x3d10dd6b	0.03536741
177	0xbd9a0eb9	-0.075223394
178	0xbe1cb2fd	-0.15302654
179	0xbe90fc6f	-0.28317592
180	0xbce38316	-0.027772468
181	0xbe43c7e2	-0.19119218
182	0xbdfca024	-0.12335232
183	0x3e0e7533	0.13911895
184	0x3ce4be98	0.027922913
185	0x3e6056f4	0.2190817
186	0xbd7188aa	-0.058968224
187	0xbe75df98	-0.24011075
188	0xbe8b0051	-0.2714868
189	0xbe153678	-0.1457156
190	0xbe007a3b	-0.12546627
191	0xbeaea777	-0.3411214
192	0x3e57a65f	0.2105956
193	0xbe49ecff	-0.19719313
194	0x3df33c63	0.11876752
195	0x3db580a7	0.08862429
196	0x3e293fbc	0.16528219
197	0xbe0cf177	-0.13763987
198	0x3e523555	0.20528157
199	0xbe8f0008	-0.2792971
200	0x3cad87ca	0.021182913
201	0x3e6dd811	0.23226954
202	0xbd5512bd	-0.052019823
203	0x3dafd010	0.08584607
204	0xbc9b9dac	-0.018996082
205	0xbe719319	-0.2359127
206	0x3e0f9851	0.14022948
207	0xbe8f5632	-0.2799545
208	0x3e44a81a	0.1920475
209	0x3e99347b	0.29922852
210	0x3e826262	0.25465685
211	0xbb98cdd1	-0.004663207
212	0xbd43211b	-0.047638994
213	0x3cb798c1	0.022411706
214	0x3e1b7d09	0.15184416
215	0xbe939a91	-0.28828862
216	0x3d09962a	0.033590473
217	0xbdc0485f	-0.09388804
218	0xb9ff68f1	-0.00048715578
219	0xbe1146a6	-0.14187106
220	0xbdca3498	-0.09873313
221	0xbc971292	-0.018441472
222	0xbe726e2e	-0.23674843
223	0x3e8a11eb	0.26966795
224	0x3e569ce0	0.2095828
225	0xbd20a248	-0.039217263
226	0xbce93b00	-0.028470516
227	0xbdd0f518	-0.10202998
228	0xbe672f20	-0.2257657
229	0xbe791ffe	-0.2432861
230	0x3dbe4a04	0.09291461
231	0xbe0c8e4a	-0.13726154
232	0xbe249396	-0.16071925
233	0xbc9fcaa0	-0.019505799
234	0xbdaa8070	-0.08325279
235	0xbda5a484	-0.080880195
236	0x3c039c00	0.008032799
237	0xbd593400	-0.053028107
238	0xbdb049b8	-0.08607811
239	0xbdf5260c	-0.119701475
240	0xbe2ff09f	-0.17181633
241	0x3e362eba	0.17791262
242	0xbe05bf8a	-0.13061348
243	0x3d0d235f	0.03445756
244	0xbddfbe0b	-0.1092492
245	0x3dace815	0.08442704
246	0x3e83cbb6	0.25741357
247	0x3e0ec869	0.13943638
248	0xbe94eca7	-0.290868
249	0x3db46efb	0.0881023
250	0x3e811cca	0.25217277
251	0x3dbecc58	0.09316319
252	0x3e62171c	0.22079128
253	0x3e635dbb	0.22203724
254	0x3c2c0f3b	0.010501678
255	0x3cc9ea87	0.024647964

net.2.bias f4 [64]
0	0xbe07f25b	-0.13276045
1	0xbe7d2fbe	-0.24725243
2	0x3df35f78	0.118834436
3	0x3e3ba752	0.18325546
4	0xbe700cad	-0.23442335
5	0x3e0db4b1	0.1383846
6	0x3e6bc529	0.2302443
7	0x3d007075	0.031357247
8	0xbdcd7bfa	-0.10033412
9	0x3e577f51	0.21044661
10	0x3df361ff	0.11883926
11	0x3e541d0f	0.2071421
12	0xbe222c13	-0.15837125
13	0x3e28a7d2	0.16470268
14	0xbe2eddea	-0.17076841
15	0x3e8d47d2	0.27593857
16	0xbdd8ef2c	-0.105924934
17	0x3e592ba1	0.2120805
18	0x3de1b7c0	0.11021376
19	0x3dd86288	0.10565668
20	0xbd57fb05	-0.052729625
21	0x3dce7c2f	0.1008228
22	0xbd9a3ef7	-0.07531541
23	0xbe4f8cb5	-0.20268519
24	0xbd8076a3	-0.06272628
25	0x3e60670e	0.21914312
26	0xbd26215d	-0.04055916
27	0x3dbc1432	0.091835395
28	0xbd6e8862	-0.058235534
29	0x3e5b7a90	0.21433473
30	0x3e3b5da1	0.18297435
31	0x3dfdef5b	0.12399169
32	0xbde84e19	-0.11343021
33	0xbe512f6c	-0.20428246
34	0x3d0a37d0	0.033744633
35	0xbe162f34	-0.14666444
36	0x3e5697c6	0.20956334
37	0xbe4e7471	-0.20161606
38	0x3e11cfd4	0.14239436
39	0x3e9298aa	0.28632098
40	0x3e16ebf7	0.14738451
41	0x3de931ff	0.11386489
42	0xbe600150	-0.218755
43	0x3e856263	0.26051626
44	0xbd4ccf7f	-0.05000257
45	0xbe3cf742	-0.18453696
46	0x3e876a0e	0.264481
47	0xbd2626d5	-0.040564377
48	0xbc90e420	-0.017686903
49	0x3e803b34	0.25045168
50	0xbe0e6df3	-0.1390913
51	0xbdec0a7a	-0.11525436
52	0x3da8b021	0.08236719
53	0x3c8a3512	0.016871009
54	0x3d6bdeb8	0.057585448
55	0xbe588fe6	-0.21148643
56	0x3d422053	0.047394108
57	0xbd801504	-0.062540084
58	0xbdfbb428	-0.122902215
59	0xbe5a6cc5	-0.21330555
60	0x3e2c18c2	0.1680632
61	0x3d724616	0.05914887
62	0xbe618d2d	-0.2202651
63	0x3e6f1ec3	0.23351578

net.4.weight f4 [64, 64]
0	0x3d0eeea7	0.034895565
1	0x3cbe0448	0.0231954
2	0xbbef7b98	-0.0073084347
3	0x3bf40e23	0.0074479743
4	0x3e174967	0.14774095
5	0x3dbe8edd	0.09304593
6	0xbd715a7d	-0.058924187
7	0x3dc9fc20	0.09862542
8	0x3c8f1460	0.01746577
9	0x3d7f421a	0.0623189
10	0x3db4ce6b	0.088284336
11	0x3cbaac8d	0.022787357
12	0xbd2a3a46	-0.04155948
13	0x3db2aa46	0.08723883
14	0xbdadde68	-0.08489686
15	0x3d1471c9	0.036241326
16	0xbdb2e22c	-0.08734545
17	0xbcdb3b83	-0.026761776
18	0x3cd58b8e	0.026067521
19	0xbb9107e1	-0.004425988
20	0xbdfdb158	-0.12387341
21	0xbd99b8c5	-0.07505945
22	0x3d6b642c	0.05746858
23	0x3d22e26d	0.039766718
24	0x3e4054dd	0.18782373
25	0x3da2507c	0.079255074
26	0x3da970f3	0.082734965
27	0xbdc8d48d	-0.09806166
28	0x3d9daa20	0.076984644
29	0x3db25ffc	0.08709714
30	0xbdc992f1	-0.0984248
31	0xbdc9398f	-0.098254316
32	0xbd94175a	-0.072310165
33	0xbd4851f4	-0.04890628
34	0x3d5191ed	0.051164556
35	0xbceaf740	-0.028682351
36	0x3d3fb571	0.046803895
37	0x3d7e22d0	0.06204492
38	0xbdfe5e04	-0.12420276
39	0x3dea69d7	0.114459686
40	0x3e13711d	0.14398618
41	0xbdd9a685	-0.10627464
42	0xbcddf989	-0.027096527
43	0xbd62c3e9	-0.055362616
44	0xbd858dce	-0.06521188
45	0xbd881bbf	-0.06645917
46	0xbcce0836	-0.0251504
47	0xbc29784c	-0.010343622
48	0xbd8157f8	-0.06315607
49	0xbc142ae8	-0.009043433
50	0xbca79b01	-0.020459654
51	0x3e18da3b	0.14926998
52	0xbdbbb609	-0.0916558
53	0xbd75ee74	-0.06004186
54	0x3d54d650	0.051962197
55	0xbc242fc2	-0.010021152
56	0x3e264617	0.16237675
57	0x3d148b08	0.036265403
58	0x3deb31d0	0.1148411
59	0xbca058ce	-0.019573595
60	0x3e0b9134	0.1362961
61	0x3e092642	0.133935
62	0xbdad4e0f	-0.08462154
63	0x3e08bb81	0.13352777
64	0x3dba494d	0.09096012
65	0x3ab36c80	0.0013688952
66	0x3e042ba9	0.1290728
67	0xbd84623a	-0.06464048
68	0xbdb9bb71	-0.09068955
69	0x3c96383b	0.01833736
70	0x3db0218e	0.0860015
71	0xbdca6506	-0.0988255
72	0x3d2154c1	0.03938747
73	0xbdbcaef1	-0.09213055
74	0x3ddeea2e	0.1088451
75	0x3d1e00d0	0.038574994
76	0x3d9772bf	0.07394933
77	0xbdba8ccd	-0.09108887
78	0x3d792cf8	0.0608339
79	0x3cd7c125	0.026337216
80	0x3d0b38f0	0.033989847
81	0x3c64e879	0.013971441
82	0x3ddf4956	0.109026596
83	0xbd442e6f	-0.047895845
84	0xbdfe10f1	-0.12405575
85	0xbcfbcc8d	-0.030737186
86	0xbd86fc31	-0.065910704
87	0x3d52c0c5	0.05145337
88	0x3cf7d88f	0.03025463
89	0x3c8f040a	0.01745798
90	0x3c3f9571	0.011693344
91	0xbde173c5	-0.110084094
92	0x3e142e37	0.14470755
93	0x3d853691	0.06504548
94	0xbdf2c897	-0.11854666
95	0x3cd95fa6	0.026534867
96	0xbe22556a	-0.15852895
97	0x3c4701b0	0.012146398
98	0x3d500dd0	0.050794423
99	0xbdfdef66	-0.12399177
100	0x3b0492be	0.0020229067
101	0xbb2da6ec	-0.0026497198
102	0xbdc7ff18	-0.09765452
103	0x3e0cf16b	0.13763969
104	0x3cba0e40	0.022711873
105	0x3d4d0e1a	0.050062276
106	0x3dbcaeec	0.09213051
107	0xbd356a48	-0.04429081
108	0x3d049c00	0.032375336
109	0x3e2c8d29	0.16850723
110	0xbdc9a9d3	-0.098468445
111	0xbdaf337c	-0.08554742
112	0x3dfa95da	0.12235613
113	0x3df3732d	0.118872024
114	0xbd4e91a5	-0.050431866
115	0x3d9d68cc	0.07686004
116	0xbd5468dc	-0.051857814
117	0xbdcfee5a	-0.10152884
118	0x3c19df90	0.00939168
119	0x3d1c0434	0.038089946
120	0xbae5e808	-0.0017540464
121	0x3b9f9371	0.0048698713
122	0xbddae7e4	-0.10688761
123	0x3e3e9627	0.18611966
124	0x3e237bba	0.15965167
125	0x3da93b70	0.0826329
126	0xbc20f066	-0.00982294
127	0x3d43db3f	0.04781651
128	0xbdbf0976	-0.093279764
129	0xbcffded0	-0.031234175
130	0x3d546326	0.051852368
131	0xbdce411b	-0.10071012
132	0xbd6f6214	-0.058443144
133	0x3dcd3808	0.10020453
134	0x3dffc85c	0.124893874
135	0xbdfecd35	-0.12441484
136	0x3d65786d	0.05602305
137	0x3d2f8945	0.04285552
138	0x3dcb1160	0.099154234
139	0x3be23971	0.00690382
140	0x3e38176e	0.17977688
141	0xbd08e685	-0.033422966
142	0x3db34c86	0.0875483
143	0x3e06b41e	0.13154647
144	0xbdf1bf7c	-0.11804101
145	0xbdb840b4	-0.08996716
146	0x3d8783f4	0.06616965
147	0x3d9eb19b	0.07748719
148	0xbe1010ed	-0.14068957
149	0xbd09aa2d	-0.033609558
150	0xbd9de90e	-0.07710467
151	0x3c07d350	0.008290127
152	0x3d41fbb4	0.047359183
153	0x3de60a9f	0.112324946
154	0x3dd1d2fd	0.10245321
155	0xbe1c777b	-0.15279953
156	0x3d975cef	0.073907726
157	0x3d814cfb	0.06313511
158	0x3d76a163	0.060212504
159	0x3e1614ba	0.14656344
160	0xbd9c428e	-0.07629882
161	0xbce8ace0	-0.028402746
162	0x3e25b7fe	0.16183469
163	0xbd42d534	-0.047566608
164	0xbc73614e	-0.014854742
165	0xbc931c03	-0.017957693
166	0xbe0ddd6a	-0.13853994
167	0x3d126117	0.035737123
168	0xbd4d3b59	-0.050105426
169	0x3c8b020f	0.016968755
170	0x3d65e62c	0.056127712
171	0x3d3bfe9e	0.04589712
172	0xbdd49ac0	-0.10381079
173	0xbe2184eb	-0.1577336
174	0x3d5c0206	0.053712867
175	0x3e0cebe7	0.13761865
176	0xbde32ad6	-0.11092155
177	0x3da42384	0.080145866
178	0xbdbb9889	-0.09159953
179	0x3d2750d3	0.040848564
180	0x3de6258e	0.11237632
181	0x3e078b72	0.13236788
182	0xbdbb2bfa	-0.09139247
183	0x3d97df2c	0.074156135
184	0x3dfed07f	0.12442111
185	0xbd182ad3	-0.037150215
186	0x3df7fe7a	0.121090844
187	0x3c30665c	0.010766592
188	0x3cd585ff	0.02606487
189	0xbd3511a7	-0.044206288
190	0x3a0421e0	0.0005040448
191	0x3d6ff7a0	0.058585763
192	0x3c232f60	0.009960026
193	0xbd9008fc	-0.07032964
194	0x3ca9941a	0.020700503
195	0x3d7c8f2a	0.06165997
196	0xbdd0fea3	-0.10204818
197	0xbce1885a	-0.027530838
198	0x3d853d9a	0.0650589
199	0xbd2c22ff	-0.042025562
200	0x3d0dbbe8	0.03460303
201	0x3d019a8f	0.03164154
202	0x3ddd39ef	0.108020656
203	0xbd2ede57	-0.04269251
204	0xbda5c1b8	-0.080935895
205	0x3d966987	0.073443465
206	0x3c8f0018	0.0174561
207	0xbc8dfde3	-0.017332977
208	0xbda8baf6	-0.08238785
209	0x3cba0e33	0.022711849
210	0xbdbc36dd	-0.09190152
211	0x3d1b459e	0.03790819
212	0xbcfb5653	-0.030680811
213	0xbe627ba7	-0.22117482
214	0xbdd86ead	-0.10567985
215	0xbe3e60a5	-0.18591554
216	0x3e5a9f02	0.21349719
217	0x3e1dc897	0.1540855
218	0x3ae32a08	0.0017331252
219	0x3da389c5	0.07985262
220	0x3bb054c5	0.005381199
221	0xbd81a21f	-0.0632975
222	0x3d20d1b4	0.03926249
223	0x3da236c1	0.079206
224	0x3d872c75	0.066002764
225	0xb817c000	-3.618002e-05
226	0x3e2a6bf7	0.16642748
227	0x3d9ceb32	0.076620474
228	0x3df849bb	0.12123438
229	0xbe0d7c61	-0.13816978
230	0x3d8589dc	0.06520435
231	0xbd920220	-0.071293116
232	0x3e35fbca	0.17771831
233	0xbd371cb2	-0.0447051
234	0xbd6fb981	-0.05852652
235	0x3de0e42d	0.10981021
236	0xbcd3d660	-0.025859058
237	0xbd39123a	-0.045183398
238	0xbcc66b27	-0.024221016
239	0x3c179e98	0.00925412
240	0x3dc7627e	0.09735583
241	0xbbd3942a	-0.0064568715
242	0x3ddfeb32	0.10933532
243	0x3c58795d	0.013212529
244	0xbc93d712	-0.01804689
245	0x3d2e89e4	0.04261197
246	0xbda8013a	-0.08203359
247	0xbddd44ff	-0.108041756
248	0x3c13b4c4	0.009015266
249	0xbe3f7610	-0.18697381
250	0xbd6ec580	-0.05829382
251	0x3d89fccf	0.067376725
252	0xbc827a93	-0.015927589
253	0xbcee13c9	-0.029062169
254	0xbdccb5f6	-0.09995644
255	0xbc108c35	-0.00882249

net.4.bias f4 [64]
0	0x3d1a3877	0.037651505
1	0x3d762c03	0.060100567
2	0x3dd30b2b	0.103048645
3	0x3df2f2a2	0.11862685
4	0x3e0506cc	0.12990874
5	0x3d8d2277	0.06891339
6	0x3dd8571a	0.10563488
7	0x3de4d5b9	0.11173577
8	0x3b0b5d98	0.0021265503
9	0x3d1636f6	0.03667351
10	0xbd95b0ce	-0.073091134
11	0xbdc466ee	-0.09589945
12	0x3df8dd3b	0.12151571
13	0xbdbea250	-0.093083024
14	0xbda00b12	-0.078146115
15	0xbdeed4c5	-0.11661676
16	0xbdc418ee	-0.095750675
17	0x3ce4c3f0	0.027925462
18	0x3db092b2	0.0862173
19	0xbdd56258	-0.10419148
20	0x3d2d769c	0.042349443
21	0xbdc78bdd	-0.09743474
22	0x3d56c469	0.052433405
23	0x3d6ee24c	0.058321282
24	0xbd12de96	-0.035856806
25	0xbc8ea12c	-0.017410837
26	0x3def8b55	0.11696497
27	0xbd4be714	-0.04978092
28	0x3c1d4d27	0.009600914
29	0xbddf1e89	-0.10894496
30	0x3dc0e06f	0.09417807
31	0x3d909d2c	0.07061228
32	0xbbec85a9	-0.007218082
33	0x3dfcf092	0.12350573
34	0x3e05c36a	0.13062826
35	0x3d8681ac	0.06567702
36	0xbd2e7a89	-0.042597327
37	0xbd0e7e97	-0.034788694
38	0x3e052e85	0.13006027
39	0x3df387a6	0.11891107
40	0xbc8be5cf	-0.017077355
41	0x3dbf4c72	0.09340753
42	0xbda77738	-0.08177036
43	0x3d43db22	0.047816403
44	0x3e0a2cd8	0.13493669
45	0x3cec72e0	0.02886337
46	0xbda97e19	-0.08276004
47	0x3d706d49	0.058697972
48	0x3db13961	0.08653522
49	0x3dcdb85e	0.10044931
50	0xbdaee686	-0.085400626
51	0xbcb7d088	-0.022438303
52	0x3c8ceea1	0.01720363
53	0xbc87452d	-0.016512478
54	0xbabd9910	-0.0014465172
55	0xbcdac02a	-0.02670296
56	0x3d3053ac	0.043048546
57	0x3d997bf2	0.07494344
58	0x3c307127	0.010769165
59	0x3dd5ba17	0.104358844
60	0x3cf0fcc3	0.029417401
61	0x3d3f5dea	0.046720423
62	0x3d31ac13	0.043376993
63	0xbd101522	-0.035176404

net.6.weight f4 [64, 64]
0	0x3cdba840	0.026813626
1	0x3ca12e7e	0.01967549
2	0x3da4319c	0.08017275
3	0xbd089ec8	-0.03335455
4	0xbd706c54	-0.05869706
5	0xbdbfb24c	-0.09360179
6	0xbb88fc74	-0.0041804854
7	0xbd012b13	-0.03153522
8	0x3e094fc2	0.13409331
9	0xbe42714b	-0.1898853
10	0xbd8b4093	-0.06799426
11	0x3da3074a	0.07960375
12	0xbe258d75	-0.16167243
13	0x3dacd8c6	0.08439784
14	0x3ba54d80	0.005044639
15	0xbdd59ddb	-0.10430499
16	0x3cad2560	0.021135986
17	0xbd997228	-0.07492477
18	0x3d80b982	0.06285383
19	0xbde560f0	-0.1120013
20	0x3e472fac	0.19451779
21	0xbdd8f600	-0.10593796
22	0x3d4bece0	0.04978645
23	0xbd7a34bf	-0.06108546
24	0xbd60f8d1	-0.05492479
25	0x3dbb4fd5	0.09146086
26	0x3de2581c	0.11051962
27	0x3d13e109	0.036103282
28	0xbd8b817f	-0.06811809
29	0xbd01439a	-0.03155861
30	0xbd9df65c	-0.07713005
31	0x3dbad3d0	0.09122431
32	0x3d6d3172	0.057908483
33	0x3e08c1d7	0.13355194
34	0x3e399b13	0.18125562
35	0xbd76502f	-0.060135063
36	0x3e1814a3	0.14851622
37	0x3daeebf8	0.08541101
38	0x3d114510	0.035466254
39	0xbdb47ff6	-0.08813469
40	0xbd19b3f9	-0.03752515
41	0x3df28770	0.11842239
42	0x3dbe3a70	0.0928849
43	0x3dc6e1b6	0.0971102
44	0x3d35d1b6	0.04438945
45	0xbc520337	-0.012818149
46	0xbe6d69e1	-0.23184921
47	0xbdc4d30f	-0.09610569
48	0x3c9a709d	0.018852526
49	0x3d3b69b0	0.04575509
50	0x3dc41068	0.09573442
51	0xbdb8a36e	-0.09015547
52	0x3e033b29	0.12815537
53	0x3dd8174e	0.1055132
54	0xbd9cb99d	-0.076525904
55	0xbcc06ded	-0.023489917
56	0xbd0ee3a4	-0.034885064
57	0x3d1af2c8	0.03782919
58	0x3e305ef0	0.17223716
59	0x3d7ee228	0.0622274
60	0x3e00a15b	0.12561552
61	0x3e06b744	0.13155848
62	0x3e03e51c	0.12880367
63	0xbe5e4f59	-0.21709956
64	0xbd408b09	-0.047007594
65	0x3cfe8707	0.031070245
66	0x3bcadb65	0.0061907046
67	0x3d75fed2	0.06005747
68	0x3e65710d	0.22406407
69	0x3e312b0b	0.17301576
70	0xbcbfe90e	-0.023426559
71	0x3d8f1232	0.06985892
72	0x3db27c72	0.08715142
73	0x3ded464d	0.115856744
74	0x3d89a5a4	0.067210466
75	0x3d358c47	0.044323232
76	0x3d6a384d	0.0571826
77	0x3d2815e4	0.0410365
78	0x3dbe9976	0.09306614
79	0x3d5f13f6	0.054462396
80	0xbc4971b0	-0.012295172
81	0xbdb4b273	-0.08823099
82	0x3db903f9	0.09033961
83	0xbc26f8a0	-0.010191113
84	0xbda24fa4	-0.079253465
85	0xbd39d402	-0.045368202
86	0x3e68bd19	0.22728385
87	0xbd2a2fe6	-0.041549586
88	0x3ad462da	0.0016203776
89	0x3de3cccf	0.111230485
90	0x3e184116	0.14868578
91	0xbc54fdc2	-0.012999954
92	0xbe0499c4	-0.12949282
93	0xbd772bfc	-0.06034468
94	0x3d6bc0f8	0.057557076
95	0x3d9687b1	0.073501
96	0xbc76cba5	-0.015063201
97	0x3e13d651	0.14437224
98	0x3da4caf0	0.0804652
99	0xbdf15b97	-0.117850475
100	0x3d066c5e	0.03281819
101	0x3b4aec21	0.0030963498
102	0x3e27d58d	0.16390057
103	0xbcb6c2dd	-0.022309715
104	0xbcedffb0	-0.029052585
105	0xbdf0056e	-0.11719786
106	0xbdd37418	-0.103248775
107	0x3cb39a0b	0.02192404
108	0x3e2378f3	0.15964107
109	0xbdb53bdf	-0.0884931
110	0x3c906ac1	0.01762903
111	0xbdca0963	-0.098650716
112	0xbcfdc993	-0.030979907
113	0xbd47d649	-0.048788343
114	0xbdab6306	-0.083684966
115	0xbdd3cfea	-0.10342391
116	0xbd3c73a7	-0.046008732
117	0xbc8bcbc7	-0.017064942
118	0x3d525fbd	0.051360834
119	0x3d6d1293	0.057879042
120	0xbad70e80	-0.001640752
121	0xbd113331	-0.03544921
122	0xbce59cee	-0.028028931
123	0xbdcdf6c1	-0.1005683
124	0x3dcae3f1	0.099067576
125	0x3e17ff2d	0.14843436
126	0xbdbcb7f4	-0.09214774
127	0xbe1cbcd1	-0.15306403
128	0xbdebd24e	-0.11514722
129	0xbce23d86	-0.027617227
130	0x3cc0f6d7	0.023555202
131	0xbd8f061a	-0.06983586
132	0x3da3d9d2	0.0800053
133	0x3cb7d89d	0.022442156
134	0xbd5a78bb	-0.053337794
135	0xbde37695	-0.11106602
136	0x3dc37131	0.09543074
137	0x3e80c967	0.25153658
138	0x3cceff9a	0.025268365
139	0xbd753664	-0.059866324
140	0x3e45312e	0.19257042
141	0x3d96df38	0.07366794
142	0xbc92f0c0	-0.017937064
143	0x3d915d69	0.07097895
144	0xbdbd2b3e	-0.092367634
145	0xbc54c6d9	-0.012986862
146	0x3e0078e0	0.1254611
147	0xbd9e6668	-0.07734376
148	0xbdea1d02	-0.11431314
149	0xbc28d891	-0.01030554
150	0xbccdfb0d	-0.025144124
151	0x3de17f56	0.110106155
152	0x3daba83e	0.08381699
153	0xbe1d7f8b	-0.15380685
154	0xbe0fe2bf	-0.1405134
155	0xbc08f60d	-0.008359444
156	0xbc31738b	-0.01083077
157	0xbd931804	-0.07182315
158	0xbddd5873	-0.10807886
159	0x3d92f953	0.07176461
160	0x3cde8d87	0.027167095
161	0x3d995fa5	0.07488946
162	0xba9a8b71	-0.0011790824
163	0xbda69c17	-0.081352405
164	0x3cbfcf13	0.02341417
165	0x3d237723	0.03990854
166	0xbd2cfb64	-0.042231932
167	0x3e03d40b	0.12873857
168	0x3d85281a	0.065017894
169	0x3b6eb972	0.0036426452
170	0x3d4a58e8	0.049401194
171	0x3d88cad3	0.06679311
172	0xbdb51232	-0.08841361
173	0x3d8d4d69	0.068995304
174	0xbd9a3b23	-0.07530811
175	0x3d3a1683	0.045431625
176	0x3d3c3e47	0.04595783
177	0x3e016e30	0.1263969
178	0xbdf343a5	-0.118781365
179	0x3d35e7e8	0.044410616
180	0xbe0e3a0a	-0.13889328
181	0x3d96fe94	0.07372776
182	0x3d48d23e	0.049028628
183	0xbccfeeda	-0.025382448
184	0x3d173ad0	0.036921322
185	0x3e0f9437	0.14021383
186	0x3dad2925	0.08455113
187	0xbdb1fa02	-0.08690263
188	0xbcdec624	-0.02719409
189	0x3de7c753	0.11317315
190	0xbcb4653f	-0.022020934
191	0x3d9e24ff	0.077219
192	0xbadb7e29	-0.0016745973
193	0xbd551f7d	-0.052031983
194	0xbd33835c	-0.043826446
195	0x3b3644b1	0.002781194
196	0x3db518d6	0.08842628
197	0xbd2c305c	-0.042038307
198	0xbd283aa8	-0.041071564
199	0x3c95239f	0.018205462
200	0xbd6596b7	-0.056051936
201	0x3dce2363	0.10065343
202	0x3dc0945c	0.09403297
203	0x3bac13c0	0.005251378
204	0xbda58c30	-0.08083379
205	0x3d0f4ab4	0.03498335
206	0x3dd919e2	0.1060064
207	0x3d0f4dd1	0.03498632
208	0x3d569bc0	0.05239463
209	0xbd87811e	-0.06616424
210	0xbe0a29bd	-0.13492484
211	0xbd4086b4	-0.047003463
212	0x3b82e660	0.003994748
213	0x3dd6b873	0.104844
214	0x3ca5ee07	0.020255102
215	0xbcbbb848	-0.02291502
216	0xbd2c5693	-0.04207475
217	0xbcfdc2b5	-0.030976633
218	0xbd94d570	-0.072672725
219	0xbd6ec5a1	-0.058293942
220	0x3c3ee01c	0.0116501115
221	0x3dad5dc2	0.084651485
222	0x3dcdfe5e	0.10058282
223	0x3d306c99	0.043072317
224	0xbdb0e388	-0.08637148
225	0x3dd778d2	0.105210915
226	0x3dec7760	0.115462065
227	0xbd30e165	-0.043183703
228	0xbc1d7b6e	-0.009611947
229	0x3de7bb0a	0.11314972
230	0xbd5b51b2	-0.053544708
231	0x3d42b792	0.047538348
232	0x3c18012d	0.009277624
233	0x3d79f196	0.06102141
234	0x3d326344	0.0435517
235	0x3de84efb	0.11343189
236	0x3dcb0965	0.09913901
237	0xbdc14127	-0.09436255
238	0x3d8d525b	0.06900474
239	0xbd1c636a	-0.038180746
240	0xbd938d97	-0.072047405
241	0x3c48cf6a	0.012256483
242	0xbc8b6118	-0.017014071
243	0xbda6d3f6	-0.08145897
244	0xbdf3727e	-0.11887072
245	0xbd8eabf2	-0.0696639
246	0x3ad25c20	0.0016049184
247	0x3d86339d	0.06552813
248	0x3d96d9d4	0.07365766
249	0x3ce86287	0.028367294
250	0x3de68dbc	0.112575024
251	0xbdf0e1fa	-0.117618516
252	0xbdb6e583	-0.08930495
253	0x3d46f39b	0.048572164
254	0xbdfb16e6	-0.12260227
255	0x3de4b894	0.11168018

net.6.bias f4 [64]
0	0xbd0b6035	-0.034027297
1	0x3df688fd	0.12037847
2	0xbd861fcb	-0.06549033
3	0xbdc7f1f4	-0.09762946
4	0x3de05929	0.10954506
5	0xbd40efac	-0.04710357
6	0xbdc2f93f	-0.09520196
7	0xbd93ab83	-0.07210448
8	0x3df9eac1	0.12202979
9	0xbc8f3678	-0.017482027
10	0xbdc6cd09	-0.09707076
11	0x3c426a0b	0.011866103
12	0xbd799640	-0.060934305
13	0xbdbc9a37	-0.09209102
14	0xbd7a8bc0	-0.061168432
15	0x3df2330b	0.11826142
16	0x3d90ff5f	0.07079958
17	0x3dc89384	0.097937614
18	0x3c895c0d	0.016767526
19	0xbd37adf7	-0.04484364
20	0xbd176765	-0.03696384
21	0xbdbdf126	-0.09274511
22	0xbd8986b5	-0.067151465
23	0xbdc005d4	-0.093761116
24	0x3c2f97eb	0.010717372
25	0x3d9a40a1	0.07531858
26	0x3dd89e7a	0.10577102
27	0xbce62fd0	-0.02809897
28	0x3a821709	0.0009925078
29	0xbc2a3bc0	-0.010390222
30	0x3d60d57d	0.0548911
31	0xb86d8c7a	-5.6636032e-05
32	0xbc8c1cba	-0.017103542
33	0xbc73114c	-0.014835667
34	0xbdd3eb14	-0.10347572
35	0xbdc526b8	-0.09626526
36	0xbd26631d	-0.040621866
37	0x3cc8e9e8	0.024525598
38	0xbda0ca78	-0.07851118
39	0x3d9f1615	0.07767884
40	0xbd91b958	-0.0711543
41	0x3e1ef113	0.1552165
42	0xbde23df0	-0.1104697
43	0x3d967168	0.07345849
44	0xbd7186c7	-0.058966424
45	0xbd465e9d	-0.048430074
46	0xbe0e6b64	-0.13908154
47	0xbdc431df	-0.09579825
48	0xbdfb7b52	-0.12279381
49	0x3c37d8be	0.011221109
50	0x3e083358	0.13300836
51	0x3dc4911b	0.09597989
52	0x3db611e9	0.08890135
53	0x3cf06ba9	0.029348211
54	0xbd3693fb	-0.04457472
55	0xbd476680	-0.048681736
56	0xbd1817bc	-0.03713201
57	0xbdf2377c	-0.11826989
58	0x3da5dccf	0.080987565
59	0xbd183208	-0.03715709
60	0xbd6df670	-0.05809635
61	0x3d34ed7c	0.044171795
62	0x3a08d354	0.00052194786
63	0x3d8c33eb	0.0684584

net.8.weight f4 [64, 64]
0	0x3c697588	0.014249213
1	0x3dcb88f6	0.099382326
2	0xbdd4cb55	-0.10390345
3	0x3d0815bc	0.033223853
4	0x3e1411fc	0.14459985
5	0xbbeaf8c0	-0.0071707666
6	0xbd5e4f61	-0.05427492
7	0xbd9c360b	-0.076274954
8	0x3e1f48df	0.15555142
9	0xbdefaf2e	-0.11703335
10	0xbbaaa362	-0.005207465
11	0x3e2da7af	0.16958497
12	0xbdc71e3a	-0.09722562
13	0x3dec12d9	0.115270324
14	0x3c46e450	0.012139395
15	0xbd6e227a	-0.05813835
16	0x3ca6e093	0.020370757
17	0x3d631930	0.055443943
18	0x3df85976	0.12126438
19	0xbda207e3	-0.079116605
20	0x3db5944e	0.088661775
21	0xbd6c401e	-0.057678334
22	0x3e3d5252	0.18488434
23	0x3db735c1	0.089457996
24	0xbd6f206c	-0.05838053
25	0x3dadb7cb	0.08482321
26	0xbd71606c	-0.058929846
27	0x3db14bdc	0.08657047
28	0xbbb756c0	-0.005595058
29	0xbd95cf20	-0.073148966
30	0x3db033d7	0.08603638
31	0x3ddfc423	0.10926082
32	0x3e2dd7d7	0.16976868
33	0x3de88073	0.11352625
34	0xbdafbe4d	-0.08581219
35	0x3d02cf40	0.03193593
36	0x3ca41fcd	0.020034695
37	0x3e23c449	0.15992846
38	0x3d520e58	0.05128321
39	0x3e290126	0.16504344
40	0xbb16bbd8	-0.0023000147
41	0xbe2f9c56	-0.17149481
42	0xbda3ea0e	-0.08003627
43	0x3e33aa7c	0.17545503
44	0x3e3bd342	0.18342307
45	0x3d810a1e	0.06300758
46	0xbd95d677	-0.073162965
47	0x3e12de0d	0.14342518
48	0x3d7bcc26	0.061473988
49	0xbd6e2129	-0.058137093
50	0xbd9e01c1	-0.07715178
51	0x3dca2e4e	0.09872113
52	0xbcaf22f9	-0.021378981
53	0x3d6b5a35	0.057459075
54	0x3d89fa38	0.067371786
55	0xbd38481c	-0.044990644
56	0x3da88180	0.08227825
57	0x3e2f226b	0.17102973
58	0x3ca26c74	0.019827105
59	0xbde521a0	-0.11188054
60	0x3d0b6b55	0.034037907
61	0x3e0b5630	0.13607097
62	0x3ddb2282	0.10699941
63	0x3c2da157	0.010597548
64	0x3db3c7dd	0.08778355
65	0x3d9392cc	0.07205734
66	0xbcfbeba6	-0.030752014
67	0x3daf9410	0.085731626
68	0x3d742d29	0.05961338
69	0xbc985290	-0.018594056
70	0xbd6d8bf7	-0.05799481
71	0xbd83faa4	-0.0644429
72	0xbde786ed	-0.11305032
73	0xbd990292	-0.074711934
74	0x3cb8e2aa	0.02256902
75	0x3d8ed680	0.069745064
76	0xbd12ce04	-0.035841003
77	0xbc295ed0	-0.0103375465
78	0x3db12fae	0.08651672
79	0xbd045a23	-0.032312524
80	0xbdd6e37f	-0.1049261
81	0x3de0134a	0.10941179
82	0x3da74f38	0.08169407
83	0x3c8a06a7	0.016848875
84	0x3d857c4d	0.06517849
85	0xbdd6467e	-0.10462664
86	0x3d8e21c5	0.06940035
87	0xbd943a7a	-0.07237716
88	0xbc1e6a4d	-0.009668899
89	0xbdc2d4f3	-0.09513273
90	0x3dff6321	0.12470079
91	0x3dee3714	0.11631599
92	0xbd9a2f4d	-0.07528553
93	0x3d663ae0	0.05620849
94	0x3c91e383	0.017808681
95	0xbcffc974	-0.03122399
96	0x3dc34aaf	0.09535729
97	0x3e009016	0.12554964
98	0xbdbda451	-0.092598565
99	0xbd533090	-0.051559985
100	0xbd4ff33e	-0.050769083
101	0xbc44d549	-0.012013742
102	0x3d8359a6	0.064135835
103	0x3de41389	0.111365385
104	0xbd8f4736	-0.06996004
105	0x3c9965be	0.018725272
106	0x3ba33500	0.0049806833
107	0xbc946c51	-0.018118056
108	0xbc68a00f	-0.014198317
109	0xbe09f460	-0.13472128
110	0xbe16334b	-0.14668004
111	0x3d9b348c	0.07578382
112	0xbd939342	-0.072058216
113	0xbc9a7667	-0.018855287
114	0xbd61f44c	-0.05516462
115	0xbd03c671	-0.03217167
116	0xbd409773	-0.047019433
117	0x3c7f3cae	0.015578432
118	0xbdded6f8	-0.10880846
119	0x3c469d60	0.012122482
120	0xbde29850	-0.110642076
121	0xbdcd9d26	-0.10039739
122	0xbdcbf2af	-0.099583976
123	0xbc5a2490	-0.013314381
124	0xbd3cac3f	-0.046062704
125	0x3d909de6	0.07061367
126	0x3c13e370	0.009026393
127	0x3d13625f	0.035982486
128	0x3d4ba8ae	0.049721412
129	0x3d80acf9	0.06282992
130	0xbd6523b8	-0.055942267
131	0xbd1ae6a8	-0.037817627
132	0x3d9d2493	0.076729916
133	0x3d92d8e2	0.07170273
134	0x3ccc0ed7	0.02490942
135	0x3d78831b	0.060671907
136	0xbd84233b	-0.06452032
137	0xbd1892b0	-0.037249267
138	0xbd8d62e7	-0.0690363
139	0xbdb0bb26	-0.08629446
140	0x3ddccf48	0.10781723
141	0xbdf8352d	-0.121195175
142	0x3cc20590	0.023684293
143	0x3e3feb7d	0.18742175
144	0xbd4a4bcf	-0.049388703
145	0x3da4e6dd	0.08051846
146	0xbdf50875	-0.11964504
147	0xbd6b2a5a	-0.057413436
148	0xbdc01e0d	-0.09380732
149	0x3d1ad466	0.037800215
150	0xbc241767	-0.010015345
151	0x3ddd3557	0.108011894
152	0xbc9be166	-0.019028377
153	0xbdd26e5b	-0.10274955
154	0xbdb18b4c	-0.08669147
155	0x3cdb4ed4	0.026770987
156	0x3e1a0683	0.15041547
157	0xbdc0a33a	-0.09406133
158	0xbd3a0215	-0.04541214
159	0xbdc633ba	-0.09677835
160	0x3ca3436b	0.019929608
161	0xbb557e52	-0.0032576513
162	0x3e11772b	0.14205615
163	0x3c8175d0	0.015803248
164	0xbdde2301	-0.1084652
165	0xbdac1993	-0.084033154
166	0xbdffe0aa	-0.12494023
167	0xbe12044a	-0.14259449
168	0x3d8d013b	0.06885
169	0x3e2478e9	0.16061749
170	0x3df3ae9c	0.118985385
171	0x3d9fad20	0.07796693
172	0x3b23d6a5	0.0024999764
173	0x3d52cd7a	0.05146549
174	0x3dbea7b8	0.093093336
175	0xbdf8aac3	-0.12141945
176	0xbd883993	-0.066516064
177	0xbe2bc1a3	-0.16773085
178	0x3e33a8fc	0.17544931
179	0x3d651f22	0.055937894
180	0x3d501f04	0.05081083
181	0xbd0a8bfe	-0.033824913
182	0x3daf2277	0.085514955
183	0x3d6fa6c4	0.05850865
184	0xbc79f840	-0.015256941
185	0xbcaf0454	-0.021364368
186	0x3e340b29	0.17582382
187	0xbc86aba8	-0.016439274
188	0x3da3d86e	0.08000265
189	0x3d5ad2c5	0.05342366
190	0xbd4ab2db	-0.049486976
191	0xbda724bd	-0.08161304
192	0xbda92349	-0.08258683
193	0x3de41bfa	0.111381486
194	0x3db81f4f	0.08990347
195	0xbd70b448	-0.05876568
196	0xbdd47d3e	-0.103754506
197	0x3d911872	0.07084741
198	0xbd91b7f6	-0.07115166
199	0xbe2cc53d	-0.16872115
200	0x3d11762c	0.035513088
201	0xbc4bc7b0	-0.012437746
202	0x3ceee36c	0.029161178
203	0xbced38f7	-0.028957827
204	0xbd9dd5d4	-0.077068
205	0xbcb92f50	-0.022605568
206	0xbdb7d4ce	-0.08976136
207	0x3dc2827b	0.094975434
208	0x3d8944f9	0.067026086
209	0x3dafeace	0.08589707
210	0xbe16d939	-0.14731301
211	0xbdc3bac4	-0.09557107
212	0xbdff45cd	-0.12464485
213	0xbdd44740	-0.10365152
214	0xbe3177e0	-0.17330885
215	0xbdd59054	-0.10427919
216	0x3daf60df	0.085633986
217	0xbd30024d	-0.042970944
218	0x3d5a4402	0.053287514
219	0x3d1a5368	0.0376772
220	0x3d71bf85	0.059020538
221	0x3d663110	0.056199133
222	0xbd9727f1	-0.07380665
223	0x3d657e4b	0.056028645
224	0xbd57b0b1	-0.05265874
225	0xbdd09279	-0.101841874
226	0x3e0e1847	0.13876449
227	0xbdd4d962	-0.10393025
228	0xbdeaa1fd	-0.11456678
229	0x3d9f860a	0.07789238
230	0x3d4679d8	0.048456043
231	0xbdd90a43	-0.105976604
232	0xbc23ab30	-0.009989545
233	0x3c69e1e4	0.014275048
234	0x3d503264	0.050829306
235	0xbd02cc0a	-0.031932868
236	0x3c3105cf	0.0108046075
237	0x3c95d967	0.018292142
238	0xbdc25e67	-0.09490662
239	0xbe1dd0e0	-0.1541171
240	0xbd2d9d05	-0.042386074
241	0xbde32194	-0.11090389
242	0xbd34a076	-0.04409834
243	0x3e160828	0.14651549
244	0x3d8b50c9	0.06802518
245	0x3d9b9f6b	0.07598766
246	0xbd8875cd	-0.06663094
247	0xbc722c70	-0.014781103
248	0xbdc72fc2	-0.09725906
249	0xbdc1e626	-0.094677255
250	0x3e1394a0	0.14412165
251	0x3c806150	0.015671402
252	0x3d675487	0.056477096
253	0xbdcb8ebe	-0.09939335
254	0x3d52f000	0.051498413
255	0x3d131656	0.035909973

net.8.bias f4 [64]
0	0x3d103941	0.03521085
1	0xbce84982	-0.028355364
2	0x3dee7205	0.11642841
3	0xbd1152ee	-0.03547948
4	0xbc90120d	-0.017586732
5	0x3dd2667c	0.102734536
6	0xbdcacd0a	-0.09902389
7	0x3d2a738d	0.041614104
8	0x3d8e7630	0.06956136
9	0xbc722459	-0.014779174
10	0x3e0734b9	0.13203706
11	0xbdf49ba4	-0.119437486
12	0xbcaa9be1	-0.020826282
13	0xbda01cac	-0.07817969
14	0x3da164cd	0.07880554
15	0x3e0dc884	0.13846022
16	0xbde17338	-0.11008304
17	0xbcddfed8	-0.027099058
18	0xbdbd9400	-0.092567444
19	0xbd04fe77	-0.03246924
20	0x3d00b3f4	0.031421617
21	0x3d23d66d	0.039999414
22	0xbd4de367	-0.050265696
23	0xbdc73cb8	-0.09728378
24	0xbd846280	-0.064641
25	0xbc31b663	-0.010846707
26	0xbdd2d422	-0.102943674
27	0xbdd1ded5	-0.1024758
28	0xbde634fc	-0.11240575
29	0x3df7c3ab	0.120978676
30	0x3db1589c	0.08659479
31	0xbd802d52	-0.06258644
32	0x3d310c36	0.043224536
33	0xbd04f995	-0.032464582
34	0xbd971783	-0.073775314
35	0x3d9a610b	0.07538041
36	0xbdac31ae	-0.08407913
37	0x3c3235b4	0.010877062
38	0x3dcb37a0	0.09922719
39	0xbde9f24b	-0.11423167
40	0x3dcefd63	0.101069234
41	0x3d45e7a5	0.048316617
42	0x3d5ac178	0.053407162
43	0x3c8c7f5f	0.017150579
44	0xbd472848	-0.0486224
45	0xbd31c39a	-0.04339943
46	0xbdf772cd	-0.120824434
47	0xbdf98bf2	-0.121848956
48	0x3cf905d3	0.030398285
49	0x3d6ba171	0.05752701
50	0xbdd2c209	-0.102909155
51	0x3e021643	0.12703805
52	0xbdb6ea78	-0.0893144
53	0xbbc7bc4e	-0.0060954457
54	0xbc923dd7	-0.017851753
55	0x3dd58d2f	0.10427319
56	0xbc651519	-0.013982081
57	0x3d2a860b	0.04163174
58	0x3d250b92	0.040294237
59	0x3d59ac6e	0.053142957
60	0xbd993711	-0.07481206
61	0xbd8dc6fe	-0.069227204
62	0x3c080d86	0.0083040055
63	0xbdfc8100	-0.12329292

net.10.weight f4 [14, 64]
0	0xbd5f8293	-0.054567885
1	0xbe17dbd3	-0.1482995
2	0x3d753909	0.059868846
3	0x3d39f45c	0.045399055
4	0xbe01bf45	-0.1267062
5	0x3dab48e0	0.08363509
6	0x3d51e420	0.051242948
7	0xbd74713c	-0.0596783
8	0xbc58b1ab	-0.013225953
9	0x3daea1a3	0.085269235
10	0xbdb08d08	-0.086206496
11	0x3d0d013d	0.03442501
12	0x3d1bf2fc	0.038073525
13	0xbdb03ac0	-0.08604956
14	0xbd821087	-0.063508086
15	0xbda48cd6	-0.08034675
16	0xbd9ad6bc	-0.075604886
17	0x3dfc6d7e	0.123255715
18	0x3d123204	0.03569223
19	0xbc757632	-0.014981793
20	0xbca05d08	-0.01957561
21	0xbcf507f5	-0.02991102
22	0x3d6f052e	0.05835455
23	0x3e2bb984	0.16769987
24	0xbdc6586c	-0.09684834
25	0xbe1fe467	-0.15614472
26	0x3d389bd0	0.04507047
27	0xbd9cf09a	-0.076630786
28	0xbafeb46d	-0.0019432433
29	0xbc86af1b	-0.016440919
30	0x3da6b2d1	0.08139575
31	0xbd8862ba	-0.066594556
32	0x3dce5c5c	0.1007621
33	0x3d94ba7f	0.07262134
34	0x3d0c1995	0.034204084
35	0xbd42c452	-0.047550507
36	0xbc401d30	-0.011725709
37	0xbe0361c7	-0.12830268
38	0xbd46fdc3	-0.04858185
39	0x3dccdfb4	0.100036055
40	0x3dfc1a28	0.123096764
41	0xbdbd5aeb	-0.09245857
42	0xbd29b816	-0.041435324
43	0x3d24ddda	0.040250637
44	0x3d9c34e8	0.076272786
45	0x3e057466	0.13032684
46	0x3e5565ab	0.20839565
47	0x3dd44f26	0.10366659
48	0xbd56642d	-0.05234163
49	0xbc2c4e60	-0.010516733
50	0x3db6e8c3	0.089311145
51	0xbde3bbe6	-0.11119823
52	0xbdf7e96e	-0.1210507
53	0x3df6cba8	0.12050563
54	0x3ddcc390	0.10779488
55	0x3d033bf5	0.0320396
56	0x3dd99c9d	0.10625575
57	0x3d444567	0.04791775
58	0x3c8e1b60	0.017347038
59	0xbce0766e	-0.027400222
60	0x3d0c860f	0.034307536
61	0xbd329428	-0.043598324
62	0x3e2afe37	0.16698538
63	0x3dd83b78	0.10558218
64	0xbd0b538d	-0.034015227
65	0x3ca71fb4	0.02040086
66	0xbc9563b9	-0.018236028
67	0x3d9a2933	0.075273894
68	0xbded32a0	-0.115819216
69	0x3c7770a2	0.015102537
70	0xbc1d8910	-0.009615198
71	0x3db67f8c	0.089110464
72	0x3ca79dce	0.02046099
73	0x3cc81962	0.024426166
74	0xbdfbd03c	-0.12295577
75	0xbd867086	-0.06564431
76	0x3de9a85c	0.11409065
77	0xbbe9aa2a	-0.007130881
78	0x3d277564	0.040883437
79	0xbe016790	-0.12637162
80	0x3d4377b5	0.047721583
81	0xbc9d54c4	-0.019205458
82	0xbc522630	-0.012826487
83	0x3de29654	0.11063829
84	0x3dabf99f	0.08397221
85	0xbe1fe2d4	-0.15613872
86	0xbdb36c19	-0.08760852
87	0x3e277edb	0.16356985
88	0xbcc4af0b	-0.024009248
89	0x3dd0fca0	0.102044344
90	0x3d525c54	0.051357582
91	0xbc6fd74f	-0.014638736
92	0xbd8bd3d5	-0.06827513
93	0x3b99abf9	0.00468969
94	0x3daccf74	0.08438006
95	0x3dc48ae9	0.095968075
96	0xbdc47087	-0.095917754
97	0xbcf18cb8	-0.029486045
98	0xbc4ac430	-0.012375876
99	0xbddc33ba	-0.107520536
100	0x3c88d060	0.016700923
101	0x3d1dbc95	0.038509924
102	0x3dc583f3	0.09644308
103	0xbc385291	-0.011250154
104	0x3dff4a5f	0.12465357
105	0x3dec9fdd	0.11553929
106	0xbdb2c81c	-0.08729574
107	0x3d665122	0.056229718
108	0x3d92bb44	0.07164624
109	0xbb9d831a	-0.0048068883
110	0xbd2c92c2	-0.042132147
111	0x3cda58f0	0.026653737
112	0x3d060029	0.032714996
113	0xbdddea30	-0.10835683
114	0xbdc9ba64	-0.09850004
115	0xbdc82e6a	-0.09774478
116	0xbdc42c72	-0.0957879
117	0x3e024ab5	0.12723811
118	0xbd15cd39	-0.03657267
119	0xbbf10521	-0.0073553477
120	0xbd0f357c	-0.034963116
121	0xbd861758	-0.06547421
122	0x3dc1dd4a	0.09466036
123	0xbd378951	-0.04480869
124	0x3db8e043	0.090271495
125	0xbd6c9a1c	-0.057764158
126	0x3e2002cb	0.15626065
127	0x3d016690	0.03159195
128	0xbcdb4cda	-0.026770044
129	0xbc8837c0	-0.016628146
130	0x3d1ece3d	0.038770903
131	0xbd7ed105	-0.062211055
132	0xbd2bf501	-0.0419817
133	0xbdb9da9a	-0.09074898
134	0xbdabb13c	-0.08383414
135	0x3d1c0a33	0.038095664
136	0xbc98c5ab	-0.018648943
137	0xbd83a16c	-0.06427273
138	0x3d0a5d01	0.0337801
139	0x3d8b94b6	0.06815474
140	0x3defefc2	0.11715652
141	0xbd77a4ee	-0.060460024
142	0x3d60d860	0.05489385
143	0x3d41379d	0.047172178
144	0xbd777c0f	-0.060421046
145	0xba3d9ea0	-0.0007233415
146	0x3c661c10	0.014044777
147	0x3d891ac2	0.06694557
148	0x3def851d	0.11695311
149	0x3dfdf1dd	0.123996474
150	0x3dbb7f64	0.09155157
151	0xbe35c160	-0.17749548
152	0xbdffdeff	-0.12493705
153	0x3d14fa08	0.03637126
154	0xbd9d0e24	-0.07668713
155	0x3b23fc4f	0.0025022214
156	0x3d965e77	0.073422365
157	0x3d971b5f	0.073782675
158	0x3b9895a2	0.0046565095
159	0x3ca1de85	0.019759426
160	0x3d793389	0.060840163
161	0x3be97d22	0.0071255127
162	0x3e30d9a3	0.17270522
163	0xbd842b9e	-0.06453632
164	0x3dded8fe	0.10881232
165	0xbbd33b30	-0.0064462647
166	0x3e1bc3b3	0.15211372
167	0xbd569b7e	-0.052394383
168	0x3d5fdc2e	0.05465334
169	0xbd9d4239	-0.076786466
170	0xbd8ee3ea	-0.06977065
171	0x3d9ddf8a	0.07708652
172	0x3d30fb6c	0.043208525
173	0x3dde98df	0.108690016
174	0xbca46728	-0.02006872
175	0xbd57fff8	-0.052734345
176	0xbd8f479d	-0.06996081
177	0x3dfa6fd2	0.12228359
178	0xbd6bebc9	-0.05759791
179	0xbd7f87b3	-0.062385272
180	0xbdbd1460	-0.09232402
181	0xbdd06f15	-0.10177437
182	0xbd8ac344	-0.06775525
183	0xbddb3695	-0.1070377
184	0x3ddc415b	0.10754653
185	0x3ca69094	0.020332612
186	0x3d52f5e2	0.051504023
187	0xbd6c0f92	-0.057632037
188	0xbd58202e	-0.052765064
189	0x3dae7f96	0.08520429
190	0xbd37e2db	-0.04489408
191	0x3dceafbe	0.10092114
192	0xbd2d9486	-0.04237797
193	0xbd7e3d88	-0.0620704
194	0xbda4fca1	-0.08055998
195	0xbe011370	-0.12605071
196	0x3cea3009	0.028587358
197	0xbd8c1cd0	-0.06841433
198	0xbd8c5a6c	-0.06853184
199	0xbd4bdb4e	-0.049769692
200	0xbdca05a7	-0.09864359
201	0xbdc0a6ec	-0.09406838
202	0xbdc1a80e	-0.09455882
203	0x3e000894	0.12503272
204	0x3b9a8bc2	0.0047163675
205	0xbd70d645	-0.058798093
206	0xbaeb06e1	-0.0017931127
207	0x3d6a867d	0.057257164
208	0xbd86409f	-0.06555294
209	0x3d8e40f2	0.06945981
210	0xbcbec888	-0.02328898
211	0xbddb147b	-0.10697266
212	0x3d6c55d1	0.05769903
213	0x3cfa54cf	0.030558018
214	0x3d85255f	0.065012686
215	0x3e61a0ca	0.22033992
216	0x3cfd2a5c	0.030903988
217	0x3c7aeb75	0.015314926
218	0xbdbf1e68	-0.093319714
219	0x3ded1236	0.11575739
220	0xbd8c34ef	-0.06846034
221	0x3da7052c	0.08155283
222	0xbdb58786	-0.0886374
223	0xbdb7d2ff	-0.08975791
224	0x3d03f0e7	0.032212164
225	0x3db0dbf1	0.086357005
226	0xbda4d291	-0.08047975
227	0x39c3962a	0.0003730518
228	0xbddf2336	-0.10895388
229	0xbb2c118e	-0.002625558
230	0x3dbdbab2	0.09264125
231	0x3de88c91	0.11354936
232	0xbd061aa7	-0.03274026
233	0x3d7e7bb7	0.062129702
234	0x3dba7e2c	0.091060966
235	0x3d86390d	0.0655385
236	0x3cbbb690	0.022914201
237	0xbdd746db	-0.105115615
238	0x3dae4f01	0.085111625
239	0x3d08b130	0.033372104
240	0xbd811163	-0.063021444
241	0x3d6b1ae4	0.05739869
242	0xbd9e28cc	-0.07722625
243	0x3dd99b67	0.10625344
244	0xbbce1ee0	-0.0062903017
245	0x3dbe0211	0.09277738
246	0xbc81b698	-0.015834138
247	0xbd73e858	-0.059547752
248	0x3dcc8bf2	0.0998763
249	0x3d773de5	0.06036176
250	0x3e036648	0.12831986
251	0x3d177a83	0.03698207
252	0xbc8f3699	-0.017482089
253	0xbd965522	-0.073404565
254	0xbc69baef	-0.01426576
255	0x3c01c8e0	0.0079214275

net.10.bias f4 [14]
0	0xbdb72b99	-0.089438625
1	0x3d1b6969	0.037942324
2	0xbcd57357	-0.026055975
3	0xbd513910	-0.05107981
4	0xbe016bd3	-0.12638788
5	0xbcf60d88	-0.03003575
6	0x3dac65a7	0.08417826
7	0x3d416cf4	0.047223046
8	0xbdb2c84a	-0.08729608
9	0xbdc93ed3	-0.09826436
10	0x3d735b2f	0.05941313
11	0xbccfee4a	-0.02538218
12	0xbdbd4194	-0.09241024
13	0xbd47aa6a	-0.048746504
