case1_best_model.pth (torch, 62850 bytes, 12 tensors)

net.0.weight f4 [16, 6]
0	0x3ec6e281	0.38844684
1	0x3ecf2926	0.4046108
2	0xbe186911	-0.1488383
3	0x3ed1647d	0.4089698
4	0xbe0e48ba	-0.1389493
5	0xbba9664d	-0.005169666
6	0xbe432ea0	-0.19060755
7	0x3e83b2d3	0.2572237
8	0x3e87833b	0.26467308
9	0xbf31818a	-0.69338286
10	0x3e723ea0	0.23656702
11	0x3d20275d	0.03910004
12	0x3edc2ac4	0.43001378
13	0x3d994345	0.07483534
14	0x3e74e1f0	0.23914313
15	0x3c7a0ba4	0.015261564
16	0x3e8511f1	0.2599025
17	0xbdcf9cfa	-0.10137363
18	0xbeb522a7	-0.35378
19	0x3c2e5c2b	0.010642092
20	0xbe8c025f	-0.2734556
21	0x3c24a03e	0.01004797
22	0xbe1b22ca	-0.1514999
23	0x3ed8a966	0.4231674
24	0xbe94aa1a	-0.29036027
25	0xbe8110cf	-0.25208136
26	0xbcd90741	-0.026492717
27	0xbe21cb37	-0.15800177
28	0xbcea82b1	-0.028626772
29	0xbf060d2b	-0.5236384
30	0x3ec41d82	0.38303763
31	0xbeeb5d0a	-0.4596942
32	0x3ec69b27	0.38790247
33	0x3e99cbf7	0.30038425
34	0xbe1302da	-0.14356557
35	0x3e5ea4f9	0.2174262
36	0x3de5199e	0.11186527
37	0x3eaa41ff	0.33253476
38	0x3c4550e7	0.012043214
39	0xbe55ed7f	-0.20891379
40	0x3d38c244	0.04510714
41	0xbe8c8d34	-0.2745148
42	0x3dfc5e79	0.12322707
43	0x3ed5be04	0.41746533
44	0x3e3c2b64	0.18375927
45	0xbea9213c	-0.33033168
46	0x3e49083e	0.1963205
47	0x3d2948e0	0.041329265
48	0x3ddc8cc9	0.1076904
49	0xbea10e0b	-0.31456026
50	0xbeef213b	-0.4670504
51	0xbe3c7efd	-0.18407817
52	0xbe9493c8	-0.29018998
53	0x3ebeff04	0.37303936
54	0x3e0a285c	0.13491958
55	0x3e15f63d	0.14644714
56	0x3d152438	0.036411494
57	0x3dc9ef0b	0.09860047
58	0x3eaa1287	0.3321726
59	0xbee225b8	-0.44169402
60	0x3e097aae	0.13425705
61	0xbe9c34ff	-0.30509183
62	0x3e1d83b6	0.15382275
63	0xbe3d0206	-0.18457803
64	0x3ddfe788	0.10932833
65	0xbdb2d92c	-0.087328285
66	0x3ed83214	0.42225707
67	0xbe63f4ca	-0.22261348
68	0xbe4bc692	-0.19899967
69	0xbe9f02ba	-0.31056768
70	0x3ed57f7f	0.41698834
71	0x3e1a7bf1	0.15086342
72	0x3ee971c0	0.45594597
73	0xbe914ae2	-0.28377444
74	0xbec5aeef	-0.38610026
75	0xbeaebb2f	-0.34127185
76	0xbe88fe65	-0.26756588
77	0x3e3fc3cb	0.18727033
78	0x3e4497de	0.19198558
79	0x3eb418cb	0.35175166
80	0xbe90a04e	-0.28247303
81	0xbec4cc2c	-0.3843702
82	0x3e1d903d	0.15387054
83	0xbe84fd72	-0.25974613
84	0x3e939f7a	0.28832608
85	0xbdba6238	-0.09100765
86	0x3e2fdf70	0.17175078
87	0xbec8722e	-0.39149612
88	0xbe914dd3	-0.28379688
89	0xbc1edd39	-0.009696298
90	0x3e19f89c	0.15036243
91	0xbdc486ec	-0.09596047
92	0x3e53e4d3	0.20692758
93	0x3ea18a3f	0.31550786
94	0xbe782131	-0.24231412
95	0xbecd9ed9	-0.40160254

net.0.bias f4 [16]
0	0x3ed2b241	0.41151622
1	0xbd1717b7	-0.03688785
2	0xbd85ca8f	-0.065327756
3	0xbe4ec264	-0.20191342
4	0xbe78c9d3	-0.2429574
5	0x3e85ae07	0.26109335
6	0x3dcc5e4f	0.099789254
7	0xbe891611	-0.26774648
8	0x3dcf50d2	0.10122837
9	0xbe5b6ad6	-0.21427473
10	0xbea79242	-0.32728773
11	0xbdc2984b	-0.09501704
12	0xbeae6836	-0.34063882
13	0xbe6cc067	-0.2312027
14	0x3f117dfe	0.56832874
15	0x3dd3397e	0.103137

net.2.weight f4 [64, 16]
0	0x3dc21d32	0.09478225
1	0xbe1c25af	-0.1524875
2	0xbd3e747b	-0.046497803
3	0x3d9ef12e	0.07760845
4	0x3d6ffc4b	0.058590215
5	0xbe74e563	-0.23915629
6	0xbde08f41	-0.109648235
7	0x3e0a1457	0.13484322
8	0x3e3158d0	0.17319036
9	0xbe529420	-0.20564318
10	0xbd3aa13c	-0.04556392
11	0x3d88472f	0.06654202
12	0xbe00043b	-0.12501614
13	0xbe3668dd	-0.1781344
14	0xbd04d5c9	-0.032430444
15	0xbe4b116b	-0.19830863
16	0x3e907b8f	0.28219268
17	0xbe334ba1	-0.17509319
18	0x3e91bc3e	0.2846393
19	0xbd87f471	-0.066384204
20	0xbe6b7db6	-0.22997174
21	0x3e5fa16e	0.21838924
22	0xbd9df248	-0.07712227
23	0xbdb1ace8	-0.086755574
24	0xbe53f834	-0.2070015
25	0xbe7ad642	-0.24495795
26	0xbd2891d4	-0.041154698
27	0xbd03e76a	-0.032203116
28	0x3e1d1f7b	0.1534404
29	0xbe6a2e1e	-0.22869155
30	0x3e74856a	0.23879018
31	0xbe06b7b5	-0.13156016
32	0xbcef50d2	-0.029213343
33	0x3e052ebe	0.13006112
34	0x3d6a7ac9	0.057246003
35	0x3e1f734b	0.15571325
36	0x3e38188a	0.17978111
37	0xbebbb297	-0.3665969
38	0x3e15afcb	0.14617841
39	0xbdacbe21	-0.08434702
40	0xbdcdac19	-0.10042591
41	0xbe3c8127	-0.18408643
42	0x3e15d603	0.1463242
43	0xbe4c2932	-0.1993759
44	0x3db0b341	0.0862794
45	0x3e2221cd	0.15833206
46	0x3dcaf6a5	0.09910325
47	0xbe553ead	-0.2082469
48	0x3e88a4e1	0.26688293
49	0x3d9a4d7e	0.07534312
50	0x3c8ee51c	0.017443232
51	0xbe099cd3	-0.1343873
52	0x3e0a2ac0	0.1349287
53	0xbd9de48f	-0.0770961
54	0xbd5770a9	-0.052597675
55	0x3e830549	0.2558997
56	0x3d108e59	0.035292003
57	0xbdf29b12	-0.118459836
58	0xbe4fe185	-0.20300873
59	0xbd3ec2a2	-0.046572335
60	0x3e5dd440	0.21662998
61	0xbca227c6	-0.019794356
62	0xbdf1d015	-0.118072666
63	0xbdc31a20	-0.09526467
64	0xbe6deb7d	-0.23234363
65	0x3e16c222	0.14722493
66	0x3e859d51	0.26096585
67	0xbe59117e	-0.21198079
68	0x3e5b0d85	0.21391876
69	0x3e15a399	0.14613189
70	0x3bc5ef7c	0.0060405117
71	0xbe0ee2e1	-0.13953735
72	0x3de8b66b	0.113629185
73	0x3e06c988	0.13162816
74	0x3e835b18	0.25655437
75	0xbd309d6c	-0.04311888
76	0xbdeda9aa	-0.116046265
77	0xbd3cc024	-0.046081677
78	0xbc7e0a25	-0.015505348
79	0xbde999fc	-0.11406323
80	0x3e3b2224	0.18274742
81	0x3e9c5c2b	0.3053907
82	0xbd4e045a	-0.05029712
83	0x3be9a3e0	0.007130131
84	0xbcb50c33	-0.022100544
85	0xbddc55d3	-0.10758557
86	0x3e020c0b	0.12699907
87	0x3e14d627	0.14534818
88	0xbe36ea37	-0.17862783
89	0xbdb6bcb1	-0.08922709
90	0x3e0687db	0.13137762
91	0x3dafa8d0	0.0857712
92	0x3d5f7a33	0.054559898
93	0xbdb65edd	-0.089048125
94	0xbe17da57	-0.14829384
95	0xbe901bd8	-0.28146243
96	0xbded4b5d	-0.1158664
97	0x3e4883e5	0.19581564
98	0x3e127d32	0.1430557
99	0x3d53831a	0.0516387
100	0xbe82e21a	-0.25563127
101	0xbe49f497	-0.1972221
102	0x3b387773	0.002814737
103	0x3ea3b4b6	0.3197381
104	0xbcba3360	-0.022729576
105	0xbdbb72e1	-0.09152771
106	0x3da9b62f	0.08286702
107	0xbe163840	-0.14669895
108	0xbe2c79c8	-0.16843331
109	0x3e79e803	0.24404912
110	0xbd96b0d7	-0.07357948
111	0xbe5c228c	-0.21497554
112	0xbea20f4d	-0.316523
113	0x3e7c1168	0.24616015
114	0x3e4961f1	0.19666268
115	0x3e6301df	0.22168683
116	0xbd9e6fe7	-0.077361874
117	0xbea1a137	-0.3156831
118	0xbe56de65	-0.20983274
119	0x3e3eaf88	0.18621647
120	0x3e661cbe	0.22471902
121	0x3e8b6fab	0.27233633
122	0x3e040bc4	0.12895113
123	0x3e052f52	0.13006333
124	0x3d1b4c9f	0.03791487
125	0xbe125b97	-0.14292751
126	0xbe312cdd	-0.1730227
127	0xbe407e7b	-0.18798248
128	0x3e2e6a23	0.17032675
129	0xbe417633	-0.18892746
130	0xbcd5622c	-0.026047789
131	0x3d04566f	0.032308992
132	0xbd15574c	-0.036460206
133	0xbe3e9ee7	-0.18615304
134	0xbe323a62	-0.17405084
135	0x3dd739f2	0.10509099
136	0x3d5cde95	0.05392321
137	0x3e01408c	0.12622279
138	0xbd91f4d6	-0.07126777
139	0xbda91b19	-0.082571216
140	0xbdfd37d7	-0.12364166
141	0xbe1a7971	-0.15085389
142	0xbdef154a	-0.116739824
143	0xbde3743c	-0.11106154
144	0x3e6a3826	0.22872981
145	0xbe948f9d	-0.29015818
146	0x3e2e1d44	0.17003351
147	0x3d72a528	0.059239537
148	0x3e5111cc	0.20416945
149	0xbe3a7cdd	-0.18211694
150	0x3e7cfcfb	0.2470588
151	0xbdef7435	-0.116920866
152	0x3d4c85db	0.049932342
153	0x3e9cec92	0.3064924
154	0xbd283644	-0.041067377
155	0x3b022415	0.0019857932
156	0xbdbba504	-0.091623336
157	0xbe23cc39	-0.15995874
158	0x3e06c1f7	0.13159929
159	0xbe606733	-0.21914367
160	0x3e70b74e	0.23507425
161	0x3dd02380	0.10163021
162	0x3e821822	0.25409037
163	0xbd75c895	-0.060005743
164	0xbe577128	-0.2103926
165	0x3d377f5a	0.044799186
166	0x3e3dd4a7	0.18538152
167	0xbe76490f	-0.24051307
168	0x3d9ea20f	0.07745754
169	0xbd51eafc	-0.05124949
170	0xbc191c1b	-0.00934508
171	0xbe351904	-0.17685324
172	0xbe256b2c	-0.16154164
173	0xbcfcc7fd	-0.03085708
174	0xbe8597eb	-0.26092467
175	0x3e83622d	0.2566084
176	0x3e8fd586	0.28092593
177	0xbdb8a165	-0.090151586
178	0xbda9cdd1	-0.082912095
179	0x3d94bd30	0.07262647
180	0xbe6ca394	-0.23109275
181	0xbd6a0d8b	-0.05714182
182	0x3de27370	0.11057174
183	0xbe06afaa	-0.13152948
184	0xbd2951d8	-0.041337818
185	0xbb361876	-0.0027785576
186	0xbdb04605	-0.08607105
187	0xbd00acda	-0.031414844
188	0x3da6ab87	0.08138185
189	0xbd5c3876	-0.053764783
190	0xbe51aeea	-0.2047688
191	0xbd23a861	-0.0399555
192	0xbe2bb53a	-0.16768351
193	0x3e7861f3	0.24256115
194	0xbdd4a9ab	-0.10383924
195	0xbd45efe7	-0.04832449
196	0xbd5650bd	-0.05232309
197	0xbcce4e39	-0.025183784
198	0x3e99182f	0.29901263
199	0x3e0a42a1	0.1350198
200	0xbe312cb6	-0.17302212
201	0x3e0e746b	0.13911597
202	0x3e0eccc2	0.13945296
203	0x3d974054	0.073853165
204	0x3e62919c	0.22125858
205	0x3ea5601e	0.32299894
206	0x3bfa56ce	0.0076397425
207	0x3d4753fd	0.04866408
208	0xbe09cc1e	-0.13456771
209	0xbb9bc774	-0.0047540013
210	0x3dcf2902	0.101152435
211	0x3e4d0611	0.20021845
212	0xbe0aa52b	-0.13539569
213	0xbe32e1cf	-0.17468952
214	0xbe7146d7	-0.2356218
215	0xbe881c46	-0.2658407
216	0xbdd9d315	-0.10635964
217	0xbdf424a7	-0.119210534
218	0x3e21cb6e	0.15800259
219	0x3c62d363	0.013844344
220	0xbe5d11de	-0.21588847
221	0xbe527484	-0.2055226
222	0x3e3bd53f	0.18343066
223	0xbb61232f	-0.0034353246
224	0xbd2804bf	-0.04102015
225	0x3e1dd730	0.15414119
226	0xbd05fa75	-0.032709558
227	0xbc47b2e9	-0.012188652
228	0x3e15a49d	0.14613576
229	0xbd7186ee	-0.05896657
230	0x3d3b1352	0.045672722
231	0xbe1404d3	-0.14454965
232	0xbef75985	-0.48310485
233	0xbce4be5c	-0.027922802
234	0x3ea7cb52	0.3277231
235	0xbe4b609f	-0.19861077
236	0xbe86a8c4	-0.26300633
237	0x3d2a5a20	0.041589856
238	0x3dfb587b	0.12272736
239	0x3e359f9a	0.17736664
240	0x3e81a24d	0.25319138
241	0x3e1fa45c	0.15590042
242	0xbe8482f8	-0.2588117
243	0xbdf5d965	-0.12004355
244	0x3e3b3847	0.18283187
245	0xbcd02c20	-0.025411665
246	0xbdc9d35f	-0.09854769
247	0x3e727786	0.23678407
248	0xbd855a28	-0.065113366
249	0xbda8a3a3	-0.08234336
250	0xbe4d72af	-0.2006328
251	0xbd1e1d8b	-0.038602393
252	0x3dea1012	0.114288464
253	0x3ddecdc7	0.10879093
254	0x3dc5a112	0.09649862
255	0xbe0951af	-0.13410066

net.2.bias f4 [64]
0	0x3dab89b3	0.083758734
1	0x3e8900b1	0.2675834
2	0xbe237f88	-0.15966618
3	0xbe30f40a	-0.17280594
4	0x3e17197d	0.14755817
5	0x3cc1d3e5	0.02366061
6	0x3da50412	0.08057417
7	0xbdee0d22	-0.11623599
8	0x3e109f69	0.1412331
9	0xbd51a39b	-0.051181417
10	0xbd646443	-0.05575968
11	0xbe3f02e3	-0.18653445
12	0x3e25d2f0	0.16193748
13	0x3e38a305	0.18030937
14	0xbe5250a2	-0.20538571
15	0x3e8e6a89	0.27815655
16	0x3df2dade	0.11858152
17	0x3e317e05	0.17333229
18	0xbd976087	-0.07391458
19	0x3def7802	0.116928115
20	0x3e94c9df	0.29060265
21	0x3e79410f	0.24341224
22	0xbd564c16	-0.052318655
23	0x3e6c74a4	0.2309137
24	0x3d9fa0ed	0.07794366
25	0x3e210379	0.15723981
26	0x3e59d3f5	0.21272261
27	0x3e63c84e	0.22244379
28	0xbe0d23c5	-0.13783176
29	0x3e78662b	0.24257724
30	0xbe2dde68	-0.16979373
31	0x3d3e8df2	0.04652209
32	0xbd3e5255	-0.046465237
33	0xbd0e8114	-0.034791067
34	0x3d90c158	0.070681274
35	0x3d3297f6	0.043601952
36	0x3d6a885a	0.05725894
37	0x3c89dcfb	0.016829005
38	0x3ea567d2	0.3230577
39	0x3e4e50d8	0.20148027
40	0x3e3af89a	0.18258896
41	0x3e4b810f	0.1987345
42	0x3e776c0b	0.24162309
43	0x3cf0a959	0.029377626
44	0x3d8b57a6	0.06803827
45	0x3e5a0bd2	0.21293572
46	0xbe323a01	-0.17404939
47	0xbdf3d225	-0.11905316
48	0x3da72502	0.081613556
49	0xbd7d7b03	-0.06188489
50	0xbc405eb1	-0.011741326
51	0x3c8859f3	0.016644454
52	0x3de54635	0.111950316
53	0x3e7bea4b	0.24601094
54	0xbdbc2cd1	-0.091882356
55	0x3e7bbf77	0.24584757
56	0x3e9ef038	0.31042647
57	0xbe4e5060	-0.20147848
58	0xbd6f1793	-0.05837209
59	0xbe43665d	-0.19082017
60	0xbdd2fa4f	-0.10301649
61	0xbd0d8abb	-0.03455613
62	0x3cfbc79a	0.030734826
63	0x3d352b73	0.04423089

net.4.weight f4 [64, 64]
0	0xbe748c8f	-0.23881744
1	0xbd8154ad	-0.06314979
2	0xbe8edb53	-0.27901706
3	0x3dc7ec19	0.09761829
4	0xbd6f622f	-0.058443245
5	0xbdb3d51b	-0.08780881
6	0x3dadfab3	0.08495083
7	0x3ddc6f93	0.107634686
8	0xbe0ebc65	-0.13939054
9	0x3dbfef95	0.093718685
10	0x3e2b2845	0.1671458
11	0xbe415f29	-0.18883957
12	0x3e01c876	0.12674126
13	0xbda75830	-0.08171117
14	0x3dd808d2	0.10548557
15	0x3e0b177d	0.13583179
16	0x3df7e1d1	0.12103618
17	0x3ce5535c	0.02799385
18	0x3da93cda	0.0826356
19	0xbdf9f403	-0.12204745
20	0xbcf061ad	-0.02934345
21	0x3d6f5c76	0.058437787
22	0x3d93358e	0.07187949
23	0xbd325e11	-0.04354674
24	0x3d81b98a	0.06334217
25	0xbd9c4afc	-0.0763149
26	0x3e174fdc	0.14776558
27	0x3e26458f	0.16237472
28	0x3dc07252	0.09396805
29	0xbc8de654	-0.017321743
30	0x3d792cf8	0.0608339
31	0x3cc44cfc	0.02396249
32	0x3c528553	0.01284917
33	0x3d90a640	0.0706296
34	0x3ddaa09a	0.106751636
35	0xbc95c853	-0.018283999
36	0xbd8ac36b	-0.06775554
37	0xbca1acab	-0.019735655
38	0x3d67798a	0.056512393
39	0x3e096a45	0.13419445
40	0xbd9e1160	-0.07718158
41	0xbd21346f	-0.039356645
42	0x3d7cb3a3	0.061694752
43	0xbe13a0c3	-0.14416794
44	0x3dd259ab	0.10271009
45	0xbdc8c75f	-0.09803652
46	0xbe2e462e	-0.17018959
47	0x3ba58e59	0.0050523696
48	0xbca7077c	-0.020389311
49	0x3e1c59c3	0.15268616
50	0x3c473b74	0.012160171
51	0xbc2bc3b4	-0.010483671
52	0xbc067c11	-0.008208291
53	0xbc2a0fd7	-0.010379753
54	0xbc533744	-0.012891594
55	0x3daedfb1	0.085387595
56	0xbd321da2	-0.04348529
57	0xbd620e73	-0.05518956
58	0x3d38c001	0.045104984
59	0xbda2b881	-0.079453476
60	0x3d82477c	0.06361291
61	0x3e44c8ea	0.19217268
62	0xbcec8893	-0.028873717
63	0xbe8bbbb0	-0.27291632
64	0x3d3f1f8b	0.04666094
65	0x3dfa6917	0.122270755
66	0x3e0c136a	0.13679281
67	0x3d656ea7	0.05601373
68	0xbd847008	-0.06466681
69	0xbd7f37be	-0.06230902
70	0x3e155b82	0.14585689
71	0x3c8c9241	0.017159583
72	0xbc78d764	-0.015188072
73	0xbd28c1c8	-0.04120043
74	0xbe117950	-0.14206433
75	0xbe7bfb51	-0.24607588
76	0x3e1dbb7e	0.15403554
77	0xbe079ce6	-0.13243446
78	0xbc9905c2	-0.018679503
79	0x3d924b96	0.07143323
80	0xbdf24c26	-0.118309304
81	0xbd703d87	-0.058652427
82	0x3debe78a	0.11518772
83	0xbe5cdd6b	-0.21568839
84	0xbe07aff9	-0.13250722
85	0x3df9022b	0.12158617
86	0x3d83824d	0.06421337
87	0xbda67ea0	-0.081296206
88	0x3dd0b3bc	0.101905316
89	0x3d556370	0.052096784
90	0x3e0dc8ec	0.13846177
91	0x3dbc1497	0.09183615
92	0x3e83c213	0.25734004
93	0x3ce4a467	0.027910424
94	0x3db34c86	0.0875483
95	0x3e0e421f	0.1389241
96	0xbefe95f0	-0.49723768
97	0xbe08b997	-0.13352047
98	0xbc568e81	-0.013095499
99	0x3de227eb	0.1104277
100	0xbdbcc5ff	-0.09217452
101	0xbd9be1df	-0.07611441
102	0x3c0803f2	0.008301722
103	0x3da10b6c	0.07863507
104	0xbc417b87	-0.011809236
105	0xbd8d7ad8	-0.06908196
106	0x3dc56668	0.09638673
107	0x3d758570	0.05994171
108	0xbcde02e6	-0.027100991
109	0xbe552279	-0.20813932
110	0x3d1ca449	0.038242612
111	0x3e7c6956	0.24649557
112	0x3d4a872b	0.049445312
113	0xbce3194e	-0.027722027
114	0x3def5fcb	0.11688193
115	0xbe390aed	-0.18070574
116	0xbd93f358	-0.072241485
117	0xbce3a394	-0.027787961
118	0x3bbaa120	0.005695477
119	0x3d4faa50	0.050699532
120	0xbdd7c0e9	-0.105348416
121	0xbb9c51a0	-0.0047704726
122	0xbdf56317	-0.119817905
123	0x3dd321e6	0.103092
124	0xbdb6d148	-0.08926636
125	0xbe013a2b	-0.12619846
126	0x3daf90fa	0.08572574
127	0x3e30702c	0.1723029
128	0xbd667d78	-0.056272
129	0x3d9414b4	0.07230511
130	0xbe435230	-0.19074321
131	0x3c7bb549	0.015363046
132	0x3e18637c	0.148817
133	0x3ddde719	0.10835094
134	0xbd964c8d	-0.0733882
135	0x3d209ff4	0.039215043
136	0x3d9d2a03	0.07674029
137	0x3d5e2fd1	0.05424482
138	0x3e4ca6a5	0.19985445
139	0xbdc57e19	-0.09643192
140	0x3955d7ff	0.00020393728
141	0xbe502653	-0.2032712
142	0x3e1e91c6	0.15485296
143	0x3d8a79d2	0.06761517
144	0xbbff60db	-0.0077935285
145	0xbd57d02d	-0.052688766
146	0xbd3e91e6	-0.04652586
147	0x3b02f798	0.0019984003
148	0xbe0c235c	-0.13685364
149	0x3d342119	0.043976877
150	0x3ce70daf	0.028204767
151	0x3cb5017b	0.022095433
152	0x3d5ad087	0.053421523
153	0x3dc25b53	0.09490075
154	0x3df708b6	0.12062208
155	0x3d24c53e	0.040227167
156	0x3d280ca3	0.041027676
157	0x3e1c1163	0.15241008
158	0x3c8f0018	0.0174561
159	0xbc759618	-0.014989398
160	0xbe5d5e14	-0.21617919
161	0x3db55e54	0.08855882
162	0xbe276adb	-0.16349356
163	0x3d74df5e	0.059783332
164	0x3d6d748c	0.057972476
165	0xbe043dcc	-0.12914199
166	0xbd887988	-0.06663805
167	0xbd91c4b9	-0.071176
168	0x3ddf1c6f	0.10894095
169	0x3d16ca23	0.036813866
170	0xbcf093bc	-0.02936732
171	0x3daf4fd5	0.085601486
172	0xbcd419d4	-0.025891222
173	0xbe5d853e	-0.21632859
174	0x3d22d56f	0.039754327
175	0x3db0021b	0.085941516
176	0x3e24a2b8	0.16077697
177	0x3d4b058e	0.049565844
178	0x3e07f037	0.13275228
179	0x3e15b838	0.14621055
180	0x3dacca06	0.084369704
181	0xbe025c4d	-0.12730522
182	0x3e378bda	0.17924443
183	0xbd6943f5	-0.056949575
184	0x3d72a9bc	0.059243903
185	0xbd90ed40	-0.07076502
186	0xbdaf8c3b	-0.08571669
187	0x3da784be	0.081796154
188	0xbc84d3ad	-0.016214216
189	0xbd8fecc7	-0.070275836
190	0xbca63b11	-0.020291837
191	0x3d6f094c	0.058358476
192	0xbdd4860f	-0.10377132
193	0xbd091f2e	-0.033477
194	0xbdcb500d	-0.09927378
195	0xbdeec12e	-0.1165794
196	0xbd0801e8	-0.033204943
197	0xbe0c7dbb	-0.13719837
198	0xbe2b0dc5	-0.16704471
199	0xbc632aa4	-0.013865147
200	0xbe4a654e	-0.19765207
201	0xbde45a39	-0.11150021
202	0x3d5ab21e	0.053392522
203	0xbe8ae3a3	-0.27126798
204	0xbd86c70d	-0.06580935
205	0xbe127273	-0.14301471
206	0x3e0d0dcd	0.13774796
207	0xbca895b3	-0.020579195
208	0xbd7cd4e5	-0.06172647
209	0x3cc48eef	0.023993937
210	0x3d55b7d3	0.05217726
211	0xbd089842	-0.03334833
212	0x3d0007e4	0.031257525
213	0xbc91e5ab	-0.01780971
214	0xbcf95365	-0.030435273
215	0x3d1689f4	0.036752656
216	0xbe15e70a	-0.14638916
217	0x3d904335	0.07044069
218	0x3cf118db	0.029430797
219	0x3de361b1	0.111026175
220	0x3e10ba24	0.14133507
221	0x3e1244c4	0.14284045
222	0xbb8706c0	-0.0041206777
223	0xbe149aaa	-0.14512125
224	0xbd21eb6e	-0.039531164
225	0x3ce54b9c	0.027990155
226	0xbc08512e	-0.008320136
227	0xbd0af2b1	-0.033922855
228	0xbe64de1c	-0.22350353
229	0xbde1b818	-0.11021441
230	0x3e28be36	0.1647881
231	0x3ddd4697	0.108044796
232	0xbb99a208	-0.004688505
233	0x3deadfe1	0.11468483
234	0xbdbad2af	-0.09122216
235	0xbe4aec08	-0.19816601
236	0x3de65920	0.11247468
237	0xbe05454e	-0.13014719
238	0xbe147d89	-0.14501013
239	0x3d98c0b0	0.07458627
240	0xbcce13bf	-0.0251559
241	0x3e00c3ce	0.12574694
242	0x3d457722	0.048209317
243	0xbda36c39	-0.07979626
244	0xbe261513	-0.16218977
245	0xbe0527d5	-0.13003476
246	0x3dce5859	0.10075445
247	0xbc4bf993	-0.01244964
248	0xbe548fca	-0.20757976
249	0xbe21ae45	-0.15789135
250	0x3d3ea053	0.046539616
251	0xbd982816	-0.07429521
252	0x3e0e3aaf	0.13889574
253	0x3e7cd69c	0.24691242
254	0x3d971d02	0.0737858
255	0xbe77843e	-0.2417154

net.4.bias f4 [64]
0	0x3dcfee08	0.10152823
1	0x3dd161f6	0.10223763
2	0xbd2f9189	-0.042863403
3	0xbc5725d4	-0.0131315775
4	0x3bca4d4e	0.006173766
5	0xbde13d11	-0.109979756
6	0x3c8039ba	0.015652526
7	0xbb83f618	-0.0040271394
8	0x3dd4e325	0.10394887
9	0x3db7b06d	0.089691974
10	0x3bb0c115	0.005394111
11	0x3e11d47d	0.14241214
12	0x3dac711e	0.08420013
13	0x3db76dd0	0.08956492
14	0x3d396c08	0.045269042
15	0x3c1138c0	0.008863628
16	0x3cd22bcb	0.025655648
17	0x3d674219	0.05645952
18	0x3dbb7c41	0.09154559
19	0xbdbdff7f	-0.09277248
20	0xbc474c18	-0.012164138
21	0xbdae12e5	-0.084996976
22	0xbb987531	-0.004652642
23	0x3d7b6ab1	0.061381046
24	0x3dfeba5e	0.124378905
25	0xbdab38b4	-0.08360425
26	0x3c071413	0.008244532
27	0x3ddcd5ff	0.10783004
28	0xbce1e1ef	-0.027573554
29	0x3e24d33f	0.16096209
30	0x3d6758c1	0.056481127
31	0xbdaef0c0	-0.08542013
32	0x3dc6d6c4	0.09708932
33	0xbdd7ec5b	-0.10543128
34	0x3d77e20f	0.06051832
35	0xbd8213a9	-0.06351406
36	0x3e1cf025	0.15325983
37	0xbbf8620d	-0.007580048
38	0x3e064d20	0.13115358
39	0xbdc4a7a2	-0.09602286
40	0xbda8e269	-0.08246309
41	0x3d8eebb8	0.069785535
42	0x3deb991e	0.11503814
43	0xbc04e1fd	-0.00811052
44	0xbde3190b	-0.11088761
45	0x3ca3c1f0	0.019989938
46	0xbd6866ae	-0.056738548
47	0x3da0bf1f	0.078489535
48	0x3d9b3327	0.07578116
49	0x3e169d91	0.14708544
50	0x3e1465c8	0.14491951
51	0xbd6caf00	-0.05778408
52	0x3de5569d	0.11198161
53	0x3e10cf93	0.14141683
54	0x3d4ffc7f	0.05077791
55	0xbdccc438	-0.09998363
56	0xbd94d2dd	-0.072667815
57	0x3dace030	0.08441198
58	0x3dd09844	0.10185292
59	0x3dc29fea	0.095031574
60	0x3d15b00d	0.03654485
61	0xbd49eccd	-0.049298096
62	0xbd8feec2	-0.07027961
63	0xbd15acb2	-0.03654165

net.6.weight f4 [64, 64]
0	0x3d5aacc1	0.053387407
1	0x3d9605bb	0.07325312
2	0x3e0ad94f	0.13559459
3	0x3e1aabae	0.15104553
4	0x3a84fb37	0.0010145669
5	0x3e3354b9	0.17512788
6	0xbd408fbe	-0.047012083
7	0x3cdb9b27	0.02680738
8	0x3a3e15be	0.00072511646
9	0x3c1607c9	0.00915713
10	0x3e2e97aa	0.17050043
11	0x3d15eeed	0.03660481
12	0x3e2f3ffb	0.1711425
13	0x3ca83771	0.020534249
14	0x3e0ad256	0.135568
15	0xbe17e852	-0.14834717
16	0xbcdbaafa	-0.026814926
17	0xbe0cb56b	-0.1374108
18	0x3d87e1a6	0.06634836
19	0xbc772a19	-0.01508572
20	0x3dd05dd5	0.10174147
21	0x3e1aaf6a	0.15105978
22	0xbe0c0d99	-0.13677062
23	0xbd56ffff	-0.05249023
24	0x3d70fb43	0.05883337
25	0xbc9a948b	-0.018869659
26	0x3da8265d	0.08210442
27	0x3d82992d	0.06376872
28	0x3d628914	0.05530651
29	0x3df130a5	0.11776856
30	0x3da24171	0.07922638
31	0x3dcdff0f	0.10058414
32	0x3d668734	0.056281283
33	0xbde04634	-0.1095089
34	0x3dd37353	0.10324731
35	0xbc94839f	-0.018129168
36	0xbe3bee2d	-0.18352576
37	0x3d8630ce	0.065522775
38	0x3db73cc0	0.08947134
39	0xbd66ab57	-0.056315746
40	0x3d6232ca	0.055224217
41	0x3dd94fa0	0.106108904
42	0x3dd1e49b	0.10248681
43	0x3db4431f	0.08801865
44	0xbe50bb73	-0.20384006
45	0xbe5a22c8	-0.2130233
46	0x3c8e3209	0.017357843
47	0x3d6691ce	0.056291394
48	0xbdc504c9	-0.09620053
49	0x3e18f63d	0.14937682
50	0xbb9f1e0a	-0.004855876
51	0xbdb86a30	-0.09004629
52	0x3de3c18d	0.11120901
53	0x3cb3ee5a	0.02196424
54	0x3dc00762	0.09376408
55	0xbd006540	-0.03134656
56	0x3c999169	0.018746095
57	0xbd78c1d8	-0.06073174
58	0xbdf6886f	-0.120377414
59	0x3d591106	0.05299475
60	0x3e1a4fca	0.150695
61	0xbe13ac37	-0.14421163
62	0x3cae8af6	0.021306496
63	0xbc4a854e	-0.012360884
64	0xbdc66a1a	-0.09688206
65	0xbd3c4320	-0.045962453
66	0xbdab6306	-0.083684966
67	0xbdd3cfea	-0.10342391
68	0xbd1d27c4	-0.038368
69	0xbc8be988	-0.01707913
70	0x3d7ee8a8	0.062233597
71	0x3d6b65d0	0.057470143
72	0xbad70e80	-0.001640752
73	0xbce9e1a0	-0.02854997
74	0xbcd98bd0	-0.026555926
75	0xbdd2463a	-0.10267301
76	0x3db1f4dc	0.08689281
77	0x3de5a264	0.11212614
78	0xbdeb5c70	-0.114922404
79	0xbdf46ec2	-0.11935188
80	0xbdefdd6c	-0.11712155
81	0xbca527c8	-0.02016057
82	0xb99e4000	-0.00030183792
83	0xbda72854	-0.08161989
84	0x3d8d75b0	0.06907213
85	0x3c06df70	0.008231983
86	0xbd819472	-0.06327142
87	0xbdf7a7a8	-0.12092525
88	0x3dc759aa	0.09733899
89	0x3dfde874	0.123978525
90	0x3c3e2830	0.011606261
91	0xbd753664	-0.059866324
92	0x3da2c184	0.079470664
93	0x3d96df38	0.07366794
94	0xbc92f0c0	-0.017937064
95	0x3df01138	0.11722034
96	0xbdbd2b3e	-0.092367634
97	0xbc6ab1f0	-0.01432465
98	0x3dd8f336	0.10593264
99	0xbd9e6668	-0.07734376
100	0xbd1deec8	-0.038557798
101	0xbd59ae14	-0.05314453
102	0xbd5198a8	-0.051170975
103	0x3de17f56	0.110106155
104	0x3d9dc9b2	0.07704486
105	0xbde8bbfa	-0.11363979
106	0xbd9c934e	-0.07645284
107	0xbad5cc80	-0.0016311556
108	0xbd2679e0	-0.040643573
109	0xbd8cfb14	-0.06883827
110	0xbdfba2f8	-0.12286943
111	0x3dbcce6e	0.09219061
112	0x3d8f54be	0.06998585
113	0x3d148f4c	0.03626947
114	0xbce67278	-0.028130755
115	0xbdf8256c	-0.12116513
116	0xbc003720	-0.007825643
117	0x3d43bc7c	0.047787175
118	0xbd149794	-0.03627737
119	0x3dc9822a	0.0983928
120	0x3cea0740	0.02856791
121	0xbbcb3e00	-0.0062024593
122	0x3d4a58e8	0.049401194
123	0x3d8568b2	0.0651411
124	0xbdbbc42a	-0.09168275
125	0x3d1bb318	0.038012594
126	0xbde8ad2e	-0.113611564
127	0xbcd69240	-0.026192784
128	0xbd3dc883	-0.0463338
129	0x3e1f4eda	0.15557423
130	0xbe045406	-0.12922677
131	0x3e38f1f9	0.18061055
132	0xbe334f67	-0.17510758
133	0xbddd2e57	-0.10799854
134	0x3ddeac6e	0.10872732
135	0xbe24bbd7	-0.1608728
136	0x3dc2cc6e	0.09511648
137	0x3dc11415	0.094276585
138	0x3d9900ae	0.07470833
139	0xbde0f963	-0.10985067
140	0x3d5f827a	0.05456779
141	0x3d18d245	0.037309904
142	0x3ca2a6aa	0.019854862
143	0xbc8a4c3b	-0.016882053
144	0x3e631a08	0.22177899
145	0xbdcd07a7	-0.10011225
146	0x3c6a9e55	0.014319976
147	0xbd99aaeb	-0.07503303
148	0x3e20bda8	0.15697348
149	0xbb163339	-0.0022918715
150	0xbddd1f41	-0.10796977
151	0xbc76167f	-0.015020012
152	0xbdc86094	-0.09784046
153	0x3e5e71fb	0.21723168
154	0x3e074181	0.13208582
155	0x3d95c236	0.073124334
156	0xbd5b7e14	-0.053587034
157	0x3d96e9ea	0.07368834
158	0x3dcc2346	0.099676654
159	0x3d5cf486	0.053944133
160	0x3e001a11	0.12509944
161	0xbe0323b8	-0.12806594
162	0xbe47385a	-0.1945509
163	0xbbd63f36	-0.006538297
164	0x3c1df264	0.00964031
165	0x3d7b3209	0.061327014
166	0x3d36aa9a	0.044596292
167	0xbc8eb75f	-0.017421423
168	0x3d38c43a	0.04510901
169	0xbc2b6cd2	-0.0104629565
170	0xbd203fd2	-0.039123364
171	0x3d3bb698	0.04582843
172	0x3ca34c87	0.019933952
173	0x3c25718f	0.010097875
174	0x3e2e1241	0.16999151
175	0x3ddded17	0.10836237
176	0xbe4f8890	-0.20266938
177	0x3dd91bd8	0.10601014
178	0x3d14f8c1	0.036370043
179	0xbd18274c	-0.03714685
180	0x3c3af060	0.011409849
181	0x3e36a3a1	0.17835857
182	0xbce506e1	-0.027957382
183	0x3dc74fe4	0.09732035
184	0xbe756933	-0.23965912
185	0x3d5606c2	0.05225254
186	0x3e1c7eb6	0.15282711
187	0x3e49e90c	0.19717807
188	0x3dfa1479	0.12210936
189	0xbd77d0b7	-0.06050178
190	0x3dd70cb7	0.10500472
191	0x3e448b46	0.19193754
192	0xbd067787	-0.032828834
193	0x3d5fc028	0.054626614
194	0x3d0ab58f	0.033864554
195	0x3d53e589	0.051732574
196	0xbe2a99f4	-0.16660291
197	0xbdc69fba	-0.09698434
198	0x3d5b6602	0.05356408
199	0x3e3824ce	0.1798279
200	0x3dd9d250	0.10635817
201	0x3c010b12	0.0078761745
202	0x3e2e20eb	0.17004745
203	0xbe09118e	-0.13385603
204	0xbd103877	-0.0352101
205	0x3d20095c	0.039071426
206	0xbd4fb910	-0.0507136
207	0x3e731a35	0.23740466
208	0xbd2d5321	-0.042315606
209	0xbde12370	-0.10993087
210	0x3e8da69a	0.2766617
211	0x3d61ac1f	0.055095788
212	0x3e03e682	0.128809
213	0x3e1efaa6	0.15525302
214	0xbdb3473e	-0.08753823
215	0x3e107926	0.14108714
216	0x3db53f63	0.08849981
217	0x3ba27505	0.0049577975
218	0x3e270438	0.16310203
219	0xbd9c7937	-0.076403074
220	0xbd2c88ca	-0.04212264
221	0x3e1f9cea	0.15587202
222	0xbd6ab205	-0.05729868
223	0x3de5f54b	0.112284265
224	0x3e0b9878	0.13632381
225	0xbdc72d17	-0.09725397
226	0x3d2ab186	0.041673206
227	0x3c497212	0.012295263
228	0x3d22df0c	0.039763495
229	0x3d164ff4	0.036697343
230	0x3e1048e7	0.1409031
231	0xbdc46dd2	-0.09591259
232	0x3dab8d88	0.08376604
233	0x3de87ad3	0.11351552
234	0xbd123dc4	-0.035703436
235	0x3c6a6c23	0.014308008
236	0xbca3f472	-0.020014022
237	0xbd7be184	-0.061494365
238	0x3da6fc91	0.08153642
239	0xbcf73bd9	-0.030179905
240	0x3e133014	0.14373809
241	0x3d07d094	0.0331579
242	0xbcf35dcb	-0.02970781
243	0x3dc7f0f8	0.09762758
244	0x3d9be6a0	0.076123476
245	0x3dc914f1	0.098184474
246	0x3e038879	0.12845029
247	0xbe1376ab	-0.14400737
248	0x3dcb6367	0.09931069
249	0x3e3a189f	0.18173455
250	0xbd6d2ebe	-0.057905905
251	0x3d2e9e63	0.042631518
252	0x3e25cb29	0.1619078
253	0x3b7d2b07	0.0038630383
254	0x3d8e3611	0.06943906
255	0x3ce87783	0.0283773

net.6.bias f4 [64]
0	0xbda1ab1a	-0.07893963
1	0xbb1d57c0	-0.0024008602
2	0x3decd8a8	0.115647614
3	0x3dab16fd	0.08353994
4	0x3da14f0d	0.07876406
5	0x3d36da29	0.044641647
6	0xbd2d6cf9	-0.042340253
7	0xbd060c0e	-0.03272634
8	0xbcc422c3	-0.023942357
9	0xbdef2d74	-0.11678591
10	0x3dc5fa6c	0.09666905
11	0xbd034e30	-0.032056987
12	0xbd90cf40	-0.0707078
13	0x3db35974	0.08757296
14	0x3c919c8a	0.017774839
15	0x3dc21630	0.09476888
16	0xbcd4cfc0	-0.02597797
17	0x3e044902	0.12918475
18	0xbcf3bebe	-0.029754039
19	0x3dbaab13	0.09114661
20	0x3dfa92a9	0.122350045
21	0x3c018d84	0.007907275
22	0xbd966eea	-0.07345374
23	0xbe09a579	-0.13442029
24	0x3e19ce53	0.15020113
25	0xbe062f42	-0.13103965
26	0xbc8f6a1b	-0.01750665
27	0x3dbfa143	0.0935693
28	0xbdc71e3a	-0.09722562
29	0x3e18f0e1	0.14935638
30	0x3af31a2e	0.0018547231
31	0x3d53180f	0.051536616
32	0x3d2b9092	0.04188592
33	0x3ccb57e1	0.024822177
34	0x3de6d091	0.1127025
35	0xbd83cdd0	-0.0643574
36	0x3d5b0742	0.05347372
37	0xbd6a9a84	-0.057276264
38	0x3e168413	0.1469882
39	0x3e329426	0.17439327
40	0xbcd99ece	-0.026564982
41	0x3dea756d	0.114481784
42	0x3d50d602	0.050985344
43	0x3dc7797a	0.09739967
44	0xbb229056	-0.002480527
45	0xbda7a356	-0.08185451
46	0x3d98b756	0.074568436
47	0x3d9b53f5	0.07584373
48	0x3e1b07d9	0.15139712
49	0x3d8e1545	0.069376506
50	0xbd671e42	-0.05642534
51	0x3dacce72	0.08437814
52	0x3cecac76	0.02889083
53	0x3df243fc	0.11829373
54	0x3db91fad	0.09039245
55	0x3e095812	0.13412502
56	0x3ceaad59	0.028647112
57	0xbe01a165	-0.12659223
58	0xbda74183	-0.08166792
59	0x3de95e83	0.1139498
60	0x3de9fdc9	0.11425359
61	0x3d81aa02	0.063312545
62	0xbda7535e	-0.08170198
63	0x3dd881d0	0.10571635

net.8.weight f4 [64, 64]
0	0x3d80f3b2	0.06296481
1	0xbdc9fede	-0.09863065
2	0x3d514fe3	0.051101577
3	0x3e04397f	0.12912558
4	0xbd5789f1	-0.052621786
5	0xbdbb4bbd	-0.09145305
6	0x3e15cf91	0.14629962
7	0x3d4942d2	0.04913599
8	0x3dda1881	0.10649205
9	0x3de3a886	0.11116128
10	0x3e0735f8	0.13204181
11	0xbd51c8f6	-0.051217042
12	0x3be40660	0.006958768
13	0x3dd0c12e	0.10193096
14	0x3e0178f3	0.12643795
15	0xbd44b02b	-0.04801957
16	0x3d83bce8	0.064325154
17	0x3e02ac71	0.12761094
18	0xbe06eab4	-0.1317547
19	0x3e25c28d	0.16187496
20	0x3da0367d	0.07822893
21	0x3d87510f	0.066072576
22	0xbdbe7bdb	-0.09300967
23	0xbc4679c9	-0.012113997
24	0xbe2c9460	-0.16853476
25	0xbd5cf9c6	-0.05394914
26	0x3d68b11b	0.056809526
27	0x3d773cd2	0.060360737
28	0xbd12ce04	-0.035841003
29	0xbd007c30	-0.031368434
30	0x3db1f716	0.08689706
31	0x3d3df3f5	0.046375234
32	0x3dbc368d	0.09190092
33	0x3e1f237d	0.15540881
34	0x3da71531	0.08158339
35	0x3c24aeb6	0.01005142
36	0xbc8bf88b	-0.017086288
37	0xbdd86520	-0.10566163
38	0x3dd5c1f8	0.10437387
39	0x3c90aa78	0.01765941
40	0x3c8e9c89	0.017408626
41	0xbdbe425f	-0.09290003
42	0x3d9e4a8c	0.077290624
43	0x3d826409	0.063667364
44	0xbdcb2a94	-0.099202305
45	0x3d487996	0.04894408
46	0x3c2b5c9f	0.010459094
47	0xbb619a07	-0.0034424083
48	0x3e10c7f8	0.14138782
49	0x3e001207	0.12506877
50	0x3d373c61	0.044735316
51	0xbd92b922	-0.071642175
52	0xbd3e812a	-0.0465099
53	0xbd7e383b	-0.062065344
54	0x3d465e08	0.04842952
55	0x3c959e74	0.018264033
56	0xbdc90756	-0.09815852
57	0x3dc396cf	0.09550249
58	0x3b8f39ac	0.0043708887
59	0x3da35ac0	0.079762936
60	0xbd44e924	-0.048073903
61	0xbdd2aba9	-0.10286648
62	0xbd4e4253	-0.05035622
63	0x3e34a5e5	0.17641409
64	0xbba3e8c6	-0.005002114
65	0xbbb2cde0	-0.005456671
66	0xbd12bebb	-0.035826426
67	0x3c14012d	0.009033483
68	0xbb82ef0d	-0.003995782
69	0x3c1356c5	0.008992855
70	0xbd90f7ae	-0.07078491
71	0x3cf59194	0.029976644
72	0xbdcc6831	-0.099808104
73	0xbdb5f664	-0.08884886
74	0x3cab3ca4	0.02090294
75	0x3c886313	0.016648805
76	0xbd0febac	-0.035136864
77	0x3de4e418	0.11176318
78	0x3d98d9e5	0.07463435
79	0x3d42a5ef	0.047521528
80	0x3cf279d9	0.029599117
81	0xbbd3280d	-0.0064439834
82	0xbdc54e8d	-0.09634123
83	0xbcbd2e79	-0.023093449
84	0x3e058704	0.13039786
85	0x3e036c1f	0.12834214
86	0x3d9c0899	0.076188274
87	0x3e1c85b3	0.15285377
88	0xbd921a14	-0.0713388
89	0x3c1633b3	0.0091675995
90	0x3ae085b7	0.0017129694
91	0xbc28830e	-0.010285152
92	0x3ddccf48	0.10781723
93	0xbe0414f3	-0.12898616
94	0x3cd7eb76	0.026357394
95	0x3e4d330d	0.20039006
96	0xbdb8936e	-0.09012495
97	0x3e17dcb3	0.14830284
98	0xbdb6d461	-0.08927227
99	0x3d41083e	0.047127
100	0xbc32a5a5	-0.010903751
101	0x3d21fde8	0.039548784
102	0x3d6812dd	0.056658614
103	0x3d454d10	0.048169196
104	0xbcb319ad	-0.02186283
105	0xbd0402b7	-0.03222915
106	0xbdb0b774	-0.08628741
107	0x3cc18bee	0.023626294
108	0x3dd546ef	0.1041392
109	0xbdc0a33a	-0.09406133
110	0xbc9c7328	-0.01909788
111	0x3dbeba74	0.09312907
112	0x3d96e302	0.07367517
113	0x3da6c0ed	0.081422664
114	0x3e0c93a0	0.1372819
115	0x3cfa7783	0.030574566
116	0xbc10f72e	-0.008847995
117	0xbdd549de	-0.1041448
118	0xbd76cf44	-0.060256258
119	0xbe16c30f	-0.14722846
120	0x3da886b2	0.08228816
121	0x3e191708	0.14950192
122	0x3df3ae9c	0.118985385
123	0x3df3b2b7	0.118993215
124	0x3c8e53e4	0.017373987
125	0x3debe8d2	0.11519016
126	0x3da5cf27	0.08096152
127	0xbd94ec2b	-0.07271608
128	0xb9bc0270	-0.0003585997
129	0xbded97e2	-0.11601235
130	0x3dfa67f1	0.122268565
131	0x3d2eeebd	0.042708147
132	0x3e13e35b	0.14442198
133	0xbd528de5	-0.051404852
134	0x3da0d35d	0.07852814
135	0x3da35188	0.07974535
136	0x3c118397	0.008881471
137	0xbb877600	-0.0041339397
138	0x3dd3b60f	0.10337459
139	0xbc4d0326	-0.012512958
140	0x3dc70e8a	0.0971957
141	0x3cae584c	0.021282338
142	0xbd0a309d	-0.033737767
143	0xbd8d21dc	-0.06891224
144	0xbceb19b1	-0.028698774
145	0x3de1e0a7	0.11029177
146	0x3c6ae53c	0.01433688
147	0xbc3fea57	-0.011713586
148	0xbdfbc6dd	-0.122937895
149	0x3d93dbc6	0.07219653
150	0xbd0da76e	-0.0345835
151	0xbe208dbf	-0.15679072
152	0x3d280990	0.041024745
153	0x3cd8a26c	0.026444636
154	0x3e0da757	0.13833366
155	0x3d310bbd	0.043224085
156	0xbd9dd5d4	-0.077068
157	0xbcebc5b2	-0.028780792
158	0xbdb7d4ce	-0.08976136
159	0x3d822f48	0.063566744
160	0x3d62954e	0.05531817
161	0x3dd95d90	0.10613549
162	0xbe29d55b	-0.16585295
163	0xbd81c4e8	-0.06336385
164	0xbe8b2e8b	-0.27183947
165	0xbdd44740	-0.10365152
166	0xbdf7f6f0	-0.121076465
167	0xbc93ca1f	-0.018040715
168	0x3df08e1f	0.117458574
169	0xbe0f3871	-0.13986374
170	0xbc062015	-0.00818636
171	0x3d90e21f	0.07074379
172	0x3d06657f	0.032811638
173	0x3d663110	0.056199133
174	0xbda59b85	-0.080863036
175	0x3e026469	0.12733616
176	0x3cb7f69d	0.022456462
177	0xbe17b8e4	-0.14816624
178	0x3dc9e296	0.09857671
179	0xbdd4b972	-0.103869334
180	0xbd8c30f2	-0.06845273
181	0x3db76fdd	0.08956883
182	0xbdf689eb	-0.120380245
183	0xbda5c77b	-0.080946885
184	0xbdbd3279	-0.092381425
185	0xbca42541	-0.020037295
186	0x3d588cdb	0.052868705
187	0x3d844a23	0.06459453
188	0x3d7213b3	0.059100818
189	0x3e1aaaad	0.1510417
190	0xbd840038	-0.06445354
191	0xbd810eb2	-0.06301631
192	0xb98c6368	-0.00026776944
193	0xbd692680	-0.056921482
194	0xbd7ec90f	-0.062203463
195	0x3e191d72	0.14952639
196	0x3dd140d4	0.10217443
197	0x3e1cc160	0.15308142
198	0x3d4394bd	0.04774927
199	0xbd66338e	-0.05620151
200	0xbdb645e7	-0.089000516
201	0xbd389b88	-0.0450702
202	0x3d2b6e7f	0.041853424
203	0x3d32d0dc	0.043656215
204	0x3d319e18	0.04336366
205	0xbe614920	-0.22000551
206	0x3be50c55	0.0069899955
207	0x3e1feda0	0.1561799
208	0x3c46fa0b	0.012144576
209	0x3df2c9e2	0.11854912
210	0x3e575461	0.21028282
211	0xbe1cd2ea	-0.15314832
212	0xbda0e935	-0.07856981
213	0xbc8ae293	-0.016953742
214	0xbdd3e190	-0.10345757
215	0xbdc60000	-0.09667969
216	0x3e095a11	0.13413264
217	0xbe0c1b98	-0.13682401
218	0x3be9ab35	0.007131005
219	0xbd93a297	-0.07208746
220	0x3da5b0fa	0.08090396
221	0x3e038349	0.1284305
222	0x3dc0a7b3	0.09406986
223	0xbe289c4b	-0.16465871
224	0xbe1d67cd	-0.15371628
225	0x3cfb5763	0.030681318
226	0x3d2c7c7d	0.04211091
227	0x3c97d1c4	0.018532641
228	0x3ce67438	0.02813159
229	0xbb901eff	-0.0043982263
230	0xbcd3768b	-0.025813362
231	0x3d8aa841	0.06770373
232	0x3dd566db	0.10420009
233	0xbe24157c	-0.1602382
234	0xbe553aff	-0.20823286
235	0x3d558561	0.052129153
236	0x3e15bbe2	0.14622453
237	0xbd00783a	-0.031364657
238	0x3e273f82	0.1633282
239	0xbd3f9bfc	-0.046779618
240	0xbd8912d1	-0.06693042
241	0xbdec695b	-0.115435325
242	0xbdc05f9c	-0.09393236
243	0xbd905d3c	-0.07049033
244	0xbda7018f	-0.08154594
245	0x3e1bdc6e	0.15220806
246	0xbe4f7ed1	-0.2026322
247	0x3e119857	0.1421827
248	0xbd347109	-0.04405311
249	0x3c132d1f	0.008982926
250	0xbd89411f	-0.06701874
251	0x3d6c047d	0.057621468
252	0x3e00a0a0	0.12561274
253	0xbdc9e180	-0.09857464
254	0xbde6fbae	-0.11278473
255	0xba262b87	-0.00063388835

net.8.bias f4 [64]
0	0xbba73211	-0.005102404
1	0x3d3812e1	0.04493988
2	0xbde73173	-0.112887286
3	0x3e0880c4	0.1333037
4	0xbd1c9539	-0.038228247
5	0xbb92fff3	-0.004486078
6	0xbd75f827	-0.06005111
7	0x3e092b86	0.13395509
8	0xbd5ee1c0	-0.05441451
9	0x3ced1263	0.028939432
10	0x3d987102	0.074434295
11	0x3dc78b04	0.09743312
12	0xbd38e7e1	-0.045143012
13	0xbd8dc6fe	-0.069227204
14	0x3d26e2d7	0.040743675
15	0xbdc3e5af	-0.09565293
16	0xbd47cdf4	-0.048780397
17	0xbdd6cd3a	-0.104883626
18	0x3db18c39	0.086693235
19	0x3c88b4d4	0.016687788
20	0xbdef39d0	-0.11680949
21	0x3dda0fac	0.106475204
22	0x3dddd107	0.108308844
23	0xbdb510c6	-0.0884109
24	0xbc743d9c	-0.014907267
25	0x3daa2e71	0.08309639
26	0xbd82cdb5	-0.06386892
27	0x3d3ba621	0.04581273
28	0x3d11ff0f	0.035643633
29	0xbd57def5	-0.052702863
30	0xbd8d29a1	-0.06892706
31	0xbc3ad118	-0.011402391
32	0xbda3fd9f	-0.08007359
33	0x3dd7f6d4	0.105451256
34	0x3d3d7667	0.046255495
35	0xbd2ffd69	-0.04296628
36	0xbc7552ef	-0.014973386
37	0x3ab30f80	0.0013661236
38	0x3d2b9e14	0.041898802
39	0x3dc7ff38	0.09765476
40	0xbd4f04eb	-0.0505418
41	0xbd1a65a1	-0.037694577
42	0x3d211334	0.039324954
43	0xbd8efb72	-0.06981553
44	0xbce33202	-0.027733807
45	0xbd0e69e3	-0.03476895
46	0x3dc845f3	0.09778967
47	0xbd8943e4	-0.06702402
48	0x3e02043c	0.12696928
49	0x3db58e5d	0.08865044
50	0xbdbbd4d3	-0.091714524
51	0xbc97724e	-0.018487122
52	0x3ce4012e	0.027832594
53	0xbddf705b	-0.10910102
54	0xbda558af	-0.08073556
55	0x3de5a702	0.11213495
56	0x3db8100e	0.08987437
57	0xbddacf29	-0.10684044
58	0xbaa14300	-0.0012303293
59	0x3d2768a5	0.04087128
60	0x3d92d819	0.071701236
61	0x3de598a0	0.112107515
62	0x3d87778a	0.06614597
63	0x3dd0f541	0.102030285

net.10.weight f4 [14, 64]
0	0xbda69788	-0.08134371
1	0xbd1118c6	-0.035424016
2	0x3d9fdb3e	0.07805489
3	0xbe2426be	-0.16030404
4	0xbdcc6fcc	-0.09982261
5	0x3d49c706	0.04926207
6	0x3cf0c0f4	0.029388882
7	0xbcc0c1d5	-0.023529926
8	0x3da29990	0.07939446
9	0x3c16cc42	0.009203972
10	0x3c36e221	0.011162312
11	0xbd4a2fba	-0.04936192
12	0x3d2dce7f	0.04243326
13	0xbd329428	-0.043598324
14	0x3e05a5a8	0.13051474
15	0x3e192397	0.14954983
16	0xbd1cd910	-0.038292944
17	0x3d61f514	0.055165365
18	0xbcaa6714	-0.020801105
19	0x3d5a85c1	0.053350214
20	0xbde64b4e	-0.11244832
21	0xbd7d086d	-0.061775614
22	0xbb45384c	-0.003009337
23	0x3d856d21	0.06514955
24	0x3d858e30	0.06521261
25	0x3c35dbea	0.011099795
26	0xbddac418	-0.10681933
27	0xbc858232	-0.016297434
28	0x3deef802	0.116683975
29	0xbd78b17c	-0.060716137
30	0x3d439c89	0.047756705
31	0xbe06eeab	-0.13176982
32	0x3d58bdc0	0.052915335
33	0xbd1f8857	-0.038948383
34	0xbcbac4d9	-0.022798942
35	0x3deab7be	0.11460827
36	0x3d9f32b1	0.077733405
37	0xbde0776c	-0.10960278
38	0xbcd52194	-0.026016988
39	0x3d4e6a74	0.05039449
40	0xbd00b624	-0.031423703
41	0x3dc31a6e	0.095265254
42	0x3d36194b	0.044457715
43	0xbc632a80	-0.013865113
44	0xbd8bfcab	-0.06835302
45	0xbb35f2ee	-0.0027763206
46	0x3d75c746	0.060004495
47	0x3dc4bb52	0.09606041
48	0xbd72205b	-0.059112888
49	0xbd818576	-0.06324284
50	0x3d27a820	0.04093182
51	0xbe6dbd85	-0.23216827
52	0x3d26bb05	0.0407057
53	0x3d994de6	0.07485561
54	0x3e0d8010	0.13818383
55	0x3b6d330a	0.0036193752
56	0x3e66d19e	0.225409
57	0x3e23aeb4	0.15984613
58	0xbd83baca	-0.064321116
59	0x3d37e613	0.04489715
60	0x3d9030ac	0.070405334
61	0xbe0b3bb8	-0.13597
62	0xbd411de5	-0.04714765
63	0x3cc40ee4	0.023932882
64	0x3db9c625	0.09070996
65	0xbdc95147	-0.098299555
66	0xbd05f8dd	-0.032708038
67	0xbdcb9fd1	-0.09942592
68	0xbe0ec647	-0.13942824
69	0x3e195a0d	0.14975758
70	0xbe0f6a1f	-0.14005326
71	0xbcaed0a2	-0.021339718
72	0xbd0840fc	-0.0332651
73	0xbd8dcf6f	-0.069243304
74	0x3ddc90e2	0.10769822
75	0xbd3bf299	-0.045885656
76	0x3dc1b0ad	0.09457526
77	0xbd6c9a1c	-0.057764158
78	0x3e1cc473	0.15309314
79	0x3d4d5b8c	0.050136134
80	0xbcb4bcc0	-0.02206266
81	0x3a66c000	0.0008802414
82	0x3cadf697	0.021235747
83	0xbd85144f	-0.06498014
84	0xbd17d928	-0.03707233
85	0xbe1a8097	-0.15088116
86	0xbdcf9968	-0.10136682
87	0x3d1ed5de	0.03877818
88	0xbcd7cb7c	-0.026342146
89	0xbd5fb7c6	-0.05461862
90	0x3c2a4497	0.01039233
91	0x3e18f556	0.14937338
92	0x3df15ab8	0.11784881
93	0xbe448083	-0.19189648
94	0x3d62329e	0.055224054
95	0x3bae7ccb	0.005324935
96	0xbd8e6ce3	-0.06954362
97	0x3cba0034	0.022705175
98	0xbd26be1b	-0.040708642
99	0x3d9dcbd6	0.07704894
100	0x3dcf3de3	0.10119226
101	0x3d707aa0	0.058710694
102	0x3d97f3c4	0.074195415
103	0xbdb89e61	-0.090145834
104	0xbda58350	-0.080816865
105	0x3da0ac3c	0.07845351
106	0xbd881572	-0.06644715
107	0x3ae28680	0.0017282516
108	0x3dfac7b1	0.12245119
109	0xbd31aa9e	-0.043375604
110	0xbc2dfa45	-0.010618751
111	0x3ca160f0	0.019699544
112	0x3b86968f	0.0041073035
113	0x3d773105	0.060349483
114	0x3e03d39a	0.12873688
115	0x3d96a188	0.073550284
116	0x3dcf5b6c	0.10124859
117	0xbd49f831	-0.04930896
118	0x3e0a787f	0.13522528
119	0xbd8e319e	-0.069430575
120	0x3e0aa963	0.13541178
121	0xbd468d3a	-0.048474528
122	0xbdd1bfdc	-0.102416724
123	0x3db414ad	0.08793006
124	0x3d4096bf	0.047018763
125	0x3d76d974	0.060265973
126	0x3df4e2d0	0.119573236
127	0xbd4c9937	-0.049950805
128	0xbd93864b	-0.07203349
129	0x3df3a016	0.11895768
130	0xbcfe8e58	-0.031073734
131	0xbdd2c170	-0.102908015
132	0xbd848aea	-0.06471808
133	0xbdb2b618	-0.08726138
134	0xbe09d6ce	-0.13460848
135	0xbd0a98af	-0.033837017
136	0x3df663e4	0.120307714
137	0xbd11e19a	-0.03561554
138	0x3d07747d	0.033070076
139	0xbdbd5fa7	-0.0924676
140	0x3db2fa81	0.08739186
141	0x3dae7f96	0.08520429
142	0xbb8aa10d	-0.0042306245
143	0x3de60e84	0.112332374
144	0xbd1f2dd8	-0.03886208
145	0xbd3f6bb4	-0.046733573
146	0xbd1d9f13	-0.038481783
147	0xbe1645bf	-0.14675044
148	0x3d5f3ab8	0.054499358
149	0x3d33413c	0.043763384
150	0xbd995fac	-0.07488951
151	0xbdba3fe2	-0.09094216
152	0xbd8e9470	-0.06961906
153	0xbdd9f048	-0.10641533
154	0xbe0be055	-0.13659795
155	0x3e06e173	0.1317194
156	0x3bc48dd6	0.0059983535
157	0xbd818140	-0.063234806
158	0x3d2f599e	0.042810075
159	0x3dc26bf1	0.094932444
160	0xbe0d9ddc	-0.1382975
161	0x3d67b043	0.05656458
162	0xbac8266f	-0.0015270243
163	0xbdd30325	-0.10303334
164	0x3dadc624	0.08485058
165	0x3d6c86cc	0.05774574
166	0x3dd68d60	0.10476184
167	0x3d3bb6bf	0.045828577
168	0x3c1e44d8	0.009659968
169	0x3c3d647c	0.011559602
170	0xbdbdbb07	-0.09264188
171	0x3df6b2f8	0.12045854
172	0xbdb6e973	-0.08931246
173	0xbcc44e02	-0.023962978
174	0x3c382a55	0.0112405615
175	0xbdb90170	-0.09033477
176	0x3d8d96a4	0.06913498
177	0x3dc032ff	0.09384727
178	0xbcced938	-0.025250062
179	0xbdded695	-0.10880772
180	0xbe2e986b	-0.1705033
181	0xbb0e26cf	-0.0021690612
182	0x3dcbfc15	0.0996019
183	0x3e0f9ff8	0.14025867
184	0xbd1dd2c7	-0.03853109
185	0x3dc886ae	0.09791313
186	0x3dec1a24	0.115284234
187	0x3d83c68f	0.064343564
188	0x3cbd5363	0.023111051
189	0xbe50700f	-0.20355247
190	0x3cd02b05	0.025411138
191	0x3d147684	0.036245838
192	0xbe09a38d	-0.13441296
193	0x3e07a228	0.13245451
194	0x3da08516	0.07837884
195	0x3daf846e	0.08570181
196	0x3bd09f01	0.006366611
197	0x3d851ca3	0.06499603
198	0x3d93abec	0.07210526
199	0xbe7084de	-0.23488185
200	0x3dba3c72	0.0909356
201	0x3e0efd34	0.13963777
202	0x3d1019b4	0.035180762
203	0x3dcc9c99	0.09990806
204	0xbe07d4db	-0.13264792
205	0xbd965522	-0.073404565
206	0xbe16bd98	-0.14720762
207	0x3cd6db1d	0.026227528
208	0x3df512be	0.119664654
209	0xbd29b780	-0.041434765
210	0xbd96b80a	-0.073593214
211	0x3ce03e3d	0.027373428
212	0x3de3b93a	0.111193135
213	0xbd1136e1	-0.035452727
214	0xbcf7573b	-0.030192962
215	0x3dff91b4	0.124789625
216	0x3ebbd48a	0.36685592
217	0xbda72f0a	-0.08163269
218	0xbe2737b7	-0.16329847
219	0xbe2d24ac	-0.1690852
220	0x3d53f862	0.05175055
221	0x3d5a78ba	0.05333779
222	0xbe574f01	-0.21026231
223	0x3c0637eb	0.008192043
224	0xbc2234ef	-0.009900316
225	0x3d158d7d	0.036511887
226	0x3d20b5be	0.039235823
227	0x3db6cb35	0.089254774
228	0x3d7ba8c7	0.061440255
229	0xbd941b5a	-0.072317794
230	0xbe2b4f76	-0.1672953
231	0xbde1ea21	-0.11030985
232	0xbd046f40	-0.03233266
233	0x3dc6830c	0.09692964
234	0xbce08ffc	-0.027412407
235	0x3deb9160	0.115023375
236	0x3dfdb33c	0.12387702
237	0xbe282487	-0.16420184
238	0xbd88f924	-0.06688145
239	0xbd57f740	-0.05272603
240	0xbe3e7a76	-0.18601403
241	0x3c232be6	0.009959197
242	0xbcd7279f	-0.02626401
243	0xbea7a969	-0.32746437
244	0xbdde4e14	-0.10854736
245	0x3e205654	0.15657932
246	0xbcf61cf9	-0.030043112
247	0x3ddd6c33	0.10811653
248	0x3ae06686	0.0017120398
249	0x3e64c3c8	0.2234031
250	0xbd00280c	-0.03128819
251	0x3e0f8a8e	0.14017698
252	0x3d49d9af	0.049279865
253	0xbe4ad6e5	-0.19808538
254	0xbd4edd81	-0.05050421
255	0x3d5e7781	0.054313187

net.10.bias f4 [14]
0	0x3d7804d7	0.06055149
1	0xbe001172	-0.12506655
2	0x3d1e4a04	0.038644806
3	0xbdb9600a	-0.09051521
4	0x3dec6a43	0.11543705
5	0xbd21bc25	-0.03948607
6	0x3def8732	0.11695708
7	0xbdc4f9f0	-0.09617984
8	0xbd8d189c	-0.068894595
9	0xbca91fc9	-0.02064504
10	0xbdb21ad2	-0.08696522
11	0x3d036d76	0.032086812
12	0xbd8f7da8	-0.07006389
13	0x3c509e6b	0.012733082
