NN_PEM_v4.pth (torch, 32664 bytes, 8 tensors)

net.0.weight f4 [32, 5]
0.22568287 0.39611527 -0.0026555455 0.102650866 -0.34036395 -0.3987661 0.060947984 0.26495662
-0.23981245 0.13628028 0.2804748 -0.047176126 0.47044966 -0.17910838 -0.46590632 -0.3840974
0.19985479 -0.23047152 -0.36314762 0.4405061 -0.49484873 -0.045173153 0.4715497 0.5290691
0.038377486 -0.46364862 0.02380818 -0.2540548 -0.10138429 0.20203525 -0.23434247 0.0035335314
0.49926102 -0.15385407 -0.35017014 -0.025034608 -0.16967683 -0.15341401 -0.07972046 0.18778504
-0.2649903 0.2336353 0.4561639 -0.19847442 0.25920597 0.30628562 -0.26573184 -0.19155999
0.30781728 0.043985453 -0.55280215 0.11008772 -0.5156126 -0.23477145 0.043156695 -0.26208928
-0.15837774 0.10659516 -0.21491443 -0.5759791 -0.033447664 -0.01528828 -0.19411542 -0.35411417
-0.503642 0.33773583 0.28661412 -0.056647833 0.3690375 -0.5492753 -0.02114023 -0.47990745
0.4448962 0.060907885 0.32416585 -0.35603082 0.0270979 -0.18013223 0.35791832 -0.40827307
-0.2306523 -0.21620657 0.026346682 -0.40191945 0.39324555 0.32091773 0.12875816 0.05958887
0.40661705 0.1455019 0.20800216 -0.34269124 0.067698546 0.20716795 -0.33635798 -0.4804722
0.059278615 0.010058868 0.4116427 -0.06834441 0.078857385 -0.30931547 -0.615278 -0.22182484
0.15954116 -0.5700334 0.19851412 -0.61734647 -0.004920481 -0.053431932 -0.37395766 0.18576162
-0.3339139 0.03266447 -0.39244786 0.3499776 -0.4061913 0.02677291 -0.38169703 -0.28355968
0.24678597 -0.0443824 0.5464567 0.41488105 0.40702957 0.3299974 -0.33917278 0.00014857252
0.22272207 0.33425006 0.29392 0.43479285 -0.49328586 0.3278829 0.25118962 -0.043765668
-0.3614607 0.03007496 0.14685573 0.4483918 0.01614907 0.070244536 0.5109902 -0.42851225
-0.26424557 -0.19650897 0.10421221 0.57361865 0.06865095 -0.2182042 -0.39044917 -0.16060631
0.061147846 0.08437315 -0.48770067 -0.13436419 0.13809228 0.47467062 0.39875188 -0.018111836
00000000: 6919 673e 9fcf ca3e a908 2ebb 9e3a d23d
00000010: 2f44 aebe 122b ccbe 98a4 793d 65a8 873e
00000020: 6591 75be 0f8d 0b3e 659a 8f3e c13b 41bd
00000030: c7de f03e 3068 37be 468b eebe 6aa8 c4be
00000040: bca6 4c3e ba00 6cbe 7cee b9be 048a e13e
00000050: d05c fdbe 7c07 39bd f66e f13e 1371 073f
00000060: b631 1d3d 5a63 edbe 5f09 c33c 7913 82be
00000070: 91a2 cfbd 54e2 4e3e 79f7 6fbe d292 673b
00000080: 249f ff3e ec8b 1dbe 8049 b3be 6115 cdbc
00000090: c3bf 2dbe 9018 1dbe 7b44 a3bd b94a 403e
000000a0: cfac 87be 183e 6f3e 518e e93e e13c 4bbe
000000b0: a5b6 843e 78d1 9c3e 010e 88be 4d28 44be
000000c0: 3a9a 9d3e 172a 343d 7184 0dbf ac75 e13d
000000d0: 30ff 03bf ed67 70be 13c5 303d 9130 86be
000000e0: c62d 22be 904e da3d 8712 5cbe 5e73 13bf
000000f0: 6b00 09bd b27b 7abc 31c6 46be 744e b5be
00000100: afee 00bf b6eb ac3e 16bf 923e 8f07 68bd
00000110: 7cf2 bc3e 4e9d 0cbf 472e adbc 6eb6 f5be
00000120: 6fc9 e33e 8c7a 793d 11f9 a53e ac49 b6be
00000130: 6afc dd3c 9574 38be 1241 b73e 2b09 d1be
00000140: 1e30 6cbe 4165 5dbe ffd4 d73c 63c8 cdbe
00000150: 7b57 c93e 544f a43e 2ed9 033e 7513 743d
00000160: 1c30 d03e 73fe 143e 85fe 543e 3a75 afbe
00000170: 89a5 8a3d d623 543e 1d37 acbe 7400 f6be
00000180: 22ce 723d f3cd 243c d5c2 d23e 27f8 8bbd
00000190: fb7f a13d 995e 9ebe dc82 1dbf 0d26 63be
000001a0: c25e 233e b5ed 11bf 4947 4b3e 6b0a 1ebf
000001b0: fc3b a1bb 71db 5abd 6177 bfbe 4b38 3e3e
000001c0: c3f6 aabe 2ecb 053d edee c8be 4430 b33e
000001d0: 4ef8 cfbe dd52 db3c cb6d c3be bc2e 91be
000001e0: 76b5 7c3e 52ca 35bd 96e4 0b3f 4a6b d43e
000001f0: 2e66 d03e 6bf5 a83e 0ea8 adbe 22ca 1b39
00000200: 4111 643e d322 ab3e af7c 963e 2b9d de3e
00000210: f78f fcbe 44e0 a73e ed9b 803e a143 33bd
00000220: 6011 b9be c35f f63c 5961 163e 9c93 e53e
00000230: 0e4b 843c 5edc 8f3d 41d0 023f f565 dbbe
00000240: 324b 87be a639 49be 366d d53d acd8 123f
00000250: df98 8c3d ec70 5fbe f4e8 c7be fb75 24be
00000260: 2a76 7a3d d4cb ac3d e7b3 f9be c496 09be
00000270: 1068 0d3e 0708 f33e 3529 cc3e 465f 94bc

net.0.bias f4 [32]
0.29755396 0.25991172 -0.2900575 -0.46085986 0.30479053 0.24160832 0.5458559 0.4615631
0.5418279 -0.4058484 0.2949795 -0.20035698 0.22919181 0.2471502 0.3599202 -0.12753345
-0.17929514 -0.05485484 0.1459647 0.4814596 0.36001146 -0.21727231 -0.34016135 0.51941174
0.24058245 -0.23150466 0.051169556 0.19914588 0.35923764 -0.20044257 0.11383127 -0.27704602
00000000: fe58 983e 2613 853e 6b82 94be d3f5 ebbe
00000010: 810d 9c3e 2c68 773e 36bd 0b3f 0052 ec3e
00000020: 3cb5 0a3f 5dcb cfbe 8e07 973e 612a 4dbe
00000030: 42b1 6a3e f114 7d3e 7647 b83e 2198 02be
00000040: 2599 37be 78af 60bd c577 153e df81 f63e
00000050: 6c53 b83e a27c 5ebe a129 aebe 2bf8 043f
00000060: 3f5b 763e 8f0f 6dbe 2b97 513d e6ec 4b3e
00000070: ffed b73e d140 4dbe 5e20 e93d fad8 8dbe

net.2.weight f4 [64, 32]
-0.08621352 0.11914908 -0.1355916 -0.03331474 0.1265677 0.042703513 0.09924796 0.21766351
0.15463947 0.056135632 0.09394284 -0.012676782 -0.017269528 -0.21359038 -0.09266804 0.03694405
-0.11482999 -0.076545514 -0.102070406 -0.021573061 0.18842337 0.13763668 0.005835654 0.042100757
-0.038647722 0.103110656 -0.022221012 -0.13642323 -0.09640498 -0.03240155 0.016117588 0.07565498
0.08672792 -0.10339874 0.27766213 0.1900101 -0.093481086 -0.12870546 0.1627026 -0.21542072
0.19780342 -0.15303048 -0.077150896 -0.023049718 -0.005199254 -0.18757378 0.09917218 -0.14773841
0.1900831 -0.21148595 -0.049965728 -0.09236807 0.052475814 -0.088051006 -0.1896113 -0.040541343
-0.09589982 0.03384908 -0.122338526 0.07433331 0.11497602 0.06734322 -0.08961504 -0.1267259
-0.07520486 -0.01889414 -0.050615966 -0.12566322 -0.039461464 -0.053643357 0.022043569 -0.16313685
0.16580516 0.14055616 -0.0327814 0.050987773 0.23446143 0.17473234 -0.12355587 0.15247415
-0.090062894 -0.13676542 0.015502378 0.050994493 0.020089783 0.11981858 0.0051107393 0.16012707
0.09381072 0.017087486 -0.09533213 0.029958902 0.02129755 0.20210715 0.020357171 -0.002613559
-0.19749638 -0.052439947 -0.03510567 0.1209572 -0.07425371 0.13619022 -0.064722486 -0.057970148
0.034593683 -0.018994479 0.13570052 -0.029483339 0.15962404 -0.03718137 0.21424533 -0.18178618
-0.13383992 0.10956113 -0.08497415 0.088343985 0.13366002 -0.058188286 -0.0027607528 0.17124689
-0.055551287 -0.05285516 -0.18939644 -0.071784645 0.065943375 0.059432294 0.0009581894 0.07339035
0.07083204 0.17126203 0.111156106 0.08150344 0.09566826 0.11701339 0.079208344 -0.112124786
-0.13210335 0.21475953 0.029179292 0.06423356 0.256419 -0.107806675 0.06565538 0.1168669
0.11307926 0.022484763 -0.054171257 -0.019543834 -0.18552543 0.15400402 -0.055565815 0.18403132
0.01732379 0.21074492 0.0032654882 -0.122504875 0.14274567 0.12098408 -0.042838097 0.06503065
-0.15416744 0.27325797 -0.22452152 0.15649639 0.13222732 0.058463752 0.19890355 0.08168709
0.09699052 0.18000118 0.12076709 -0.118777424 -0.055555742 -0.14035517 0.01439559 -0.05639354
0.15486436 0.16832958 -0.005422828 0.17023155 0.23690349 -0.17592633 0.046739507 0.111236736
0.17633653 0.19817118 0.17366229 0.10750939 -0.08850475 -0.026291572 0.085449226 -0.10078636
0.0939966 -0.22759439 -0.12114287 -0.19993293 0.02186608 0.04620647 -0.34954908 0.15220487
-0.13089414 0.13681476 -0.17369172 -0.020714832 0.0063130027 0.19096103 -0.1197071 0.031075751
-0.13090315 0.016584493 0.09915973 -0.051687453 0.117097 0.02697938 -0.20769432 -0.04921798
-0.073899396 0.05335541 0.16551197 0.016760413 -0.07193315 0.03876997 -0.0049022394 0.11475497
-0.0346627 0.091258705 0.24616736 -0.1967511 -0.079766884 -0.082690574 0.06419044 0.10124558
0.01464092 -0.14137696 0.11673694 0.08682238 -0.17458802 -0.14693329 -0.12511952 0.06975461
0.13590187 0.1328985 -0.2600877 0.0013096371 0.16423425 0.0777069 0.118408814 -0.13430327
0.08254191 0.08628844 0.06862809 0.1931784 0.05377678 -0.047336575 -0.27035028 0.043085907
00000000: b790 b0bd 6f04 f43d 86d8 0abe 0975 08bd
00000010: f79a 013e e1e9 2e3d 8442 cb3d 2fe3 5e3e
00000020: cf59 1e3e 7aee 653d 1b65 c03d 47b2 4fbc
00000030: d378 8dbc 70b7 5abe bec8 bdbd a552 173d
00000040: fc2b ebbd e5c3 9cbd 4a0a d1bd fdb9 b0bc
00000050: 0ef2 403e a1f0 0c3e 0439 bf3b d871 2c3d
00000060: 134d 1ebd ae2b d33d d708 b6bc 88b2 0bbe
00000070: f96f c5bd 7db7 04bd 0809 843c 00f1 9a3d
00000080: 689e b13d b8c2 d3bd bb29 8e3e 0292 423e
00000090: 0373 bfbd 5dcb 03be 839b 263e 4097 5cbe
000000a0: fb8c 4a3e 06b4 1cbe 4a01 9ebd c3d2 bcbc
000000b0: 815e aabb 5713 40be c91a cb3d bd48 17be
000000c0: 25a5 423e c68f 58be dda8 4cbd 782b bdbd
000000d0: e1f0 563d 1654 b4bd 7729 42be ae0e 26bd
000000e0: 2067 c4bd 55a5 0a3d 9f8c fabd 103c 983d
000000f0: 8c78 eb3d 3eeb 893d 1788 b7bd 6fc4 01be
00000100: 0105 9abd e2c7 9abc b052 4fbd dcad 00be
00000110: 58a2 21bd 23b9 5bbd b794 b43c 590d 27be
00000120: d4c8 293e f4ed 0f3e ca45 06bd 8ed8 503d
00000130: a816 703e 09ed 323e dc0a fdbd 2f22 1c3e
00000140: e572 b8bd 3c0c 0cbe b0fd 7d3c 9adf 503d
00000150: 5493 a43c 7263 f53d fd77 a73b 5af8 233e
00000160: d61f c03d 0efb 8b3c 7e3d c3bd 5f6c f53c
00000170: 3378 ae3c 2df5 4e3e 15c4 a63c 3e48 2bbb
00000180: 7e3c 4abe 45cb 56bd f7ca 0fbd 69b8 f73d
00000190: 5412 98bd 7375 0b3e 398d 84bd 1b72 6dbd
000001a0: 1bb2 0d3d 4f9a 9bbc 14f5 0a3e 0b87 f1bc
000001b0: 7c74 233e 7e4b 18bd 2163 5b3e 2826 3abe
000001c0: 550d 09be 9661 e03d ed06 aebd b1ed b43d
000001d0: 2cde 083e d756 6ebd bfed 34bb 585b 2f3e
000001e0: bf89 63bd a77e 58bd 24f1 41be d403 93bd
000001f0: 520d 873d 476f 733d 012f 7b3a ae4d 963d
00000200: 6310 913d 505f 2f3e d0a5 e33d 47eb a63d
00000210: b8ed c33d b7a4 ef3d fc37 a23d aea1 e5bd
00000220: 1a46 07be ece9 5b3e 6909 ef3c e28c 833d
00000230: 5a49 833e bfc9 dcbd 5476 863d ea57 ef3d
00000240: 1996 e73d f731 b83c aee2 5dbd 641a a0bc
00000250: 61fa 3dbe 3bb3 1d3e fb98 63bd b572 3c3e
00000260: 9fea 8d3c 84cd 573e cd01 563b d6e3 fabd
00000270: ec2b 123e 80c6 f73d 0077 2fbd ca2e 853d
00000280: 12de 1dbe 78e8 8b3e f8e8 65be 9740 203e
00000290: 9966 073e b077 6f3d 5fad 4b3e 904b a73d
000002a0: f7a2 c63d 3b52 383e bc54 f73d 9441 f3bd
000002b0: 6b8e 63bd 44b9 0fbe 7bdb 6b3c eafc 66bd
000002c0: c394 1e3e 975e 2c3e fab1 b1bb 2e51 2e3e
000002d0: d496 723e 0826 34be ed71 3f3d 16d0 e33d
000002e0: 9091 343e 63ed 4a3e 87d4 313e e22d dc3d
000002f0: fa41 b5bd 6c61 d7bc 0100 af3d 1469 cebd
00000300: 4a81 c03d 810e 69be c119 f8bd 38bb 4cbe
00000310: 7e20 b33c ff42 3d3d 19f8 b2be 98db 1b3e
00000320: 1d09 06be 2b19 0c3e 3edc 31be 27b2 a9bc
00000330: 4edd ce3b 4a8b 433e ff28 f5bd 9392 fe3c
00000340: 7a0b 06be 34dc 873c 4214 cb3d 39b6 53bd
00000350: 8dd0 ef3d dc03 dd3c d2ad 54be cb98 49bd
00000360: 9158 97bd 348b 5a3d f87b 293e 224d 893c
00000370: b051 93bd 43cd 1e3d f7a2 a0bb a704 eb3d
00000380: 7afa 0dbd d8e5 ba3d 4c13 7c3e 1f79 49be
00000390: d25c a3bd ad59 a9bd 4776 833d d859 cf3d
000003a0: 78e0 6f3c 1fc5 10be c713 ef3d efcf b13d
000003b0: 34c7 32be ae75 16be 551f 00be 81db 8e3d
000003c0: dc29 0b3e 8b16 083e 372a 85be 21a8 ab3a
000003d0: 062d 283e cc24 9f3d 5280 f23d cc86 09be
000003e0: bc0b a93d feb7 b03d e28c 8c3d 8fd0 453e
000003f0: 0a45 5c3d ffe3 41bd 5a6b 8abe d97a 303d

net.2.bias f4 [64]
0.20041654 -0.20178264 0.20556135 -0.033330835 -0.13407597 0.03366219 -0.047937036 -0.10366828
0.2263576 0.0066180285 0.016714944 -0.07758305 -0.09645553 0.10141337 0.19672103 0.16752768
0.094391294 -0.025021106 0.007251992 -0.076691106 -0.14433092 -0.015150017 0.079775654 -0.019954449
0.08431071 0.18039048 0.1594619 0.1526796 -0.013438196 0.11713226 0.027334528 0.13781767
0.059334308 0.16733557 -0.053883977 0.18412226 0.09171426 0.13825916 0.0015730563 -0.113670975
0.18509978 0.004049036 0.015432072 0.10043634 0.044149246 -0.15720753 0.20433539 0.09659447
-0.16719118 -0.03676337 0.013314153 0.028230142 0.06981285 0.13372429 -0.08052856 -0.14213641
-0.06204363 -0.06880343 0.16917257 -0.09402094 0.11524332 -0.05451944 -0.07631798 0.22616673
00000000: fe39 4d3e 1ca0 4ebe ad7e 523e ea85 08bd
00000010: 364b 09be 5de1 093d a059 44bd 0950 d4bd
00000020: 49ca 673e 0cdc d83b c7ed 883c dde3 9ebd
00000030: 7a8a c5bd d0b1 cf3d 3d71 493e 608c 2b3e
00000040: 3950 c13d 10f9 ccbc 1ea2 ed3b 3a10 9dbd
00000050: 7ccb 13be c737 78bc 6b61 a33d 8377 a3bc
00000060: 18ab ac3d 48b8 383e fb49 233e 0b58 1c3e
00000070: e12b 5cbc 0ae3 ef3d a9ec df3c 1320 0d3e
00000080: 8808 733d 045a 2b3e 72b5 5cbd 8c8a 3c3e
00000090: b0d4 bb3d cf93 0d3e 032f ce3a 54cc e8bd
000000a0: cc8a 3d3e c7ad 843b cdd6 7c3c 91b1 cd3d
000000b0: d7d5 343d 03fb 20be 4c3d 513e 52d3 c53d
000000c0: 2a34 2bbe 3095 16bd 9b23 5a3c e642 e73c
000000d0: 0afa 8e3d 05ef 083e 28ec a4bd 358c 11be
000000e0: 7621 7ebd d0e8 8cbd 933b 2d3e 0d8e c0bd
000000f0: b104 ec3d c74f 5fbd 9a4c 9cbd 4098 673e

net.4.weight f4 [64, 64]
0.0018561388 -0.02143643 0.002735786 -0.079438366 0.048490062 0.005661273 0.24943174 -0.14722455
0.014190579 0.079424195 -0.16337109 -0.16500802 -0.09063667 0.038088348 0.071317844 0.007486539
0.020004855 0.33186525 0.019417284 -0.19073698 -0.10766172 -0.0069731376 0.18195875 0.051022466
0.036178768 0.055642784 0.09172359 0.0144502325 0.10745189 -0.18568163 0.12710713 0.08760276
-0.06914834 0.018990256 0.04016895 0.121224605 -0.17161821 0.14166826 -0.031981073 0.17443179
-0.10293075 -0.0994537 -0.026071643 -0.035254654 -0.110620126 -0.14321342 0.040184673 0.18830203
0.053575523 -0.1466665 0.13764828 0.060289234 0.036221247 0.08953698 0.13444959 0.019508395
-0.06091888 0.1417389 0.054550964 0.03457774 -0.21594484 0.012473859 0.07843792 -0.047262095
0.088042796 -0.061681278 -0.090018556 0.016736902 0.032194823 0.18578425 -0.068688676 -0.0674673
0.0669884 -0.18056148 0.20092927 0.03838698 -0.033407822 0.03134051 -0.0044507417 -0.041300822
0.016947895 -0.12353521 0.03769823 0.05786362 0.06357378 0.3453379 -0.060081724 0.049505983
0.07929458 -0.12322446 0.12028617 -0.11907267 -0.04944596 -0.11395321 0.0437498 -0.024365371
0.018328667 -0.0037235674 0.042329278 0.07825405 0.11051325 -0.08501154 -0.06765787 -0.010351517
0.119658254 0.083918266 0.044518005 0.072292045 -0.18434295 -0.03862113 0.028086215 -0.21739689
-0.01118541 -0.036610797 0.024059426 -0.038720217 -0.006400967 0.07522478 -0.10511795 0.019621903
-0.025086159 0.012408371 -0.066287324 0.11870921 -0.003575085 -0.004882286 0.0017670025 -0.04017531
0.14610115 0.107093394 0.08396752 -0.0165054 -0.053271156 0.0106051 0.12209663 -0.1669607
0.014733221 -0.029859014 0.058973633 0.03417311 -0.07623693 -0.113252215 0.20343883 0.09236277
-0.0887003 0.14890209 -0.13663107 0.011242298 0.014367521 0.118474446 -0.07137691 -0.003925598
-0.0062277247 -0.06484266 -0.1388177 -0.07394907 -0.008884716 -0.049337313 0.112053655 0.039633546
-0.055326305 0.011904 0.11183651 0.006352361 -0.004186052 0.042807415 0.093978904 -0.031985264
0.08002724 0.0121804075 -0.0021433264 0.027838077 -0.12164526 -0.070143096 0.07092638 -0.04758903
-0.08969883 -0.18360262 0.013937334 0.09186137 0.075794496 -0.07274739 -0.09637231 -0.03938219
0.08689214 0.111935735 0.0143420575 0.027755821 -0.029333184 -0.16230665 0.06746734 0.15624455
0.07764091 0.19918233 0.15282333 -0.09106867 -0.107252985 0.10586655 -0.019966146 0.07962457
0.019140517 -0.012553826 0.16006431 -0.18225417 -0.079244375 0.020163562 0.2776161 0.070858054
-0.08760364 -0.09962845 0.10650949 0.11592584 -0.14269704 0.08550184 0.094699316 -0.121665366
0.13021916 -0.036962606 -0.029474445 -0.050301317 -0.01616673 0.010741606 0.060387418 0.061822284
0.11379884 -0.13266999 -0.017584026 0.10409364 -0.028664818 -0.030996349 0.046938773 -0.02864503
0.10872128 -0.08752907 0.19536111 0.14234476 -0.18647197 -0.018972736 0.06800744 0.021061841
-0.09308589 0.035711296 0.14449733 0.11043458 -0.11162591 0.05373357 0.09100417 -0.1302442
0.0031367843 0.08848094 0.05648168 0.1455465 0.072936706 0.11778358 0.06593499 0.0835264
00000000: af49 f33a 749b afbc df4a 333b 95b0 a2bd
00000010: 849d 463d 3382 b93b 096b 7f3e 08c2 16be
00000020: 9a7f 683c 27a9 a23d c04a 27be ddf7 28be
00000030: b89f b9bd 8702 1c3d 170f 923d a451 f53b
00000040: 39e1 a33c 3eea a93e ff10 9f3c 8e50 43be
00000050: bf7d dcbd eb7e e4bb 6553 3a3e effc 503d
00000060: 3030 143d b0e9 633d 94d9 bb3d abc0 6c3c
00000070: bd0f dc3d 5323 3ebe 5f28 023e 1369 b33d
00000080: a59d 8dbd 7491 9b3c 3288 243d 9b44 f83d
00000090: afbc 2fbe 7c11 113e 96fe 02bd 3f9e 323e
000000a0: 5bcd d2bd 62ae cbbd 3394 d5bc 2f67 10bd
000000b0: ce8c e2bd 8aa6 12be af98 243d 3fd2 403e
000000c0: 0272 5b3d be2f 16be acf3 0c3e d8f1 763d
000000d0: bb5c 143d 2a5f b73d 27ad 093e 12d0 9f3c
000000e0: 1386 79bd 0124 113e d570 5f3d 63a1 0d3d
000000f0: a520 5dbe 285f 4c3c 0fa4 a03d e695 41bd
00000100: c84f b43d 82a5 7cbd a65b b8bd d41b 893c
00000110: b8de 033d 3a3e 3e3e a6ac 8cbd 4c2c 8abd
00000120: 3731 893d 1ce5 38be 67c0 4d3e aa3b 1d3d
00000130: a4d6 08bd e85e 003d 87d7 91bb 0d2b 29bd
00000140: 50d6 8a3c 0700 fdbd 7669 1a3d 6702 6d3d
00000150: f832 823d 21d0 b03e 4118 76bd c9c6 4a3d
00000160: 3265 a23d 1b5d fcbd 9858 f63d 5fdc f3bd
00000170: d987 4abd 4d60 e9bd fe32 333d e399 c7bc
00000180: 0026 963c 1807 74bb 7761 2d3d a943 a03d
00000190: c554 e23d 881a aebd 3690 8abd 6999 29bc
000001a0: 630f f53d 57dd ab3d 8358 363d da0d 943d
000001b0: 66c4 3cbe 3131 1ebd 1015 e63c 4a9d 5ebe
000001c0: 0343 37bc 34f5 15bd 4618 c53c 1799 1ebd
000001d0: 34bf d1bb 730f 9a3d 1448 d7bd 1dbe a03c
000001e0: 7d81 cdbc 7b4c 4b3c a6c1 87bd d01d f33d
000001f0: f94b 6abb 95fb 9fbb c49a e73a de8e 24bd
00000200: 8a9b 153e c853 db3d 2af7 ab3d 5536 87bc
00000210: db32 5abd 03c1 2d3c cc0d fa3d bff7 2abe
00000220: 9c63 713c e49a f4bc 568e 713d 1af9 0b3d
00000230: 1c22 9cbd c7f0 e7bd 4552 503e b128 bd3d
00000240: 81a8 b5bd ca79 183e 04e9 0bbe 9e31 383c
00000250: c065 6b3c bba2 f23d 0f2e 92bd 4ea2 80bb
00000260: f111 ccbb 3bcc 84bd 3a26 0ebe 9c72 97bd
00000270: 3391 11bc ec15 4abd 637c e53d c956 223d
00000280: d69d 62bd ff08 433c 8a0a e53d 7727 d03b
00000290: 262b 89bb d456 2f3d 0378 c03d fb02 03bd
000002a0: 52e5 a33d 5590 473c 0d77 0cbb ae0c e43c
000002b0: 2621 f9bd 2fa7 8fbd da41 913d b7ec 42bd
000002c0: 05b4 b7bd 5302 3cbe 6a59 643c d021 bc3d
000002d0: 253a 9b3d 95fc 94bd d85e c5bd 384f 21bd
000002e0: 82f4 b13d 903e e53d f3fa 6a3c 2d60 e33c
000002f0: 254c f0bc b733 26be 512c 8a3d 92fe 1f3e
00000300: 3302 9f3d 74f6 4b3e b87d 1c3e 3682 babd
00000310: 74a7 dbbd 90d0 d83d 0b90 a3bc 3512 a33d
00000320: 93cc 9c3c 90ae 4dbc e6e7 233e d6a0 3abe
00000330: e04a a2bd 0e2e a53c b323 8e3e 071e 913d
00000340: 8a69 b3bd 000a ccbd a621 da3d 876a ed3d
00000350: 2c1f 12be 971b af3d b7f1 c13d b12b f9bd
00000360: 2c58 053e 1a66 17bd 6474 f1bc c108 4ebd
00000370: 1770 84bc 90fd 2f3c cc58 773d 5d39 7d3d
00000380: 5e0f e93d a4da 07be 600c 90bc 0c2f d53d
00000390: 7bd2 eabc 0eec fdbc df42 403d fba8 eabc
000003a0: 43a9 de3d 7142 b3bd be0c 483e d3c2 113e
000003b0: 82f2 3ebe b66c 9bbc 7c47 8b3d e289 ac3c
000003c0: d1a3 bebd 0246 123d 1cf7 133e 862b e23d
000003d0: 209c e4bd bb17 5c3d 6560 ba3d bc5e 05be
000003e0: 8292 4d3b 7f35 b53d 5659 673d 240a 153e
000003f0: d75f 953d 8538 f13d ed08 873d e40f ab3d

net.4.bias f4 [64]
-0.088509075 0.050556365 0.055546366 0.12973335 0.09693403 -0.048612908 -0.07091104 -0.03272769
0.09996717 0.14753056 -0.036620118 0.00476804 0.07066704 0.013762472 0.109724924 -0.0023954576
0.07735613 -0.034646835 -0.065231174 -0.03137489 -0.05201772 0.023453794 -0.0039523714 -0.08377339
-0.11339943 -0.028610295 -0.0051904866 -0.06656549 0.01236636 0.036067095 0.1240012 0.0648913
-0.06466184 0.10665778 -0.026446087 0.09691967 0.12887013 0.12852825 -0.11904721 -0.024463164
-0.06431476 -0.018176721 0.105643064 0.113481276 0.047039665 -0.059717633 -0.11163734 0.06727355
-0.05577944 0.021499593 0.10224182 0.091239 0.12221048 -0.07224537 -0.09624174 -0.1032735
0.09399048 -0.06571932 -0.07946248 -0.019493481 -0.012771994 0.041623328 0.10651765 -0.053452015
00000000: 3f44 b5bd 3114 4f3d 9684 633d d2d8 043e
00000010: 5985 c63d 541e 47bd cf39 91bd 780d 06bd
00000020: 96bb cc3d 4012 173e fafe 15bd 383d 9c3b
00000030: e2b9 903d fe7b 613c 76b7 e03d 1cfd 1cbb
00000040: e46c 9e3d d7e9 0dbd ec97 85bd f582 00bd
00000050: 8810 55bd 2c22 c03c e582 81bb 6291 abbd
00000060: f63d e8bd 2360 eabc f514 aabb 7d53 88bd
00000070: 469c 4a3c 17bb 133d 57f4 fd3d bbe5 843d
00000080: 6d6d 84bd 656f da3d 77a5 d8bc d27d c63d
00000090: 88f6 033e e99c 033e 06cf f3bd f966 c8bc
000000a0: 75b7 83bd 59e7 94bc 645b d83d df68 e83d
000000b0: aaac 403d 7a9a 74bd 1ea2 e4bd b7c6 893d
000000c0: fb78 64bd ea1f b03c 2964 d13d 83db ba3d
000000d0: 7d49 fa3d 61f5 93bd 641a c5bd 0f81 d3bd
000000e0: 157e c03d da97 86bd 3abd a2bd cbb0 9fbc
000000f0: a041 51bc 397d 2a3d ed25 da3d 80f0 5abd

net.6.weight f4 [14, 64]
-0.06662594 -0.08707788 0.06630635 0.089436375 0.0055212136 0.11597833 0.18544824 0.016815294
-0.04689969 0.011047699 -0.12452607 0.10036841 0.18322667 0.09752139 -0.058526807 -0.13046347
-0.13401172 0.10345222 -0.12266368 -0.046211485 0.04906683 -0.12324705 -0.08562983 0.022987502
0.017813426 0.087128125 0.11924285 -0.0827554 0.1685143 0.008398832 0.14872313 -0.07069618
-0.135515 -0.0068250806 -0.0553556 -0.017242612 -0.0802535 0.1261354 -0.07293437 -0.14860919
0.07634332 -0.14830358 0.06329766 0.17822078 -0.093525134 0.02235136 -0.01252573 0.11392936
-0.04964587 0.271659 -0.18419069 -0.11407847 0.08432476 -0.060631473 -0.0951104 -0.15175568
-0.06709699 0.033530727 -0.059609305 0.027684331 0.09537496 -0.11496418 -0.022418793 -0.08242722
0.0763705 0.04256963 0.15900478 -0.07752537 -0.07831082 -0.02355193 0.10218518 0.0151312845
-0.049862597 -0.07454519 -0.02006412 -0.06860675 0.05311279 0.035584267 -0.074085325 0.1647401
-0.12580097 -0.09085733 -0.0356024 -0.23008572 -0.07848423 0.04584902 -0.1124053 0.120182626
-0.10208679 0.036986787 0.12208303 -0.12068342 0.03460059 0.054348696 0.016176948 0.13598
0.011477156 0.043450516 0.14100666 -0.06028865 0.09739281 -0.112616025 0.017502727 0.058744576
-0.036194004 -0.010565855 0.12604634 -0.026638059 0.058287174 0.26231724 -0.2643298 0.0072863623
-0.12411885 -0.13086547 -0.08496724 0.1291005 0.025824333 0.041635767 -0.012234971 0.13958843
0.08491417 -0.094725356 0.026815344 0.19041787 -0.09147377 -0.08809893 0.045148037 -0.009184554
-0.056741502 0.011410919 0.012526094 -0.018606305 0.035134345 -0.066145554 -0.0454577 -0.12032879
0.10518691 -0.010644528 -0.19719529 -0.03150417 -0.017854905 -0.058784693 0.12604421 -0.049480077
0.023300985 0.07583342 0.16512175 -0.020135628 -0.032715607 0.0019216054 0.10456343 0.020610899
-0.1448934 -0.03375169 -0.12416668 -0.1727746 -0.049366355 -0.0039787316 -0.089074835 0.086473726
0.09204266 -0.12544353 -0.10313107 0.1197257 -0.034515627 0.072611615 0.03990459 0.10872776
-0.014460417 -0.055768978 0.11465053 -0.057678528 0.14185731 -0.027067207 0.051458072 0.020481478
0.14505301 0.1600446 -0.030108092 0.06553182 -0.114738755 -0.022779744 0.0106548965 -0.038731936
0.08428722 -0.08533706 0.15121686 0.14802592 0.02992323 0.042207684 0.11831226 -0.051367134
-0.016496856 -0.047369666 0.022700273 -0.15243682 -0.07237518 -0.037219055 0.21151233 -0.06696474
0.09934701 -0.11505206 0.020751216 0.022276388 -0.08859263 0.0034294748 -0.09979677 0.08881747
-0.14191794 0.10426071 -0.12818076 0.022857476 -0.02009264 0.045795307 0.0816262 0.15724677
0.07402437 -0.13474831 -0.12615009 0.17415972 0.21200295 0.05450968 0.14205039 0.030038176
0.09598691 0.07415902 0.09332437 -0.11007025 -0.15316536 0.15254082 0.039619002 -0.16002579
-0.15078434 -0.17146504 0.1299506 0.004223616 0.102392845 -0.019299587 0.054507326 -0.042319022
0.0572304 0.13633421 0.08801948 -0.0072298846 0.07808737 -0.024588123 0.08357775 -0.23942703
0.011213314 -0.015414685 0.01926723 -0.35316107 0.024618506 0.093722895 0.08386298 0.033809662
00000000: 2e73 88bd e355 b2bd a0cb 873d 6b2a b73d
00000010: 4ceb b43b 0c86 ed3d 25e6 3d3e 3ac0 893c
00000020: e419 40bd 6801 353c 8607 ffbd f48d cd3d
00000030: c69f 3b3e 4bb9 c73d ceb9 6fbd 3798 05be
00000040: 5e3a 09be c2de d33d 1837 fbbd 4148 3dbd
00000050: 4dfa 483d f368 fcbd b15e afbd 4950 bc3c
00000060: 76ed 913c 3b70 b23d 9835 f43d aa7b a9bd
00000070: 038f 2c3e 419b 093c e04a 183e 29c9 90bd
00000080: 72c4 0abe eda4 dfbb 8ebc 62bd 6140 8dbc
00000090: f25b a4bd a329 013e 9d5e 95bd 022d 18be
000000a0: e359 9c3d e5dc 17be 34a2 813d 827f 363e
000000b0: 1b8a bfbd 331a b73c b838 4dbc cc53 e93d
000000c0: 7859 4bbd e316 8b3e 7c9c 3cbe f9a1 e9bd
000000d0: 76b2 ac3d b558 78bd 3ec9 c2bd d765 1bbe
000000e0: 266a 89bd 8457 093d e328 74bd 40ca e23c
000000f0: f253 c33d 5772 ebbd 9ea7 b7bc 9acf a8bd
00000100: 2368 9c3d 7e5d 2e3d 26d2 223e 9fc5 9ebd
00000110: 6c61 a0bd faef c0bc 7746 d13d 35e9 773c
00000120: b93c 4cbd 26ab 98bd 825d a4bc b281 8cbd
00000130: cc8c 593d cfc0 113d 0cba 97bd a1b1 283e
00000140: f8d1 00be 6813 babd d2d3 11bd 979b 6bbe
00000150: 57bc a0bd 2fcc 3b3d c034 e6bd 4f22 f63d
00000160: e112 d1bd 757f 173d ab06 fa3d de28 f7bd
00000170: 59b9 0d3d bd9c 5e3d 8585 843c 573e 0b3e
00000180: ae0a 3c3c 2bf9 313d 0d64 103e 3bf1 76bd
00000190: e275 c73d 3ba3 e6bd e161 8f3c 279e 703d
000001a0: 2a40 14bd 681c 2dbc 4b12 013e 0f38 dabc
000001b0: 88be 6e3d 724e 863e 3c56 87be 70c2 ee3b
000001c0: 0632 febd 9901 06be 4e03 aebd ec32 043e
000001d0: 8d8d d33c 448a 2a3d 3075 48bc 45f0 0e3e
000001e0: 7be7 ad3d 5eff c1bd daab db3c e7fc 423e
000001f0: 9a56 bbbd 366d b4bd 26ed 383d d07a 16bc
00000200: c769 68bd ddf4 3a3c 3f3a 4d3c 406c 98bc
00000210: 08e9 0f3d 5277 87bd da31 3abd f16e f6bd
00000220: 3c6c d73d 6366 2ebc 90ed 49be 840a 01bd
00000230: 7344 92bc 38c8 70bd bc11 013e 9fab 4abd
00000240: b5e1 be3c 8d4e 9b3d ad15 293e 79f3 a4bc
00000250: cd00 06bd 61de fb3a 5a25 d63d 30d8 a83c
00000260: ef5e 14be 363f 0abd 1a4b febd d3eb 30be
00000270: 6034 4abd 0560 82bb de6c b6bd 2319 b13d
00000280: dd80 bc3d 4574 00be 6236 d3bd bf32 f53d
00000290: 4260 0dbd 66b5 943d ff72 233d a9ac de3d
000002a0: 63eb 6cbc 036e 64bd e6cd ea3d 5240 6cbd
000002b0: 0b43 113e 0cbc ddbc b3c5 523d c6c8 a73c
000002c0: c788 143e bbe2 233e 3fa5 f6bc 8c35 863d
000002d0: 27fc eabd 969c babc e091 2e3c 61a5 1ebd
000002e0: c79e ac3d 32c5 aebd 98d8 1a3e 1b94 173e
000002f0: 9021 f53c f7e1 2c3d b34d f23d 5866 52bd
00000300: 6a24 87bc b206 42bd ecf5 b93c 6618 1cbe
00000310: 7039 94bd 0273 18bd b096 583e cf24 89bd
00000320: 7276 cb3d 6aa0 ebbd 74fe a93c f97c b63c
00000330: 0e70 b5bd 0ac1 603b 4062 ccbd efe5 b53d
00000340: f052 11be a486 d53d d141 03be 9a3f bb3c
00000350: 5299 a4bc dc93 3b3d a32b a73d 4c05 213e
00000360: 179a 973d 76fb 09be 7d2d 01be ed56 323e
00000370: 4d17 593e 8b45 5f3d a875 113e 9f12 f63c
00000380: c994 c43d afe0 973d d920 bf3d 836c e1bd
00000390: 61d7 1cbe a933 1c3e 8947 223d cddd 23be
000003a0: 3667 1abe 8894 2fbe c511 053e 4266 8a3b
000003b0: 57b3 d13d 2b1a 9ebc 1343 5f3d b656 2dbd
000003c0: 6d6a 6a3d 329b 0b3e 8f43 b43d abe8 ecbb
000003d0: 45ec 9f3d 086d c9bc d02a ab3d 5c2c 75be
000003e0: 0cb8 373c e08d 7cbc 4fd6 9d3c 87d1 b4be
000003f0: c0ac c93c caf1 bf3d 5bc0 ab3d 007c 0a3d

net.6.bias f4 [14]
0.07500551 -0.10333904 -0.09330071 0.028693525 -0.11398559 0.004545092 -0.09333886 -0.032370053
-0.024227034 0.055964243 -0.023259217 -0.040228363 -0.10907564 0.13611381
00000000: 7d9c 993d 6ba3 d3bd 7114 bfbd af0e eb3c
00000010: 4771 e9bd ffee 943b 7228 bfbd 7696 04bd
00000020: c677 c6bc c33a 653d 1d8a bebc 7fc6 24bd
00000030: 0d63 dfbd 6b61 0b3e
