NN_PEM_v8s_5class_v21.pth (torch, 62866 bytes, 12 tensors)

net.0.weight f4 [16, 5]
000000 ac 0c d8 3e 10 ce cc 3e 25 e7 8c be 85 3f b0 3e
       0.42197168 0.40000963 -0.275201 0.34423462
000010 08 65 8a bd 76 a9 bb 3d a7 8a ae bd bf 8c a1 3e
       -0.067575514 0.091631815 -0.085225396 0.31552693
000020 66 90 03 3f ac d1 bf be a6 88 a4 3e 06 d1 6b 3d
       0.5139221 -0.37464654 0.32135504 0.057572387
000030 42 fd 1b 3f f8 ec 09 3c 6f 37 c9 3d 7e 2b 56 be
       0.60933316 0.008418314 0.09825026 -0.20915028
000040 63 c7 dc 3e ec 74 0d 3e c9 47 97 be 6e a8 39 3d
       0.4312087 0.13814133 -0.29546955 0.045326643
000050 3e cb f9 bd 43 92 ee bd 32 fb 84 be f7 56 c6 3e
       -0.121969685 -0.11648991 -0.25972897 0.38738224
000060 65 82 bc be 26 40 43 be 47 34 81 bd 32 38 8c be
       -0.36818233 -0.1906744 -0.06308799 -0.27386624
000070 27 61 be bd fd 9e 0c bf 18 c8 d9 3e c4 d5 d2 be
       -0.09295874 -0.54930097 0.42535472 -0.41178715
000080 cf ca 8e 3e 99 62 29 3e 87 5e 6d be 17 45 89 3e
       0.27889106 0.16541518 -0.2318059 0.26810524
000090 49 5c 8a 3c 6c c4 f0 3e 09 db e9 b9 8c 7e 47 be
       0.016889708 0.47024858 -0.00044604417 -0.19481868
0000a0 96 c7 01 3e fe 66 a0 be 97 af aa 3e 66 e9 e2 3e
       0.12673792 -0.31328577 0.3333709 0.44318694
0000b0 71 40 80 3e 6c 42 68 be 75 08 99 3e 6f fb 51 3e
       0.25049165 -0.22681588 0.29889265 0.2050607
0000c0 2b 2d 75 3e a2 6e cc be 52 e2 06 bf b3 f0 37 be
       0.23943011 -0.39928156 -0.5268909 -0.17962913
0000d0 03 c6 ef be 00 15 ce 3e a2 34 38 3e ae 1a 5d 3e
       -0.46830758 0.40250397 0.17988828 0.21592209
0000e0 7a bf dd 3d ab 3d 73 bd d7 f3 87 3e 9e 79 e4 be
       0.10827537 -0.059384983 0.26553223 -0.44624037
0000f0 60 8b ac 3d 39 1b d3 be c7 6e e4 3d 1f e6 57 be
       0.08425021 -0.41231707 0.111539416 -0.21083878
000100 5d f1 ac 3d b0 25 db bd 89 d6 c5 3e 21 ed 83 be
       0.08444474 -0.10700548 0.3864024 -0.25766852
000110 4a f2 84 be ea 95 ad be 8e be d0 3e 8e d5 20 3e
       -0.25966102 -0.33903438 0.40770382 0.15706465
000120 d4 22 08 3f 79 67 ab be fc 90 06 bf 6f ac d3 be
       0.53178144 -0.3347738 -0.5256498 -0.41342494
000130 40 f2 f8 be 6c 33 3c 3e a7 c6 20 3e d8 3a aa 3e
       -0.48622322 0.18378991 0.1570078 0.3324802

net.0.bias f4 [16]
000000 a9 d1 43 be dc 1b 8b be e5 50 bc 3e aa 8f f1 bd
       -0.19122948 -0.27169693 0.36780468 -0.1179498
000010 e8 89 51 3e fb 90 58 bc d6 1f a5 3e 5e eb 9f be
       0.20462763 -0.01321816 0.3225085 -0.31234258
000020 9a 5a 59 bd 6e 3f 91 3e 81 bc 34 3e 9e 79 2c bc
       -0.05306492 0.28368706 0.17650034 -0.010527043
000030 ef 45 b5 3e ae aa a5 3e 66 84 95 be 84 a4 28 be
       0.35404918 0.3235678 -0.29202574 -0.16469008

net.2.weight f4 [64, 16]
000000 07 19 85 3e 65 7d 02 be a1 ef 9f bd 48 e4 55 be
       0.25995657 -0.12743147 -0.078093775 -0.20887864
000010 b6 bc d4 bd 5d 87 06 3e 63 32 a1 bc 20 68 3a be
       -0.10387556 0.13137574 -0.019677347 -0.18203783
000020 d4 60 54 bc fc 2e 19 be aa 94 27 be 2b 2c e8 bd
       -0.012962539 -0.1495933 -0.16365305 -0.11336549
000030 2d fa 64 be d0 85 9b bd 10 22 88 3e 70 68 41 3d
       -0.2236106 -0.07593882 0.26588488 0.04721874
000040 1c c7 9d 3d 66 c4 6e be 54 22 28 be 14 6c aa bd
       0.07703993 -0.23317108 -0.16419345 -0.083213955
000050 c0 1f 20 3d 86 42 61 be 64 9b dc bd 58 42 19 be
       0.03909278 -0.21998033 -0.10771826 -0.14966714
000060 00 9e 35 3a 50 84 be bd f0 ea 8d bc 24 79 2d be
       0.0006928146 -0.0930258 -0.017323941 -0.16940743
000070 98 b7 2f be d2 59 15 be 9c 41 af bd 50 0e 4a be
       -0.17159879 -0.14585045 -0.08557436 -0.19732022
000080 bb 1a 82 3e 17 d5 de bd 93 6c 91 3e 80 e6 d7 3d
       0.2541102 -0.108804874 0.28403148 0.10542011
000090 30 17 a0 be 01 c4 fb 3d 21 a9 1e bd 36 ad 4b bd
       -0.3126769 0.12293244 -0.038735513 -0.049725734
0000a0 fa 28 ba be d8 c9 1e be f5 35 a9 3d 86 6a 99 bd
       -0.36359388 -0.15506685 0.082622446 -0.07491021
0000b0 85 b6 d5 3d 52 f5 43 be 75 53 6c 3e ee 17 55 be
       0.104352035 -0.19136551 0.23078711 -0.2080991
0000c0 ef 74 f7 bd 19 20 de 3d 25 e6 a4 3d 2e 03 33 3e
       -0.1208285 0.10845966 0.08051709 0.17481682
0000d0 d5 4a 7e 3e 1e 1a 7a be df 8e 3b 3d 11 5e 14 be
       0.24833234 -0.24424025 0.04579055 -0.14489008
0000e0 ce 7f 51 bd 0d de 65 be 78 b8 88 3e bb 1f 2a be
       -0.051147275 -0.22447987 0.26703238 -0.16613667
0000f0 df fe 1f 3e d7 2d 82 3d 71 59 8d 3d fb 42 36 bd
       0.1562457 0.063563995 0.06901825 -0.04449747
000100 a8 35 9b 3e f3 ad 29 bd 45 0d 04 bc b9 86 65 be
       0.30314374 -0.041425657 -0.008059804 -0.22414674
000110 9d 7b 00 3e 24 32 07 bd c2 5f 7b bd 29 0a 6a 3e
       0.12547155 -0.033006802 -0.06137062 0.22855438
000120 b2 df 10 bd 3b 4b 7d be 75 2e 37 be 24 71 43 3d
       -0.035369582 -0.2473573 -0.17888816 0.04771532
000130 0a c9 6a 3e 61 49 3e bd 1e 0e 09 be f3 d0 db bd
       0.22928253 -0.0464567 -0.13384292 -0.10733213
000140 88 66 68 be 6a a4 5c 3e 67 88 78 3e 20 e2 56 be
       -0.22695363 0.21547094 0.24270783 -0.20984697
000150 29 3a fa 3d 76 24 3a 3e d8 5d c6 3d 78 08 46 be
       0.122181244 0.18177971 0.09685868 -0.19339168
000160 2e b8 87 3e 67 61 3c 3e ee 37 14 3e 27 4a df 3c
       0.26507705 0.18396531 0.1447446 0.027257038
000170 2a f1 3d bc 5a d0 d8 3c 41 a3 21 be 38 1e af 3c
       -0.0115931425 0.026466537 -0.15784933 0.021376714
000180 93 7a 39 3e a2 f0 79 3e 04 88 6b bd e8 ab e1 ba
       0.18113165 0.244082 -0.05750276 -0.001721737
000190 10 45 f3 3c 1a d6 29 3d 1b 08 be 3d 6f e8 99 3d
       0.029696018 0.04146395 0.0927889 0.07515036
0001a0 06 2b 83 be e5 88 57 bd bf 99 69 3e 5c 92 b3 3d
       -0.25618762 -0.052620787 0.22812556 0.0876815
0001b0 7c 4a 0f 3d 66 09 ad bd d7 14 19 be f3 2c 97 be
       0.034983143 -0.08449058 -0.14949356 -0.2952648
0001c0 01 5a 43 3c 41 9d 64 3d a3 86 52 3e 44 98 fa 3d
       0.011923314 0.05581403 0.20559172 0.122360736
0001d0 70 e1 6f be ca c4 26 be 69 17 5f bc 51 ef 7f 3e
       -0.23425841 -0.16286007 -0.013616421 0.24993636
0001e0 4d 73 6c bb 2f 4f 98 bd e7 d8 d4 3d 7a ba a0 bd
       -0.0036079467 -0.07436978 0.10392933 -0.078480676
0001f0 f7 9f e4 bd a7 e5 5e 3e 63 be b3 bd 97 82 99 bd
       -0.111633234 0.21767293 -0.08776548 -0.07495611
000200 49 3b 77 be c7 5e 5d 3e 98 e4 85 3e 7d c4 a8 3d
       -0.24143709 0.21618186 0.26150966 0.08240602
000210 ea ec f9 bd 95 36 8e be a2 64 18 be 71 38 34 3e
       -0.12203391 -0.27776018 -0.14882138 0.17599656
000220 ba 76 3c 3e fb 70 85 3e e9 e0 1e 3e 59 64 04 3e
       0.18404666 0.2606276 0.15515484 0.12928905
000230 ba f1 4d 3d 6b f7 45 be de fa 66 be 5b 63 20 be
       0.050279357 -0.19332664 -0.22556636 -0.15662901
000240 cd 7b d3 3d c2 70 8c bd 9d c0 91 bb 6c 08 03 be
       0.103263475 -0.06857444 -0.00444801 -0.12796181
000250 b5 03 f1 bc 28 5b 4b be 7b 5c 0f be 6a 68 2f 3c
       -0.029420713 -0.19858992 -0.14000122 0.010706047
000260 a7 71 6e 3c 93 66 68 3e 13 8a a7 bd 29 a4 0b be
       0.014553464 0.22695379 -0.081806324 -0.13636841
000270 0f 52 3f 3d 3e 46 4e bd dd 8b c2 bd 09 6d c5 bd
       0.046709117 -0.050359957 -0.09499333 -0.096399374
000280 48 98 34 3e ef f8 18 be a9 91 73 3e e3 a3 0b 3e
       0.17636216 -0.1493871 0.23786034 0.13636737
000290 15 21 11 3e 9f b9 45 be e4 b2 49 3e c2 97 65 bd
       0.14172776 -0.1930909 0.19697148 -0.05605293
0002a0 06 e9 62 3e 89 66 8d 3e 3e bf 6b bd 63 33 ce 3c
       0.22159204 0.2761729 -0.05755543 0.025170987
0002b0 b3 f9 0e bd 38 98 55 be f0 ba 30 3e 75 a5 27 be
       -0.0349061 -0.20858848 0.17258811 -0.1637171
0002c0 42 ea 51 3e 9c 6d 01 3e 2e 9e 6d 3e 01 97 3a bb
       0.20499519 0.12639469 0.23204872 -0.0028471353
0002d0 40 0d 44 be e2 03 b5 3c 89 14 01 3e 2a 27 a3 be
       -0.1914568 0.022096578 0.1260549 -0.31865817
0002e0 ef 72 e7 bb 7c 8f b4 bd 8e c2 9a 3c 4b fd 85 bd
       -0.0070632617 -0.0881643 0.018891599 -0.065424524
0002f0 6c f0 b2 bd c3 97 26 3c b5 d3 71 be 8a 58 97 3e
       -0.08737263 0.010168019 -0.23615916 0.29559737
000300 99 97 93 3e 42 7b 8c bd 1f 24 02 bc 15 b2 48 bd
       0.28826597 -0.06859447 -0.007943182 -0.048997957
000310 ba 66 55 be b4 12 89 be 20 eb 08 3e f2 69 38 be
       -0.20839968 -0.26772082 0.13370943 -0.18009165
000320 77 e8 f5 bd 4d 72 6c bc df fa ce bc 10 83 ac bd
       -0.1200723 -0.014431548 -0.025266109 -0.08423436
000330 ed 11 b3 3d 42 45 ba bc 20 a4 dc bd 66 aa 3f bd
       0.087436534 -0.022738103 -0.10773492 -0.046793364
000340 80 f4 5b be 07 18 89 3e f0 3e ea bd 47 76 87 3d
       -0.21479988 0.26776144 -0.114377856 0.066143565
000350 e0 ec 49 bd 20 10 b7 3d fd 3e 80 3e 55 49 39 3e
       -0.049298167 0.089386225 0.25048056 0.1809438
000360 a1 2b 8a be 2d ee 29 3e e8 e3 7e 3e 65 26 58 3d
       -0.2698641 0.16594763 0.24891627 0.05277099
000370 f5 53 32 3e d6 5d 8c 3e 9a 2d 12 3c 2d 53 93 bd
       0.1741484 0.2741534 0.008922005 -0.07193599
000380 fa 41 1c be bb 2e 93 bc 54 2f 9f 3e eb ac 23 3e
       -0.15259543 -0.017966619 0.31090796 0.15983932
000390 81 92 ed bd 5f c5 2b be 39 1c 26 be 8a 7b 60 be
       -0.11600209 -0.1677451 -0.16221704 -0.21922126
0003a0 8d af 12 be ef 72 07 3c b6 32 80 3e 4e 54 81 3b
       -0.1432478 0.008267148 0.2503869 0.0039468175
0003b0 70 45 35 be 01 a1 29 be ec 06 13 3e 5b 91 ef bd
       -0.1770227 -0.16565324 0.14358109 -0.11697646
0003c0 af af 78 3d 5c 3b 1f 3e 0e 23 a4 bd 93 51 10 bc
       0.06071442 0.15549988 -0.08014499 -0.008808511
0003d0 56 18 b1 3d 55 b4 b6 bc 55 a5 58 3c d4 2e a0 be
       0.0864722 -0.022302786 0.013223012 -0.31285727
0003e0 bd df 63 be 0a c7 8c bd a0 b4 9a 3e 3c 2c 0e 3d
       -0.22253318 -0.06873901 0.3021593 0.034710154
0003f0 4d 9f ad bc 5b d0 15 3e fc 1b d2 3d b6 5b 53 3e
       -0.021194125 0.14630263 0.10259244 0.20640454

net.2.bias f4 [64]
000000 0f d9 c5 bd 6c 2f 51 be a8 34 28 3d 01 93 24 be
       -0.09660541 -0.20428246 0.041065842 -0.16071703
000010 53 d7 63 3e 6a 75 3d be ee e2 19 3e f3 db 98 3e
       0.22250108 -0.18501821 0.15027973 0.29855308
000020 fd ee 35 3e c7 07 27 3e f4 40 4c be ed cf 92 3e
       0.17766948 0.1631156 -0.19946653 0.2867426
000030 be 95 b8 3c 5f 6a 63 be b9 5c a7 3e d7 ff a0 3c
       0.02253234 -0.22208546 0.3268793 0.019653244
000040 03 d2 a1 bb 61 71 8e 3e 6b 70 5c be 3d a0 01 be
       -0.0049383654 0.27820876 -0.21527259 -0.12658782
000050 2c 9e d2 3d 09 ca 1f 3d 48 99 9e 3d f1 f3 30 be
       0.10284075 0.039011035 0.0774408 -0.17280556
000060 7b 94 a4 3d d0 89 dd bd 21 23 42 bd 2e 80 75 be
       0.08036133 -0.10817301 -0.047396783 -0.23974678
000070 9f 71 f6 3d 00 06 bf 3d 5d 4f 33 be 1a 60 79 3e
       0.1203339 0.09327316 -0.17510743 0.24353066
000080 44 7b 86 3d 98 30 a3 3d 4c 59 0f be f3 42 03 3e
       0.0656648 0.07968253 -0.13998908 0.12818508
000090 70 d0 45 3e 6c 8d 4e 3e 04 60 b6 bd 15 bd 83 3e
       0.19317794 0.20171136 -0.08905032 0.25730196
0000a0 63 e5 4e 3d 22 02 10 3e 3b b4 52 3e 3f 5c 95 3e
       0.05051173 0.14063314 0.20576565 0.2917194
0000b0 78 3d 49 be d4 f1 67 3e 68 de 2d be a2 0e 7d 3d
       -0.19652355 0.22650844 -0.16979373 0.061781533
0000c0 7b 5e 2d be 63 7a 2c bd a5 ac cd 3c 93 93 23 3d
       -0.16930573 -0.042108905 0.025106737 0.03993566
0000d0 6f 60 b9 3c 92 fa 07 3e 2f c2 99 3e b7 14 17 3e
       0.022628991 0.13279179 0.30030963 0.14753996
0000e0 54 f9 59 3e ce 76 29 3e 92 79 62 3e 6e 41 17 bd
       0.21286517 0.16549227 0.22116688 -0.036927633
0000f0 b4 b8 4a 3d 02 4b a2 3d 74 ce 34 be 13 bd 8b be
       0.049492553 0.07924463 -0.1765688 -0.2729269

net.4.weight f4 [64, 64]
000000 ab 9d 14 3e f4 51 48 bd 40 03 ed bb 30 f7 e0 bb
       0.1451327 -0.04890628 -0.0072330534 -0.0068654045
000010 be 8d 58 3d 5e 78 bf 3d 43 da 94 bc a9 4d d7 3d
       0.05286955 0.0934913 -0.018170482 0.105128594
000020 0d 80 0d 3e 53 e6 64 be 90 5c 7c bc 91 de ad bd
       0.13818379 -0.22353487 -0.015402928 -0.08489717
000030 84 e0 6e 3e 63 39 a4 bd 25 19 b0 3d 3a 60 e4 bd
       0.23327833 -0.08018758 0.08598546 -0.11151166
000040 fa 99 67 bd a0 90 8a bc 12 01 c7 3d 6d 04 78 3e
       -0.056543328 -0.016914666 0.09717001 0.24220438
000050 65 27 a8 bc e1 6f 66 be 5a f5 aa 3d 2f b0 c2 3d
       -0.020526597 -0.22503616 0.08347578 0.095062606
000060 51 b3 01 3e 74 23 72 bd e8 a4 11 3e 64 85 58 bd
       0.1266606 -0.059115842 0.14223063 -0.052861586
000070 30 d5 d5 3d c9 82 7c 3d 65 05 c3 bd 4d 31 0a 3e
       0.10441053 0.061648164 -0.09522513 0.1349537
000080 d9 e8 24 3e 28 73 34 3d c0 d4 dc bd 5c 78 ab bd
       0.1610445 0.044055134 -0.10782766 -0.08372566
000090 74 5f 42 be 78 0b 79 3d dc 4f c1 3d 8a 60 8a bd
       -0.18981725 0.060801953 0.0943906 -0.067566946
0000a0 8b 37 a2 3d 1a 78 3f bd 9b a6 d6 3d f0 9b 87 3d
       0.0792075 -0.046745397 0.10480996 0.066215396
0000b0 96 4e 2c be da ef a8 bd f8 2c 79 3d 75 e7 2f 3d
       -0.16826853 -0.08248873 0.0608339 0.042945344
0000c0 cb 2e 67 bd 0b de 8e 3d e3 2a f9 3d 8f ee 6a bd
       -0.05644111 0.06975945 0.12166383 -0.057356413
0000d0 cd af 43 3d 82 8c c0 bd 7d 95 5f 3c 75 b9 e2 3d
       0.04777508 -0.094018 0.013646481 0.11070529
0000e0 52 1f 92 bd 0b 5a d2 bc e5 10 3f 3d 6f 41 85 be
       -0.0713488 -0.025677701 0.04664697 -0.26026484
0000f0 b1 d7 96 3d 35 90 0c 3d 66 4e 82 bd a6 83 85 3d
       0.073653586 0.034317214 -0.063626096 0.065192506
000100 fa 8b 90 3d b0 01 47 3c 9f c1 21 3d 78 e8 38 be
       0.070579484 0.012146398 0.039491292 -0.1805743
000110 86 32 33 3d 49 69 4b bd fa 28 5c bd 00 28 0f 3e
       0.043749355 -0.049660955 -0.053750016 0.13980103
000120 42 72 8c bc 7b 68 75 3d 18 0e 30 3e 64 5b a8 bd
       -0.017144326 0.059914093 0.17192876 -0.082205564
000130 8d 04 81 3e a0 d5 a1 3d 50 2e 8e bd 84 bf e0 bd
       0.25198784 0.07902074 -0.06942427 -0.10974029
000140 92 b0 38 3e 1f 7a d0 3d 04 9a 77 3d 1e 19 5c 3d
       0.18036106 0.10179543 0.060449615 0.05373489
000150 52 37 af 3c c9 f9 5f be 56 4d cb 3d ed 89 ba 3d
       0.021388683 -0.21872629 0.0992686 0.091083385
000160 21 cc e6 3c e4 9b 4a 3c 5f 09 89 bc 77 1e 2f 3e
       0.028173508 0.012366269 -0.016728101 0.17101465
000170 2a de 2c 3e 4e e4 c5 3d 29 de a6 3d d4 28 e2 3d
       0.16881624 0.09662686 0.081478424 0.110429436
000180 a4 9b 86 bc 0a 03 f2 3c b0 36 b3 bb 72 26 02 be
       -0.016431637 0.029542465 -0.0054691657 -0.12709978
000190 d9 e4 93 bd 13 21 e6 3d 14 a9 0c 3e 35 e7 dc bd
       -0.072213836 0.11236777 0.13736373 -0.10786287
0001a0 30 55 3a 3d f5 2d f2 3d fb 37 1c 3e 59 f5 d4 3b
       0.045491397 0.11825172 0.1525573 0.0064989743
0001b0 0f 1a 78 3d 36 b8 af bd 86 4c b3 3d 13 e6 42 3e
       0.060571726 -0.08580057 0.0875483 0.19033079
0001c0 76 38 fc bd d2 42 3b bd bd c0 a4 3c f3 09 36 3e
       -0.123154566 -0.04571802 0.020111436 0.17777233
0001d0 3a 97 8a bd 32 c0 61 3c 5b 8f 29 bb 2d 3b ad 3d
       -0.067671254 0.013778733 -0.00258728 0.084585525
0001e0 f4 ea d6 bd 5d 57 c8 3c c3 ff 15 3e f3 cf d9 bd
       -0.104940325 0.02445572 0.14648347 -0.10635366
0001f0 c3 3a 61 3d fb 57 f5 3c bf f5 f1 3d 36 08 39 3e
       0.05498768 0.029949179 0.118144505 0.18069538
000200 d2 fa f2 3d e0 ac e8 bc f6 41 fc 3c 60 5d aa bb
       0.118642464 -0.028402746 0.030793171 -0.0051991194
000210 35 6d 68 3d 96 9b 81 bb 22 f7 b2 bd 6d 35 35 3d
       0.056744773 -0.003955315 -0.08738543 0.044240404
000220 fe 4a 20 bc 52 cf 30 3e 43 e5 c7 bc dd 09 9c 3d
       -0.0097835045 0.17266586 -0.024401313 0.07619069
000230 e2 de 89 be 03 f1 1c be d8 6b a1 3d b6 df 1b 3e
       -0.2692786 -0.15326314 0.07881898 0.15222058
000240 67 82 fd bd cf c9 d0 3d 9c 96 39 be 30 06 78 3d
       -0.12378388 0.10194742 -0.18123859 0.060552776
000250 e3 9a 0c 3e 83 08 6c 3e a4 dd cc bd da b4 be 3b
       0.1373096 0.23050122 -0.10003212 0.005819899
000260 4a c2 f4 3d 80 55 9a 3d a5 2e 39 3e 58 c7 22 be
       0.1195112 0.07535839 0.180842 -0.15896356
000270 42 16 68 3b 83 dd 08 bd af 2d 5d bd c3 fc f4 3d
       0.0035413657 -0.033414375 -0.053998645 0.11962273
000280 9e 16 79 bd ac 89 65 3c a8 57 eb b9 4d 97 e3 3d
       -0.060812585 0.014009874 -0.00044888002 0.11112843
000290 a3 7b 3a bd 2e 0e a2 bb 5b 9d fd 3c b1 80 0c bd
       -0.045528065 -0.004945538 0.030958822 -0.034302417
0002a0 02 e7 61 3d 91 34 04 3b 26 d7 f5 3d 9d 4f 32 3d
       0.055151947 0.0020172934 0.12003927 0.043532956
0002b0 ae fa 6b 3d c1 40 03 3e 18 00 8f 3c 0c 68 7b bd
       0.057612114 0.1281767 0.0174561 -0.061378524
0002c0 c1 75 3e be f5 d3 1f 3c c9 04 e3 bd a0 c0 8f 3d
       -0.18599607 0.009755124 -0.11084897 0.07019162
0002d0 60 28 06 3e 67 5c e9 bd 53 88 63 bd f4 ea 9c bd
       0.1310134 -0.113945775 -0.05554993 -0.07662001
0002e0 0e 2c 41 3e 6a da 3f 3e 0f 9e 70 3d 69 b9 16 3e
       0.18864462 0.18735662 0.058744486 0.14719166
0002f0 d3 68 23 bd 6e 66 d7 bd d1 76 1b 3d fa a2 1d 3d
       -0.03989489 -0.10517584 0.03795511 0.038485505
000300 1c 49 f0 3d 00 c0 17 b8 a1 62 15 bc 99 64 8e 3d
       0.117326945 -3.618002e-05 -0.009117753 0.06952781
000310 34 9b 1e 3e f4 15 36 be 68 ad e0 3d 4b 7c c2 bd
       0.15488893 -0.17781812 0.109705746 -0.09496363
000320 c6 47 f9 3d 15 d3 39 3d f1 5e 6e be 6c da 44 3d
       0.12171893 0.04536732 -0.23278405 0.048059866
000330 b2 5a 17 be 92 f2 af bd 42 20 4f bd 5c 15 b1 3a
       -0.14780691 -0.085911885 -0.050567873 0.0013510394
000340 e6 50 0f 3e a3 6e 12 bd 4d 29 81 bd e4 e1 7f 3e
       0.13995704 -0.035750043 -0.063067056 0.24988514
000350 c4 8c 09 3d 1a 46 d9 3d 5a 1b 94 bd f2 63 e1 bd
       0.03358151 0.10609074 -0.072317794 -0.11005391
000360 8e ae d9 3b 03 88 87 bd c2 8f 8c 39 81 57 7c bd
       0.006643123 -0.06617739 0.0002680999 -0.061606888
000370 9a 59 89 bd a7 79 d3 bc 4e 0f 18 be 19 2d 7e 3d
       -0.06706543 -0.025814844 -0.14849588 0.062054727
000380 ea 29 db bd 53 42 9e b9 2c ad 94 bd dd b5 0c 3d
       -0.10701354 -0.00030185524 -0.072595924 0.034353126
000390 b4 36 26 3d 4f cf ed bc e6 47 d6 bd 8f a6 bc 3c
       0.040579513 -0.029029517 -0.10462932 0.02302864
0003a0 da 09 84 bd 76 b6 0e 3d 83 66 a5 3b 91 0e 16 3d
       -0.064471915 0.034841977 0.0050476207 0.036634985
0003b0 a8 43 61 3e 42 22 e7 3d c0 06 87 bb 95 8b 23 be
       0.21998465 0.11285831 -0.0041206777 -0.15971215
0003c0 1d 11 0c be 90 7b 98 bd f0 67 14 3c 85 7a 25 bd
       -0.13678403 -0.07445443 0.009057984 -0.040400047
0003d0 be 3d 68 bc fc b2 08 be 53 35 22 3e ec ec ca 3d
       -0.014174877 -0.13349527 0.15840654 0.099084705
0003e0 cb 1b da 3d 04 5f 0f 3e 05 20 99 bd 76 d9 22 bd
       0.10649832 0.1400109 -0.0747681 -0.03975817
0003f0 62 6d dc 3d d8 b2 2e 3e 4c ff b9 bd 64 75 8f 3d
       0.107630506 0.17060411 -0.09081897 0.07004812

net.4.bias f4 [64]
000000 0e 01 2e bd a4 09 bb 3d 2f 16 2e 3e a4 68 b4 3d
       -0.042481475 0.09132698 0.1700065 0.08809021
000010 e2 86 7c bd 62 6b 1f 3c 08 e8 0f 3e e2 aa d2 3d
       -0.06165207 0.009730192 0.14053357 0.102864996
000020 58 49 58 bd 20 9a 0f 3e d9 55 8a bd 1e f8 2e 3d
       -0.05280432 0.14023638 -0.067546554 0.04271709
000030 66 95 2a 3e 41 53 02 3d 33 5f b6 bd e4 db 1f 3d
       0.16658553 0.03181768 -0.089048766 0.039028063
000040 65 58 8a 3d ba 92 f3 3d a2 25 17 bd b9 fc 04 bd
       0.06755141 0.1189322 -0.036901124 -0.032467578
000050 61 91 a9 3c 9d 9f 86 3b e0 b9 83 bb 0c 94 88 3c
       0.020699205 0.004108383 -0.0040199608 0.016672157
000060 70 a7 a2 3d 17 9a b1 3d d2 e3 6d bd 97 dd 12 3e
       0.079420924 0.086719684 -0.058078595 0.14342342
000070 05 1f 41 3d f6 8b 30 3d 6d 39 37 3d b5 a6 91 bc
       0.047148723 0.043102227 0.0447325 -0.017779687
000080 d1 f7 2f 3c 14 d8 0c 3d ef 70 70 3d 10 e6 6b bd
       0.010740236 0.034385756 0.058701452 -0.05759245
000090 d7 96 82 bd d9 8d e6 bd 5d 63 56 bc 40 c8 d3 3c
       -0.06376427 -0.11257524 -0.0130852135 0.025852323
0000a0 9f ce 04 3e 5e ed 84 bd da 44 aa bc eb ad 00 3e
       0.12969445 -0.06490587 -0.020784784 0.12566344
0000b0 da f4 46 bd 6a e1 9c 3d 89 50 9e 3c c7 13 5e bd
       -0.048573352 0.07660182 0.019325512 -0.05421808
0000c0 c6 6c 0a 3d 28 72 99 bd 51 51 3f 3d be 2b 9a bd
       0.03379514 -0.07492477 0.04670841 -0.075278744
0000d0 2c 76 10 3e 17 5a 0f bd 6c 74 c2 3d 5b f8 21 bd
       0.14107579 -0.034998026 0.09494862 -0.03954349
0000e0 9c ed f2 bc 49 11 63 3d c0 d1 ca 3d fa 1e e0 3c
       -0.029654317 0.055436406 0.09903288 0.02735852
0000f0 29 60 89 bd d2 e0 6e bc 05 f0 a4 bd 19 9d d0 3c
       -0.06707794 -0.0145799685 -0.080535926 0.025465535

net.6.weight f4 [64, 64]
000000 be 6f c4 3c 31 67 19 3e 91 62 c3 3d f3 4c 2c 3e
       0.023979064 0.1498077 0.095402844 0.16826229
000010 7a bd 03 3e e3 82 e4 3d 10 09 1d 3e 34 83 ab bd
       0.12865248 0.11157777 0.15335488 -0.083746344
000020 10 4f 33 be 56 99 70 bc 0f 76 10 3e f9 95 84 3d
       -0.17510629 -0.014684996 0.14107536 0.064739175
000030 9b 46 6f 3d 7b d2 bd 3c 2f 3a ce bd 55 11 ce 3c
       0.058416944 0.023171654 -0.100696914 0.025154749
000040 2a 64 fc 3d 0a 26 ba bb e0 1e f8 3d 10 d1 9c bd
       0.12323792 -0.005680804 0.12115264 -0.07657063
000050 25 8a e7 3d 8f 4e 58 3e 77 fb a3 bd 46 48 d1 bd
       0.11305646 0.21123718 -0.080069475 -0.10218863
000060 ea 37 63 bc a1 d6 42 3d 6b 58 84 3d 64 41 37 3d
       -0.013868311 0.047567967 0.06462177 0.044740096
000070 9e 25 57 3e c4 0e b4 3d db 2b ae 3d 5c 53 4b be
       0.21010444 0.08791879 0.085044585 -0.19856018
000080 9b a8 b1 3b 47 a6 ab 3c 62 3b 10 3d dd e0 2f 3e
       0.0054217107 0.02095331 0.035212882 0.17175622
000090 52 6b 8c 3e 91 ff 7f 3d 80 2f 2a be 78 d3 21 3b
       0.2742563 0.062499586 -0.16619682 0.0024692696
0000a0 28 74 dd 3d a6 e3 f2 b9 d7 b0 ee 3d f5 ec 9b 3d
       0.10813171 -0.00046327448 0.11654823 0.07613555
0000b0 d2 e0 bc bc 2b 75 8f 3d 87 b0 1c 3e 6b b1 90 3d
       -0.023056421 0.0700477 0.15301715 0.0706509
0000c0 16 32 20 3d 80 a1 b2 bd c1 18 d8 3d e0 14 d2 3b
       0.039110266 -0.0872221 0.105515964 0.00641118
0000d0 3d e5 29 bc 37 b8 bd bc b6 6f 29 3e 68 e4 55 bc
       -0.010369596 -0.02315913 0.1654652 -0.013054945
0000e0 ab d6 bd bb 60 cb 89 3d 7e d2 f2 3d 18 4c 79 3d
       -0.0057934127 0.06728244 0.118565544 0.060863584
0000f0 b1 fe 7e bd 80 a8 9d 3b 70 a3 03 3d c2 96 18 3e
       -0.06225461 0.0048113465 0.032138288 0.1490126
000100 94 5e fd bd 79 9a b8 3d c1 a2 a9 3d 26 29 2b be
       -0.12371555 0.09013838 0.08282996 -0.16714916
000110 4e 64 a6 3d 7d 5b 18 3d 52 26 9f 3d 89 32 2a bd
       0.081246 0.037196625 0.07770981 -0.0415521
000120 e6 da ee 3c 52 90 65 bd 44 cb 06 be 2e f5 23 bd
       0.029157113 -0.056045838 -0.13163477 -0.040028743
000130 fc 06 1b 3e c2 50 df bd f6 31 de bc b3 b7 a6 bd
       0.15139383 -0.10904075 -0.027123433 -0.081405066
000140 44 60 af bd 83 f0 25 be 8d 12 73 bd 44 89 bb bc
       -0.08563283 -0.16205029 -0.059343863 -0.022892602
000150 17 55 a2 bb a3 47 16 be b7 0d ae 3d 38 83 e7 3d
       -0.004953991 -0.14675765 0.0849871 0.11304325
000160 67 8e d9 3c 8d 5e b1 3b 2e 05 fe 3b 7e 85 74 bd
       0.02655716 0.0054128827 0.0077520823 -0.05969762
000170 5c 19 0e 3d a8 4f 47 3e b7 64 20 be fb 1a d1 bd
       0.034692153 0.1946398 -0.1566342 -0.10210224
000180 b5 08 37 be 44 a4 36 bc bf 55 c5 bc 9d ad 0f be
       -0.17874415 -0.011147562 -0.024088738 -0.14031072
000190 2f ca 2f 3e 64 db e3 3d 63 9b f2 3c 28 4a 97 bd
       0.1716697 0.1112583 0.02961511 -0.07387191
0001a0 52 eb c8 3d a9 fe 1f 3e 73 64 3c 3d 02 3c 3c bd
       0.09810509 0.15624489 0.045994233 -0.045955665
0001b0 22 b0 05 3e b5 d9 b3 3d b5 fe 3e 3d dc f8 21 3e
       0.1305547 0.08781759 0.046629626 0.15817589
0001c0 cc 2c b0 bd f0 b1 6a bc 21 d1 fe 3d 97 4a dd bc
       -0.08602294 -0.01432465 0.12442232 -0.027013106
0001d0 28 7f dd bc 07 07 49 bd e2 6a 0c bd 97 f7 17 3e
       -0.027038172 -0.049078967 -0.03428162 0.14840542
0001e0 1c 06 d2 3d fe 50 82 bd 5c ce f0 bd d4 9a ac 3c
       0.102550715 -0.06363104 -0.1175811 0.021069922
0001f0 3a a7 18 bd 21 e5 12 be a6 a8 11 be 71 78 a5 3d
       -0.037268855 -0.14345218 -0.1422449 0.08079613
000200 69 cd f8 3d 1b a3 80 3d d4 76 49 be 24 6c 82 be
       0.12148554 0.0628111 -0.19674236 -0.2547313
000210 b7 d0 7c 3d 45 5f 45 3d 8c 3e 00 3b 76 8c 13 3e
       0.061722483 0.04818656 0.001956853 0.1440905
000220 bc 90 f4 3b 03 5f b4 bd c1 a9 c6 3d fd b6 28 3e
       0.0074635427 -0.088071845 0.09700347 0.16476054
000230 59 07 fa bd f7 6b 9e 3d 91 fb a8 bd f5 a3 17 3e
       -0.12208433 0.077354364 -0.082511075 0.14808638
000240 b2 1d 63 bc 2a 32 1a 3e 52 88 64 be ea bb 01 3e
       -0.01386206 0.15058199 -0.22317627 0.1266934
000250 2f 9c 39 bd 6f 91 db 3d b0 5c 2f 3d 43 d0 33 be
       -0.045314964 0.10721099 0.042813003 -0.17559914
000260 bb af 2b 3d 1c 02 6e 3d f9 19 cf bc 4b 1a 46 be
       0.041915637 0.05810748 -0.02528094 -0.19345967
000270 68 6b ed 3b e4 b7 0a 3e 29 53 89 bc 07 be 46 ba
       0.00724547 0.13546711 -0.016763287 -0.0007581417
000280 aa 7b d2 3d ed ce 0b bd 42 54 98 bc d4 ff 11 3d
       0.10277493 -0.034132887 -0.018594865 0.035644367
000290 3b a8 c4 bd a9 c7 be 3d a3 a2 04 be 94 82 c9 3d
       -0.096024 0.09315426 -0.12952666 0.09839359
0002a0 06 9a 32 bd 15 67 1f bd 58 13 c9 bb 76 96 8a bd
       -0.04360392 -0.038916666 -0.006136339 -0.067669794
0002b0 64 f9 8c bd fb e7 2d 3d a8 76 57 3e 05 55 5d bc
       -0.06883505 0.042457562 0.21041358 -0.01350904
0002c0 2b ac 98 3d 1e 81 87 bd 92 da 4f bd f7 17 1c be
       0.074547134 -0.06616424 -0.050745554 -0.15243517
0002d0 73 60 fc bc 44 3a 49 3e 25 cb 1f 3d 34 b7 04 3d
       -0.03080771 0.19651133 0.039012093 0.03240128
0002e0 2c 41 f6 bc e2 a9 26 3d 0d 08 26 bd 4d ed c3 bd
       -0.030060373 0.040689357 -0.04053502 -0.09566746
0002f0 65 04 30 bd ab 0d f4 3d 00 03 4c 3e 38 8a f1 3d
       -0.04297294 0.119166695 0.1992302 0.11793941
000300 2a a3 4a bd 81 c0 ef 3d 39 8c 4f 3e 9f 01 6a bd
       -0.04947201 0.11706639 0.20268334 -0.057130452
000310 95 4e a1 3b 59 41 06 3e 02 33 a5 bd 0d 17 8f 3d
       0.004922698 0.13110866 -0.080663696 0.069868185
000320 ea be 7a 3c ab a0 ee 3d af 17 7f 3d 03 56 ee 3c
       0.0153043065 0.11651739 0.062278446 0.029093748
000330 f8 86 2b 3e 3b 30 7a be e2 5b a2 3c 52 58 b4 bd
       0.16750705 -0.24432461 0.019819204 -0.08805908
000340 c3 89 98 bd bf 72 06 bd 24 bc 2b 3d 79 6d 88 bc
       -0.07448151 -0.032824274 0.04192747 -0.016653763
000350 f6 20 13 be fa 63 14 be 9a d2 6d 3c 43 6e 25 3e
       -0.14368042 -0.14491263 0.014515543 0.16155343
000360 fb d2 86 3d b8 12 83 3d ae 2b 02 3e c0 7b 60 bd
       0.0658321 0.06400055 0.12711975 -0.054805517
000370 37 74 e1 bd d0 e6 be 3d f6 35 f9 bd b6 85 e1 3d
       -0.11008494 0.09321368 -0.12168495 0.110118315
000380 e6 29 ab 3b a9 26 e2 bd be 33 f2 3d 86 28 e7 3d
       0.0052235005 -0.1104253 0.11826275 0.11287026
000390 56 ae 5d 3e dc 8b 54 3e dd b4 90 bb ef 62 0c 3e
       0.21648535 0.20756477 -0.004416092 0.13709615
0003a0 e2 13 77 3d 6a d2 3a 3d 72 7a 29 bc 99 5a ca bd
       0.060321696 0.045610823 -0.010344135 -0.098805614
0003b0 05 d5 83 bd 19 24 cb 3d 06 f7 ae bd 05 69 ef 3d
       -0.064371146 0.099189945 -0.0854321 0.11689953
0003c0 ec 22 ba 3d 6a d5 cf bd 84 3f b6 3b 79 e0 b8 3d
       0.09088692 -0.101481274 0.005561771 0.0902719
0003d0 c2 b5 d2 3d 78 d7 24 bd 83 08 01 3e 3a 9c 4b be
       0.10288574 -0.04024455 0.12600903 -0.19883814
0003e0 3c 0a 6b 3c bc de 6d 3d b5 db 6c bd 83 1e 1e bd
       0.014345702 0.058073744 -0.057826716 -0.038603317
0003f0 8a ac ef bd 45 cd 10 3d 6c 1f d9 3c 57 fc 81 be
       -0.11702831 0.03535201 0.02650424 -0.25387833

net.6.bias f4 [64]
000000 ab 80 3d 3b 35 e0 91 3b bb b0 0a be 32 f9 d3 bd
       0.0028915803 0.0044517764 -0.1354398 -0.103502646
000010 9a ea b1 bd b2 01 94 3c d6 4b a7 bd 59 73 a2 3d
       -0.08687325 0.018067215 -0.081687614 0.07932157
000020 44 e9 09 bd 44 7c e9 3d f0 3d e2 bd 5d 20 9b 3d
       -0.033669725 0.11400655 -0.1104697 0.07574532
000030 9f 6a 07 bd 6d 41 47 bd bd 88 9c bd cf ce 01 be
       -0.033060666 -0.04864638 -0.07643268 -0.12676547
000040 c4 5e 01 be 28 81 47 bc 5a e7 0f 3e 7f 3f 8a 3d
       -0.12633806 -0.012176789 0.14053097 0.06750392
000050 5a 1c c1 3d f2 d7 4b 3d 4d 6f 80 bd ef a7 cc bc
       0.09429236 0.04976649 -0.06271229 -0.02498242
000060 57 7b 0b bd 54 69 07 be f4 15 7f 3d 98 de 79 bd
       -0.034053173 -0.13223773 0.062276796 -0.061003298
000070 69 d1 9d bd 2e af 43 3d e1 6a d3 3c ba aa a2 3d
       -0.077059574 0.047774486 0.0258078 0.0794272
000080 b9 05 30 bd 34 28 d4 3d d4 ce dc bc 6b 4a 88 3d
       -0.042974208 0.10359231 -0.026954092 0.06654819
000090 ca 6a f9 3d d8 11 87 3d c2 f3 e0 bd e5 72 fb bd
       0.121785715 0.065952 -0.10983993 -0.12277774
0000a0 43 75 fc 3d 2e af ef bd 95 b3 2b bd 4c 37 b0 3d
       0.123270534 -0.11703335 -0.04191931 0.08604297
0000b0 3a 1e c7 bd 3a 7e eb 3d 7b ab 6e 3b c1 41 1b 3d
       -0.09722562 0.11498685 0.0036418128 0.037904505
0000c0 f3 1f 4b 3d 13 5c 7c 3c 77 62 ad 3d 80 dc 4b bd
       0.049591016 0.015402812 0.08466046 -0.049770832
0000d0 40 3e f9 3c 7b f9 92 bd 0a a3 27 3e 2f 22 f8 3d
       0.03042519 -0.07176491 0.16370788 0.12115895
0000e0 35 8b 97 bd df d9 ac 3d 35 93 87 bc 2a c0 b8 3d
       -0.073995985 0.08439993 -0.016549686 0.090210274
0000f0 31 ec cd bc c1 ea c5 bd c1 52 83 3d c4 43 e9 3d
       -0.025137039 -0.096639164 0.064122684 0.113898784

net.8.weight f4 [64, 64]
000000 13 38 28 3e d9 75 71 3d ca e5 2e bd 56 9b 47 3d
       0.1642764 0.05895028 -0.042699613 0.048732124
000010 17 2d 01 3e 8b c0 16 3e cb 3a 45 3d ac bc c4 3d
       0.12614857 0.14721887 0.048151772 0.09606299
000020 75 75 b3 bb 8f 3f 23 be 0e ea a3 bd ec 0d e9 3d
       -0.0054766485 -0.15942214 -0.08003627 0.113796085
000030 a8 eb 30 3e b7 7a 26 3d f3 a7 f5 bd ab 75 e1 3d
       0.17277396 0.040644374 -0.119949244 0.110087715
000040 bc 3c f3 bb aa 36 f7 bd 94 75 19 3d 03 49 c1 3d
       -0.0074230116 -0.12070973 0.037465647 0.09437754
000050 d8 3e 97 bd 57 71 55 3b 55 83 91 3c 6b db fb bd
       -0.07385033 0.0032568777 0.01776282 -0.1229771
000060 7a 68 91 3e db 5b ce 3d ef 20 5a 3e 09 fc 47 bd
       0.28400022 0.10076114 0.21301626 -0.048824344
000070 b5 49 55 3c 91 9f 30 3d 25 73 fc 3d e4 9f 61 3b
       0.013018061 0.043120924 0.123266496 0.0034427578
000080 36 49 0a 3e 61 9a ab 3d 25 f1 b6 3d ca c9 0c 3e
       0.1350449 0.08379055 0.089327134 0.13748851
000090 f6 a8 c1 3d 18 8f 9e 3c d4 e2 55 bd 13 84 ac bd
       0.09456055 0.019355342 -0.052218273 -0.08423629
0000a0 4c e2 27 3c 92 02 99 bd cc 08 43 3d 69 5a e4 3c
       0.0102468245 -0.074711934 0.04761581 0.027875142
0000b0 04 ce 12 bd 63 ad 46 bc f4 0f 00 3e 7e c2 34 3d
       -0.035841003 -0.0121263 0.12506086 0.044130795
0000c0 a7 98 da bd 77 6c a6 3d 3a eb ea 3d 3a 7c 98 bc
       -0.106736474 0.08126157 0.11470647 -0.018613923
0000d0 31 fe 7a 3d f1 1c a3 bd b1 09 02 3d 5e 15 ff 3a
       0.061277572 -0.079645045 0.031747524 0.0019461324
0000e0 ee ff 5e 3d 9f 20 84 bd e8 44 c3 3d cd 20 f8 ba
       0.054443292 -0.064515345 0.09534627 -0.0018930674
0000f0 5f 8c af bd 14 29 63 3e e2 01 0d 3c 9d e9 11 bd
       -0.085716955 0.22183639 0.008606406 -0.03562318
000100 4c a4 76 3d 9a 5e f3 3d f7 57 58 3c 44 f6 2a bd
       0.06021528 0.11883278 0.013204566 -0.041738763
000110 8e cb 3f be 5b 08 13 be c1 c1 89 3d c9 f0 85 3d
       -0.18729994 -0.14358656 0.06726409 0.06540067
000120 cf b7 2c be 6e 10 2e 3d 00 35 a3 3b 01 8f 99 bc
       -0.16866992 0.042496137 0.0049806833 -0.018744947
000130 35 f7 03 bd 80 d0 eb bd 9e e5 a0 bd 21 1b 7c 3e
       -0.032218177 -0.115143776 -0.07856296 0.24619724
000140 ba 3f 21 3d 24 31 88 bd 74 94 b0 bd 12 7b 12 be
       0.039367415 -0.06649998 -0.08622065 -0.1430476
000150 51 56 83 bd 64 6b 30 3c 95 9a 13 be 99 16 2f 3d
       -0.06412948 0.010767791 -0.14414437 0.04274616
000160 a1 f1 82 be 5d f9 0c be fc 86 61 bd a1 04 e0 3d
       -0.25574973 -0.13767 -0.05506037 0.10938383
000170 ac eb 0f bd 6a 6e 6e 3d 84 b9 85 3b c6 97 34 bc
       -0.035136864 0.058210768 0.004080953 -0.011022514
000180 46 e2 42 3d 00 47 e7 3b 5c 94 41 be 7d 3a 38 bd
       0.047579072 0.0070580244 -0.18904251 -0.044977654
000190 5f 98 64 3d 6e ab 74 3d f0 1d 31 3d 7e b2 8f 3d
       0.055809375 0.0597338 0.04324144 0.070164666
0001a0 50 b4 a7 bd b0 92 18 bd 20 91 98 bc b3 70 05 bd
       -0.08188689 -0.037249267 -0.018623888 -0.03257818
0001b0 48 cf dc 3d 6e 2b 36 be 1b 99 77 3c 40 4b 0d 3e
       0.10781723 -0.17790005 0.015112187 0.13798237
0001c0 a3 e8 20 be a3 2c de 3d 90 43 4d be 98 95 83 be
       -0.15713744 0.108483575 -0.20045304 -0.25700068
0001d0 dc fd 48 bd 95 e0 b5 bb af 73 31 3c 0b e9 9a 3c
       -0.049070224 -0.005550454 0.010830804 0.018909952
0001e0 68 da df bb 9b b5 13 be 33 fc de bd a4 e8 11 bc
       -0.006831456 -0.14424746 -0.10887947 -0.0089055635
0001f0 eb e1 0b 3e de f0 71 3e a8 19 30 be 0d 3a 34 3c
       0.136604 0.2362704 -0.17197287 0.0110001685
000200 55 9c c8 3d b9 19 32 3d a5 20 c5 3d e0 8b 95 3d
       0.09795443 0.043481562 0.09625367 0.0730207
000210 c8 f5 20 3e 23 67 9b bd 16 21 03 be 4d 08 c9 bd
       0.15718758 -0.07588031 -0.1280559 -0.098160364
000220 1c b1 7a 3d 12 5b a4 3d 9c ae f3 3d f2 c6 ff 3d
       0.06120406 0.08025183 0.118985385 0.12489118
000230 99 8c 56 3d 73 91 b4 3d 62 b9 fc 37 cd bf 81 bd
       0.052380178 0.08816805 3.0127067e-05 -0.06335411
000240 07 79 be bd e5 9c 35 be 8f 1d 06 3e c1 73 d3 3c
       -0.09300428 -0.17735632 0.13097213 0.025812032
000250 07 d5 0e 3e ce c5 9e bb 7d a1 cb 3d 7e bb c7 3c
       0.13948451 -0.0048453575 0.09942911 0.024381395
000260 fe b1 b0 3d a3 9e 45 bd bb 59 57 3e 02 a9 3c 3b
       0.08627699 -0.04824699 0.21030323 0.002878726
000270 4d 16 ca 3d a7 ed e0 3c 03 2b 1c bd 43 17 8f bb
       0.09867535 0.027457071 -0.038126957 -0.0043667867
000280 a6 21 82 bc 0b 3a b9 3d 1a 2d db 3d ee d4 11 bd
       -0.015885185 0.09044274 0.10701962 -0.035603456
000290 0d d0 b7 bd 47 e6 bd 3d d8 d9 e8 bc 02 f8 33 be
       -0.089752294 0.092724375 -0.028424188 -0.17575076
0002a0 66 32 00 3e b0 c7 4b bc 40 ab 1f 3e 78 0d 52 3d
       0.12519225 -0.012437746 0.1559267 0.051282376
0002b0 d4 d5 9d bd e4 10 88 bc cb 9d 1c bd 77 3a d0 3d
       -0.077068 -0.016609617 -0.03823642 0.10167401
0002c0 06 69 0f 3d 85 a7 b4 3d 1f fa ab bd 7e 81 cb bd
       0.035012268 0.08821014 -0.08397316 -0.09936808
0002d0 02 f5 23 bd 8b 03 ba bd 8e 75 00 be 48 56 c4 bd
       -0.04002858 -0.09082707 -0.12544844 -0.09586769
0002e0 3b 65 19 3e 32 c7 35 bd 98 6c 52 bd 5b 37 b1 3c
       0.14980023 -0.04437942 -0.051373094 0.02163284
0002f0 04 94 7c 3d db af b6 3d c1 c4 e6 bd 17 a6 02 3e
       0.061664596 0.089202605 -0.112679966 0.12758671
000300 02 f3 3d 3c bc 38 a4 bb dc a8 2c 3e ff e3 7a bd
       0.011593582 -0.005011646 0.1686129 -0.06125259
000310 fe b4 54 bc 2c 7d b9 3d 27 54 53 3d 1f 18 34 bd
       -0.012982605 0.09057078 0.051593926 -0.043968316
000320 9b d4 c2 bc d1 a2 9f bd 64 32 50 3d bf 1d 46 3d
       -0.023783019 -0.07794727 0.050829306 0.04836821
000330 81 2c 56 3d 84 22 d2 3d 6d c9 d5 bd c6 97 5d be
       0.052288536 0.102604896 -0.104388095 -0.21639928
000340 76 d0 3b be 9f 1c 03 be a3 c4 be bd 27 1f 01 3e
       -0.1834124 -0.12803887 -0.09314849 0.1260954
000350 c4 e0 18 3e 86 95 cc 3d 24 65 a9 bd 73 7f 8c bc
       0.14929491 0.09989457 -0.08271244 -0.017150616
000360 8d af 2e 3c 1f 76 0c be f4 7f 84 3d 48 78 b7 bc
       0.010661972 -0.13716935 0.064697176 -0.022396222
000370 83 7e 2d 3d d9 a0 0c be d2 0b 6b 3d ae 78 1d 3e
       0.04235698 -0.13733234 0.05738432 0.15378067
000380 85 f1 1a be eb a6 1a 3e 6a eb 14 3e aa 3a ba 3c
       -0.15131195 0.15102737 0.14542928 0.022733051
000390 4b 04 8f bd 00 18 50 3c 74 eb f6 bd 14 09 26 be
       -0.06983241 0.012701035 -0.12056628 -0.162144
0003a0 70 2e 51 3d 8c 75 28 bd c9 29 35 bd 66 05 59 bd
       0.051069677 -0.041127726 -0.044229303 -0.052983664
0003b0 fa b0 a5 3d 70 ea 0d 3e 23 ba 19 3e 9c 6b e6 bd
       0.08090396 0.13858962 0.15012412 -0.112509936
0003c0 d8 7d 16 bd 50 84 f3 3d 30 eb 30 3e c3 9a b1 bd
       -0.036741108 0.11890471 0.17277217 -0.086720966
0003d0 5b 59 08 3e c9 7a 74 3d 65 2f fd 3c ed eb e6 3d
       0.13315336 0.05968741 0.030906389 0.11275468
0003e0 35 fb 74 3e d3 0b c8 bd 94 46 a6 bd 29 77 65 3c
       0.23923953 -0.0976788 -0.081189305 0.014005461
0003f0 9e ce aa 3d 2a 41 be bd 6b 77 05 3e ac 91 1c bd
       0.0834019 -0.09289773 0.13033836 -0.03822486

net.8.bias f4 [64]
000000 08 28 94 3c e7 97 66 bd 3c bb 2d bd c9 8e 4d 3d
       0.018085495 -0.05629721 -0.04241489 0.050185
000010 76 fb b5 bd ea a9 68 3c 58 77 a9 3d 72 b3 a9 bd
       -0.08885853 0.014200667 0.08274716 -0.082861796
000020 92 c6 b6 3d ae 41 a6 3d 8e bb 50 3d 23 ae 26 bc
       0.08924593 0.08117996 0.050960116 -0.010173353
000030 3c 30 52 bd 0d 13 43 bd bc 8b ca bd 04 93 02 be
       -0.05131553 -0.04762559 -0.098899335 -0.12751395
000040 dd 52 1e bc fd a1 f5 3c ff 54 d9 bd 9d e1 03 3e
       -0.009663311 0.029984469 -0.10611915 0.12879033
000050 8e 5b a1 bd 32 1b d4 3b eb 20 72 bd 26 8e d3 3d
       -0.07878791 0.0064729685 -0.059113424 0.10329847
000060 6b be 58 bd 53 43 2a 3d 16 17 49 3d 1f 75 b8 3d
       -0.05291597 0.04156811 0.049094282 0.09006714
000070 fc 31 31 bd 20 2d 40 bd f9 1a a5 3c ba 26 05 be
       -0.04326056 -0.046918035 0.020154463 -0.13003054
000080 54 02 0c bd 42 be fb bd 8c 97 e1 3d 00 0d 11 3d
       -0.034181908 -0.12292148 0.110152334 0.03541279
000090 d2 64 13 bd ae ce 06 3e 29 06 de 3d e3 b0 be bc
       -0.03598482 0.1316478 0.10841019 -0.023277706
0000a0 b9 ad 5a 3d f4 20 b0 3d 87 2e a2 bd 35 e0 65 3d
       0.05338833 0.08600035 -0.07919031 0.056122024
0000b0 8a 1f 33 3d 94 96 96 bd a5 9a 9d bd 24 3f ca bc
       0.04373125 -0.07352939 -0.07695512 -0.02468831
0000c0 a4 de d5 bd bd f4 05 3e 9f 29 42 3d 6a 27 42 bd
       -0.10442856 0.13081641 0.047402974 -0.04740087
0000d0 d8 b4 7d 3c a3 3a 89 3c 9d 08 6c 3d 31 26 ad 3d
       0.015485011 0.016751593 0.0576254 0.0845455
0000e0 68 51 c8 bd fb 52 f6 bc d0 9b 38 3d 16 ec ad bd
       -0.09781152 -0.030068865 0.04507047 -0.084922954
0000f0 20 ca c9 bb bb fb 54 bb 6c f1 98 3d e4 43 89 bd
       -0.0061581284 -0.0032498676 0.074679226 -0.06702402

net.10.weight f4 [14, 64]
000000 6f 82 de 3d b3 24 85 bd ec f3 c5 bd 9b de c0 bd
       0.10864722 -0.065011404 -0.09665665 -0.094174586
000010 87 b0 c4 bc e6 d5 12 be 56 29 d2 bd d1 2c 99 3d
       -0.024009956 -0.14339408 -0.102617905 0.07479251
000020 1c 88 d0 3d b8 d7 0c be ef 82 a6 3b bd 93 ed 3d
       0.10182211 -0.13754165 0.0050815265 0.116004445
000030 b1 2f a2 3d 05 0c 1b 3e 71 ca 95 3d 25 97 d5 3d
       0.07919253 0.15141304 0.07314003 0.10429219
000040 98 05 da bd 17 35 0d bc 67 f3 99 3d f0 5b ed bd
       -0.10645598 -0.008618615 0.075171284 -0.11589801
000050 cf 33 b8 bd a8 aa 19 3e b9 44 ae 3d 58 4f 87 bc
       -0.08994257 0.15006506 0.085092016 -0.016517326
000060 6e 0b f7 3d 3a cd 0e 3e 52 9e 7a bd 69 13 c5 bc
       0.12062727 0.13945475 -0.061186142 -0.024057107
000070 5a e0 49 3d 9a cf e2 b8 5d 6f b8 3d bb ac 44 3e
       0.049286224 -0.000108151886 0.09005616 0.19206516
000080 05 1a 34 bd 34 ba 54 bd a0 fd 87 3d 41 5e ad 3d
       -0.043970127 -0.05193539 0.06640172 0.08465243
000090 6a 42 e1 bd b2 e7 d5 3d b0 b0 2e 3d ce 78 d0 3d
       -0.109989956 0.10444583 0.04264897 0.10179292
0000a0 f3 20 04 3d 92 c8 dd 3a 5a c4 f4 bd 64 fa 8f bd
       0.032257985 0.0016920737 -0.119515136 -0.0703018
0000b0 60 e3 0c 3e af 86 ed bd 96 84 4b 3d 97 7e d1 bd
       0.13758612 -0.115979545 0.04968699 -0.10229223
0000c0 42 ba 03 3c 9a 98 1d bd 4d 8a 93 3b 14 92 45 3e
       0.008040013 -0.03847561 0.0045025707 0.19294006
0000d0 c4 60 7a 3d 29 8b d5 bd cf dd 33 bc 77 58 b4 3d
       0.06112744 -0.10426933 -0.010978176 0.08805936
0000e0 09 fe 04 be b9 f7 c4 3d 54 5c 52 3d ff 57 92 bc
       -0.12987532 0.09617562 0.051357582 -0.017864225
0000f0 dc 9b 9f bd d6 90 2f 3b a7 8d 81 3d 52 bb c4 3d
       -0.077934 0.002678921 0.06325846 0.09606041
000100 c8 a6 41 bd 57 79 94 3d 40 cd 65 3d a6 32 ce bd
       -0.047278196 0.07249706 0.056103945 -0.10068254
000110 30 1e 78 bc 92 c7 0c 3d 1e eb e7 3d cf 03 4e 3d
       -0.015143916 0.034370013 0.11324142 0.0502966
000120 7f 8a 07 3e 3f e8 31 3d a4 2c 78 bd 05 05 e4 bc
       0.13236426 0.043434378 -0.060589448 -0.027834425
000130 b2 cc 8d 3d 52 98 0a 3d 82 a7 81 bd e8 38 d5 3c
       0.06923808 0.03383667 -0.06330778 0.026028112
000140 a4 6d 8d 3d 5a 25 e9 bd b0 3f 83 bd f4 d4 0a be
       0.06905678 -0.11384077 -0.06408632 -0.13557798
000150 3f 61 13 be cc 67 22 3e 26 9f 4a bc 58 21 57 bd
       -0.14392565 0.15859908 -0.0123670455 -0.052522033
000160 6f a6 3a bd 7f f8 c8 bd 14 f3 90 3d 22 8d c6 bd
       -0.04556888 -0.09813022 0.070776135 -0.09694888
000170 7a ed f3 3d c1 b7 4e bd 48 cb 32 3e b8 49 8a 3d
       0.119105294 -0.05046821 0.17460358 0.06752342
000180 2e 0c df bb 93 f2 a9 3c 27 20 89 3c 53 c3 d7 bd
       -0.006806872 0.020745551 0.016738964 -0.10535302
000190 99 bb 51 bd bc 3c 04 be 85 78 8f bd 1b b6 89 3d
       -0.051204298 -0.12913793 -0.07005409 0.06724187
0001a0 8d 4b 92 bd 32 33 c1 bd 5e d6 db 3b 10 16 01 3e
       -0.071433164 -0.09433593 0.006708904 0.12606072
0001b0 f5 46 e6 3d 29 30 ef bd 2d 45 48 3d 36 93 48 3c
       0.11244003 -0.11679108 0.048894096 0.012242129
0001c0 9c 88 c4 bc b8 84 6a bc 0c a1 e0 3c 31 b2 14 3e
       -0.023990922 -0.014313869 0.027420543 0.145211
0001d0 2b f4 03 3e 49 75 ef 3c 96 3a 97 bc 98 df 02 be
       0.12886111 0.02923073 -0.018460553 -0.12780607
0001e0 80 d6 17 be 25 1a ae 3d 24 0e 9d bd ed a7 69 bc
       -0.14827919 0.085010804 -0.07668713 -0.014261228
0001f0 42 13 c5 3d 84 05 ab 3b 03 16 a9 3c f0 60 a1 3c
       0.09622814 0.0052191634 0.020640379 0.019699544
000200 d6 6b f8 3a 44 cd 4a bd 7f a4 95 3d 19 f9 b6 bd
       0.0018953036 -0.049512163 0.07306766 -0.0893423
000210 c7 23 d6 3d 8c 1f aa 3c c8 75 f5 3d 17 b5 3a bd
       0.10456043 0.020766996 0.119853556 -0.045582857
000220 40 ce 84 3d 61 7d 8a bd 9d 7b d4 bd c6 72 f7 3d
       0.064846516 -0.067621954 -0.1037514 0.12082438
000230 3a 1e 2e 3d 8e 93 67 bd 28 74 39 3d f9 6a 5a bd
       0.042509295 -0.056537203 0.04527679 -0.053324673
000240 34 f3 c1 bd d5 9b a9 3d f0 11 2d bd 97 50 a4 bd
       -0.094702154 0.08281676 -0.042253435 -0.08023184
000250 c0 6a bc bd 34 91 8b bd b8 47 ca bd ca bc 8d bd
       -0.092000484 -0.06814805 -0.098769605 -0.06920774
000260 a2 8a a7 3d a9 68 5f 3c 88 98 b5 bb 60 c7 f4 bd
       0.08180739 0.013635793 -0.005541865 -0.1195209
000270 14 d3 bf bc db 91 0e 3e a6 b5 fb 3c 82 39 dc 3d
       -0.02341608 0.13922827 0.030726265 0.10753156
000280 ef a4 4e 3b f0 27 1b be 81 89 79 bd c7 dd 06 be
       0.0031531414 -0.15151954 -0.06092215 -0.13170539
000290 5e e5 fa 3c f0 a1 a4 bd 81 15 74 bd 3b 61 a9 bd
       0.030626949 -0.080386996 -0.05959082 -0.08270498
0002a0 66 a8 ca bd c0 c5 e7 bd 31 19 9f bd 91 75 13 3e
       -0.09895401 -0.11317015 -0.07768477 0.14400317
0002b0 63 3e 21 bb 74 82 39 be 62 8e 83 bc 12 14 d7 3d
       -0.0024603836 -0.1811617 -0.016059104 0.10501875
0002c0 07 8f 41 be a7 40 af 3d 86 10 d1 3b 98 80 97 3d
       -0.18902217 0.08557253 0.0063801436 0.07397574
0002d0 a8 f1 9e 3d 10 a7 2d 3d fe 5e 26 3e 26 23 30 3d
       0.07760936 0.04239565 0.16247174 0.04300227
0002e0 fa 0e bd 3c 86 e4 2e 3d 68 1e bf bd e0 b6 f3 3d
       0.02307843 0.042698406 -0.093319714 0.11900115
0002f0 70 e7 a4 bd 30 00 ca 3d f3 e9 8f bd 70 01 b9 bd
       -0.08051956 0.09863317 -0.07027044 -0.09033477
000300 23 58 8d 3d 1b 49 48 3e 28 6c f6 bc 04 65 ad 3d
       0.06901576 0.19559138 -0.03008087 0.08466533
000310 7c 87 1a be 7c ac 41 bd 14 d6 d0 3d 49 61 ec 3d
       -0.15090746 -0.047283635 0.10197082 0.11541993
000320 3e 5c 8f bd 39 c3 10 3d f5 ed e3 3d 14 da d7 3d
       -0.07000016 0.03534243 0.11129371 0.10539642
000330 49 65 c1 3c c1 5b 45 3d 59 a4 0e 3d d4 7e 0b 3d
       0.023607867 0.048183206 0.034824703 0.0340565
000340 d7 fb 1f be 6d f8 a2 3d 69 04 60 be b0 07 29 3e
       -0.15623413 0.0795754 -0.21876682 0.16506839
000350 2e ff 51 3d a9 95 71 3d 18 b5 4c 3e ab f1 15 be
       0.05126875 0.058980618 0.19990957 -0.1464297
000360 a2 94 7a 3d 8d d8 ee 3d 70 eb f3 3d 4e 95 1a 3d
       0.061176904 0.116623975 0.119101405 0.037740044
000370 13 56 3a be 07 bf 1a be f8 e2 29 bd 89 b7 85 bc
       -0.18196897 -0.15111934 -0.04147622 -0.016322868
000380 de 01 0f 3e 79 d3 8a bd 93 86 25 be e2 34 f7 3d
       0.13965556 -0.067786165 -0.16164617 0.120706335
000390 b5 05 1b 3e a6 99 ee 3a 2f 12 29 bd de 81 2e 3e
       0.15138896 0.001820375 -0.041277107 0.17041728
0003a0 9f 59 fc 3d 7c 43 ef bd 2a 83 b7 bd be 4e 78 be
       0.12321781 -0.116827935 -0.089605644 -0.24248788
0003b0 45 ed 3f 3d e4 00 20 be 16 26 4e bd 58 8d c6 3a
       0.046857137 -0.1562534 -0.05032929 0.0015148325
0003c0 4a f2 96 bd e1 14 0f 3e cf d3 d1 3d 80 dc 97 3e
       -0.07370432 0.13972808 0.102454774 0.29660416
0003d0 b4 11 3e 3d b5 24 d2 bd 25 36 d6 bd af 88 d4 bd
       0.0464036 -0.102609076 -0.10459546 -0.10377633
0003e0 2f aa fb 3d 95 94 bd 3d 60 60 e3 bc a8 4d de 3d
       0.12288319 0.092568554 -0.027755916 0.108546555
0003f0 7c 10 bf 3d 96 4b 25 be 22 06 11 bd 40 f7 57 bd
       0.09329316 -0.16142115 -0.03540624 -0.05272603

net.10.bias f4 [14]
000000 8a bd d1 bd 65 af 69 3d 69 9a 3c 3d 48 c4 79 3d
       -0.1024123 0.057052035 0.046045695 0.060978204
000010 74 39 29 3e bb 09 b9 3c 31 9d ca bc 9b ae f6 bd
       0.16525823 0.022587648 -0.024733158 -0.12045022
000020 3e 65 5e bd 5b c8 02 be 01 41 df bd c1 73 90 bc
       -0.05429577 -0.12771742 -0.109010704 -0.01763332
000030 4e 8f 6b ba 94 17 ce ba
       -0.00089858926 -0.001572358
