PEM_NN_sampled500_v2.pth (torch, 9674 bytes, 6 tensors)

net.0.weight f4 [32, 5]
-0.35691673 -0.1772049 -0.28791255 0.24121484 0.20385526 -0.09756775 -0.17377722 0.37975356
-0.24572998 0.44663632 -0.035793606 -0.1557256 -0.14028458 -0.100096405 -0.08750894 -0.36083096
0.1657588 -0.07912733 0.00787104 -0.1892658 -0.25615317 -0.18233368 0.3840568 -0.36569718
0.16113505 -0.3810425 0.3404635 0.26734844 -0.3944196 -0.09683384 0.16016054 0.098682605
0.34184352 -0.0970961 0.24395142 -0.42295173 -0.31616095 -0.19780032 -0.3434583 -0.27289605
0.18775581 -0.030173725 0.0760698 0.3913824 0.40936786 -0.4303572 0.24391817 0.20580058
-0.31705904 -0.4093164 -0.19453393 -0.015250039 0.3008729 -0.3034822 0.11759954 0.25656193
-0.44475642 -0.40854433 -0.42296684 0.22718321 0.21068025 0.04631763 -0.34400323 -0.24435346
-0.053547002 -0.11134858 -0.033246376 -0.0613636 -0.40994066 0.0021626365 -0.08020703 -0.5029792
0.10873719 -0.16374438 -0.40547815 0.06854675 -0.32255086 -0.1526546 -0.19503655 -0.37671322
0.022470681 0.041531757 0.21796356 -0.38702014 0.09663177 0.4296836 0.2864679 -0.13145003
0.35990548 0.44608957 0.043242082 0.23255149 0.058977406 -0.14629363 0.17037979 -0.051322766
-0.047631416 0.17970484 0.21991788 0.359323 -0.03302013 0.19892524 0.06726163 -0.19700556
-0.08235863 -0.08417066 0.28622958 0.4008051 0.46118373 0.42921808 -0.1056607 0.088874
0.04764677 -0.19602 0.24034953 0.05367796 -0.19205512 -0.09305412 0.3991592 0.4676664
0.23674287 -0.37991264 -0.17415047 0.20812677 0.32776034 0.23228952 -0.38713357 0.20561141
-0.17018352 -0.38646284 0.23941493 0.32197696 0.12501362 -0.17703463 -0.18349801 0.42953727
-0.3440402 -0.037249513 -0.14246686 -0.24888001 -0.13292064 -0.25923237 0.26564997 0.36226285
-0.2317336 0.35959882 0.02819326 0.31920052 0.19092529 -0.42197618 -0.29899144 0.46790707
0.059030045 0.33249497 -0.12260692 0.042476166 -0.16097766 -0.20904957 0.33239296 0.34507695
00000000: cabd b6be 3475 35be 4669 93be 0601 773e
00000010: 6fbf 503e 9ad1 c7bd a8f2 31be 0f6f c23e
00000020: a4a0 7bbe 84ad e43e 519c 12bd 8876 1fbe
00000030: c3a6 0fbe 58ff ccbd e337 b3bd d6be b8be
00000040: adbc 293e 820d a2bd 89f5 003c e5ce 41be
00000050: 8226 83be aeb5 3abe 18a3 c43e a93c bbbe
00000060: 9600 253e 0118 c3be 3b51 ae3e e5e1 883e
00000070: 5ef1 c9be d250 c6bd 2001 243e 1b1a ca3d
00000080: 1d06 af3e 52da c6bd 67ce 793e 218d d8be
00000090: d9df a1be 2b8c 4abe c4d9 afbe 08b9 8bbe
000000a0: 0f43 403e e32e f7bc 7cca 9b3d 4663 c83e
000000b0: aa98 d13e c757 dcbe afc5 793e 63bd 523e
000000c0: 9055 a2be eb91 d1be e733 47be 4ddb 79bc
000000d0: 030c 9a3e 0562 9bbe 07d8 f03d 165c 833e
000000e0: 1db7 e3be b92c d1be 1c8f d8be b7a2 683e
000000f0: 90bc 573e 8eb7 3d3d 3121 b0be cb37 7abe
00000100: 1a54 5bbd b90a e4bd 5a2d 08bd 6658 7bbd
00000110: bee3 d1be 05bb 0d3b 9543 a4bd 3fc3 00bf
00000120: 9bb1 de3d 9bac 27be d59a cfbe 3d62 8c3d
00000130: 6325 a5be 7d51 1cbe a9b7 47be 8ee0 c0be
00000140: 6f14 b83c 341d 2a3d d731 5f3e 8127 c6be
00000150: e1e6 c53d 7dff db3e ecab 923e d69a 06be
00000160: 8845 b83e da65 e43e 9c1e 313d fa21 6e3e
00000170: 4b92 713d ffcd 15be 0a78 2e3e d237 52bd
00000180: 2919 43bd 8c04 383e 2732 613e 2ff9 b73e
00000190: 1e40 07bd 0fb3 4b3e 77c0 893d d3bb 49be
000001a0: a4ab a8bd ab61 acbd af8c 923e 5336 cd3e
000001b0: 4620 ec3e 79c2 db3e a364 d8bd 9203 b63d
000001c0: 4229 433d 78b9 48be 301e 763e 6cdd 5b3d
000001d0: 19aa 44be 2993 bebd 985e cc3e f871 ef3e
000001e0: b96c 723e e983 c2be 8054 32be 2f1f 553e
000001f0: 34d0 a73e 4edd 6d3e 5f36 c6be cc8b 523e
00000200: 9744 2ebe 75de c5be 3029 753e 2ada a43e
00000210: 9203 003e 9148 35be e7e6 3bbe 4fec db3e
00000220: 0926 b0be f292 18bd d5e2 11be 67da 7ebe
00000230: 591c 08be 1bba 84be 4603 883e 847a b93e
00000240: 934b 6dbe 561d b83e 8df5 e63c 406e a33e
00000250: eb81 433e 430d d8be 6815 99be 8491 ef3e
00000260: 7dc9 713d c83c aa3e 5619 fbbd 7dfb 2d3d
00000270: 54d7 24be 1711 56be 692f aa3e edad b03e

net.0.bias f4 [32]
-0.02062797 0.21737018 0.2776132 0.3517268 0.0037953255 -0.13153243 0.12405465 -0.16192724
-0.21936743 -0.33227414 -0.123353735 -0.20304239 -0.27170622 0.13516456 -0.33103502 -0.20774053
-0.16334395 -0.25172514 -0.39836377 0.20487846 0.01578741 -0.2995516 0.15809715 0.285773
-0.2701237 0.44148597 0.4373574 -0.17100398 0.31596524 -0.11954689 0.3723683 0.22882873
00000000: fdfb a8bc 4a96 5e3e 5123 8e3e 8915 b43e
00000010: ffba 783b 70b0 06be 5d10 fe3d 41d0 25be
00000020: dba1 60be d61f aabe e2a0 fcbd 58ea 4fbe
00000030: 141d 8bbe 9468 0a3e 6c7d a9be efb9 54be
00000040: a343 27be 1ee2 80be 56f6 cbbe a9cb 513e
00000050: 9954 813c d45e 99be 38e4 213e d750 923e
00000060: a74d 8abe 730a e23e 4fed df3e ab1b 2fbe
00000070: 32c6 a13e 00d5 f4bd 0fa7 be3e 1452 6a3e

net.2.weight f4 [32, 32]
0.007029862 -0.08848052 0.0015803968 0.039583758 0.029712057 0.15354869 -0.031776175 0.05231576
-0.1200538 -0.038645726 -0.15070145 0.001732294 0.19199167 -0.1315615 0.033659935 0.19805652
0.1767433 -0.05960795 -0.14838634 0.06405759 0.08276528 0.13803993 -0.07857855 0.058974378
-0.19222005 0.10141437 0.1391974 0.2177197 -0.077512816 -0.054638572 0.08450418 -0.06690092
0.004850511 -0.01078258 0.10506884 0.12410165 -0.10973893 -0.13340238 -0.101105854 0.09244368
-0.10812923 -0.09879008 0.085939504 -0.030712187 -0.0156725 -0.09006898 -0.03088529 -0.027446417
0.0414387 -0.110547885 0.17583878 0.15522413 0.13369644 -0.10225766 -0.10526627 0.13530357
-0.059671804 0.11165195 -0.1645253 0.07002895 0.02325177 -0.06769962 -0.07356248 0.02457002
-0.026964296 -0.1319268 -0.15056409 0.16943158 -0.13933775 0.051204033 0.031632315 -0.15800236
-0.08958051 0.14402103 -0.03645995 -0.1428684 -0.0023271462 0.104613654 0.1338904 0.06684152
-0.039295696 -0.070051715 -0.15437762 -0.061161187 -0.08943444 -0.025314795 -0.014961506 -0.039272312
-0.02187595 0.0719692 0.08219813 0.061690323 0.029961314 -0.014156046 0.106387846 0.031635795
0.17525941 0.15233283 0.11515015 -0.09009267 0.055073056 0.1277753 0.008923212 0.082921304
0.0071131005 0.11683474 0.13897713 -0.00572977 -0.17218143 -0.018054541 0.09477238 0.026765171
0.041135192 -0.003287978 0.27075002 0.049567584 -0.16412292 0.21882658 -0.029934257 0.1751006
-0.08042862 -0.0029802797 -0.09932747 0.049004063 -0.038602766 0.036771894 -0.11293203 0.23277614
-0.0037320035 -0.108371474 0.14892936 0.03254595 0.10165434 0.06986319 0.042733625 0.10641762
0.1388518 -0.08228156 -0.07763664 0.20305705 0.10960089 0.06589231 -0.07782932 0.14860235
0.11133263 0.10344471 -0.046277735 0.055191237 0.069681406 -0.094016686 -0.022816638 0.14747737
0.09566008 -0.07238783 0.014467416 -0.04810703 0.03332446 -0.1614376 -0.18454173 -0.117345266
0.10831909 0.08168964 -0.034295026 -0.16858023 0.0048533427 0.17797124 0.053208187 0.023495346
0.031327076 -0.0062974794 0.035461433 0.19256347 -0.09791849 -0.0741021 0.1390294 -0.13118121
0.25399166 0.003214359 -0.0057505434 0.10457249 -0.14987692 -0.07289924 0.040841848 0.06615368
-0.074969225 0.07949791 -0.06894941 0.011583455 -0.03245118 -0.1344782 -0.011013501 0.08399719
0.019522201 0.04738925 0.11211046 0.100142226 0.064357735 0.015003939 -0.07303666 0.033551387
0.11571043 -0.14494887 -0.15452297 -0.15303798 -0.07329023 -0.17569804 0.029626783 -0.18779324
-0.08680362 0.12058646 0.10724082 0.106386505 0.14372598 0.15124471 0.087673 -0.08990273
0.11231081 -0.11611768 -0.14270961 -0.03899473 0.13916686 -0.085797414 0.06914615 -0.17289816
-0.103200115 -0.009183632 0.15858757 0.119291425 0.055353407 -0.037017796 0.09158105 0.2221733
-0.039834704 -0.13143004 0.01933267 0.10230938 0.12085328 0.15533514 0.14628129 -0.06071594
0.09653991 0.11740167 -0.04905305 0.10117469 0.13661654 -0.10602586 -0.14808482 -0.010943971
0.08473824 -0.034749474 -0.17886032 -0.12390065 -0.07902036 0.100978814 -0.10039972 -0.0249993
00000000: c25a e63b 4635 b5bd 5125 cf3a 9422 223d
00000010: b366 f33c de3b 1d3e bc27 02bd 0d49 563d
00000020: c4de f5bd fb4a 1ebd 7b51 1abe 240e e33a
00000030: 7799 443e 0fb8 06be 00df 093d 54cf 4a3e
00000040: 32fc 343e 7727 74bd 97f2 17be a030 833d
00000050: d880 a93d 575a 0d3e caed a0bd 1e8f 713d
00000060: 55d5 44be 56b2 cf3d c389 0e3e eaf1 5e3e
00000070: 0abf 9ebd b2cc 5fbd 8710 ad3d 5903 89bd
00000080: 09f1 9e3b 6ba9 30bc 552e d73d 0229 fe3d
00000090: cebe e0bd a29a 08be 9610 cfbd 1d53 bd3d
000000a0: dc72 ddbd 7452 cabd 0d01 b03d 2098 fbbc
000000b0: 9d63 80bc 1676 b8bd 2603 fdbc 4fd7 e0bc
000000c0: a0bb 293d ee66 e2bd 150f 343e 13f3 1e3e
000000d0: b8e7 083e 776c d1bd d895 d7bd 058d 0a3e
000000e0: 6c6a 74bd c7a9 e43d 5279 28be 576b 8f3d
000000f0: 7f7a be3c 19a6 8abd eda7 96bd 1147 c93c
00000100: 3ae4 dcbc d217 07be 792d 1abe 797f 2d3e
00000110: 8eae 0ebe 52bb 513d e390 013d 5fcb 21be
00000120: fd75 b7bd 407a 133e 0757 15bd 184c 12be
00000130: 0983 18bb af3f d63d 911a 093e 35e4 883d
00000140: 86f4 20bd 4677 8fbd 2b15 1ebe 2784 7abd
00000150: 6729 b7bd f960 cfbc 1b21 75bc 01dc 20bd
00000160: 3135 b3bc 9764 933d 7e57 a83d feae 7c3d
00000170: 6e71 f53c c3ee 67bc dfe1 d93d 8994 013d
00000180: 3477 333e 23fd 1b3e d8d3 eb3d 8182 b8bd
00000190: 4994 613d 87d7 023e aa32 123c a5d2 a93d
000001a0: 0315 e93b 0d47 ef3d 0550 0e3e cbc0 bbbb
000001b0: 5450 30be 1ee7 93bc 0618 c23d a242 db3c
000001c0: 607d 283d 1e7b 57bb bf9f 8a3e 6107 4b3d
000001d0: d70f 28be 1314 603e b038 f5bc 924d 333e
000001e0: c3b7 a4bd cc50 43bb 336c cbbd 7cb8 483d
000001f0: ef1d 1ebd 209e 163d e848 e7bd de5c 6e3e
00000200: a194 74bb ddf1 ddbd f080 183e e74e 053d
00000210: 2730 d03d 6f14 8f3d 7409 2f3d 7bf1 d93d
00000220: 2b2f 0e3e 3c83 a8bd f5ff 9ebd 30ee 4f3e
00000230: 6e76 e03d 8cf2 863d fb64 9fbd 372b 183e
00000240: 5d02 e43d d2da d33d b98d 3dbd 3510 623d
00000250: 20b5 8e3d d28b c0bd f5e9 babc 4f04 173e
00000260: 6fe9 c33d 1240 94bd be08 6d3c e10b 45bd
00000270: 3b7f 083d e64f 25be 82f8 3cbe b752 f0bd
00000280: 66d6 dd3d e64c a73d f178 0cbd 4ca0 2cbe
00000290: ca08 9f3b 183e 363e d4f0 593d 5079 c03c
000002a0: d250 003d 165b cebb 0240 113d 5c2f 453e
000002b0: 7d89 c8bd d8c2 97bd b95d 0e3e 5e54 06be
000002c0: 320b 823e ffa7 523b 0e6f bcbb 1a2a d63d
000002d0: 5679 19be 324c 95bd c849 273d 957b 873d
000002e0: 7789 99bd cdcf a23d 5935 8dbd 88c8 3d3c
000002f0: 87eb 04bd a7b4 09be f971 34bc b806 ac3d
00000300: 06ed 9f3c 3b1b 423d 2b9a e53d 5e17 cd3d
00000310: fdcd 833d 15d3 753c 3f94 95bd 2e6d 093d
00000320: 97f9 ec3d 7a6d 14be 453b 1ebe fdb5 1cbe
00000330: 3019 96bd 30ea 33be deb3 f23c df4c 40be
00000340: 19c6 b1bd 09f6 f63d 13a1 db3d 2be1 d93d
00000350: e72c 133e e5df 1a3e e78d b33d ec1e b8bd
00000360: 3603 e63d 1bcf edbd 7822 12be f0b8 1fbd
00000370: c281 0e3e 8eb6 afbd 7f9c 8d3d 370c 31be
00000380: 955a d3bd f276 16bc c864 223e 104f f43d
00000390: 41ba 623d f99f 17bd d88e bb3d 6681 633e
000003a0: b729 23bd 9995 06be 8c5f 9e3c 9587 d13d
000003b0: ed81 f73d 2d10 1f3e c3ca 153e 47b1 78bd
000003c0: b7b6 c53d 4970 f03d daeb 48bd ad34 cf3d
000003d0: 35e5 0b3e 1624 d9bd 8ca3 17be 574e 33bc
000003e0: 3e8b ad3d 7755 0ebd 2927 37be a0bf fdbd
000003f0: 6dd5 a1bd fbcd ce3d 5e9e cdbd 55cb ccbc

net.2.bias f4 [32]
0.012897127 -0.15695825 0.08610203 0.14973316 0.08797434 0.15430258 -0.05204377 0.14888208
-0.014195143 -0.043789703 -0.0120825255 -0.051289447 -0.053277675 0.063458055 0.16094676 0.056437597
-0.15062688 -0.047682628 -0.14484854 0.0010393071 0.13905694 -0.14061835 -0.0700695 0.0037087416
0.041757233 -0.021075696 0.12710066 -0.1550998 0.13966429 -0.013266166 -0.058194146 -0.024951797
00000000: 794e 533c aab9 20be 4356 b03d a653 193e
00000010: e42b b43d 7f01 1e3e d92b 55bd 8b74 183e
00000020: bf92 68bc d55c 33bd c9f5 45bc e214 52bd
00000030: b139 5abd 4cf6 813d 3acf 243e 1c2b 673d
00000040: ef3d 1abe dc4e 43bd 2d53 14be 5c39 883a
00000050: f164 0e3e 42fe 0fbe 9980 8fbd 5c0e 733b
00000060: a209 2b3d f0a6 acbc ad26 023e 7bd2 1ebe
00000070: 2804 0f3e 555a 59bc fc5c 6ebd b667 ccbc

net.4.weight f4 [14, 32]
-0.17283122 -0.1929209 -0.15983066 -0.0953727 0.034796014 -0.07302384 0.12865603 0.10590927
-0.022788532 -0.15906872 -0.093612015 -0.16219942 -0.13398923 0.15880775 -0.0033474453 0.052496158
-0.10884845 -0.14153561 0.09875496 -0.0068981443 0.120850265 -0.112143844 0.07304078 0.10208172
-0.08619036 0.12738614 0.15717022 -0.059549853 0.06837332 0.15415695 0.08919656 0.071133986
0.13394606 0.025258036 0.059114117 0.040566064 0.090158276 -0.02128706 -0.061474524 0.055499643
-0.07735298 -0.1948526 0.044105876 0.07742195 -0.036729876 -0.081665665 -0.04342176 0.12943086
-0.054277934 0.16617927 -0.17656365 -0.14729843 0.003299359 0.16834174 -0.113210164 0.08886912
0.008616393 -0.06117105 0.16905166 -0.041302275 -0.04073229 0.032557428 0.14909819 0.09927121
0.14822151 -0.15786543 -0.042607658 0.043352343 0.08475127 -0.1336207 -0.095535755 -0.062081862
-0.013252726 -0.04617329 -0.05688511 -0.039918724 -0.030428454 -0.13348636 -0.100286864 -0.18500294
-0.04450171 0.113200635 -0.09224917 -0.09761945 0.11613023 0.12775852 0.05886153 0.09600557
-0.14993514 0.14837135 -0.11907101 -0.1539613 -0.12662028 0.03909404 -0.076731056 0.061863974
-0.060535483 -0.13218394 0.078874044 0.15128696 -0.14903998 -0.026439924 -0.05900966 -0.09026698
-0.15003717 -0.05105016 -0.057090614 0.09184472 -0.05007025 0.050615698 -0.06656661 0.1529465
0.1516768 -0.005927105 -0.08202138 -0.052227598 0.16798288 -0.11936426 -0.14190729 -0.11320337
0.15752009 -0.017973257 0.1159419 0.018539092 -0.10577894 0.002684394 0.04780207 0.12878619
0.14882876 0.021031708 0.12604088 -0.3030318 -0.26235446 -0.19350633 0.09068876 -0.1082788
-0.13922915 0.24001667 0.20939712 0.1530529 -0.15650041 -0.20577367 0.14373714 0.06905829
-0.1115312 0.14609998 0.08347692 0.18042253 -0.075176224 0.09646721 -0.12792116 0.03821548
-0.1098319 -0.044112723 -0.009479786 -0.046098437 -0.19078964 0.07620886 -0.031374317 0.07266251
0.10209988 -0.057551496 0.085389964 0.1367919 0.08412288 0.124366246 -0.042776614 0.10414794
0.1073123 0.000113702976 -0.16338418 0.060369853 -0.1156301 -0.17044209 -0.104408145 -0.014316519
-0.011188136 -0.15861587 0.17775586 -0.06443113 0.12733085 -0.22001594 -0.20288469 -0.103179075
-0.13137977 -0.12181855 0.030616727 0.1651443 0.18278837 -0.097174756 0.07094462 -0.022104377
0.20900734 -0.041628275 -0.04233498 -0.2217258 -0.06979183 -0.02364599 0.011133183 -0.15827842
-0.13658376 -0.038416512 0.10006476 0.12376303 0.22149561 0.11849951 0.09081464 0.029468002
-0.019749468 -0.07942818 0.15990078 0.05109736 0.049226098 0.010082952 0.051237717 -0.088596694
-0.005503782 -0.12999235 -0.051554378 -0.015065113 0.068162985 0.03109517 0.08454709 0.04779914
-0.080409504 -0.14390363 -0.10423618 0.20377317 -0.050122272 0.16225715 -0.030482521 0.0014918701
-0.023468541 0.07517385 -0.050334416 0.069778845 0.10006051 -0.1393232 0.12971133 0.12709919
-0.1164902 -0.06279335 0.047281004 0.07336602 0.20913087 -0.15034908 0.063592196 0.18545933
-0.08066001 -0.07928614 -0.045551248 -0.12950534 -0.12681176 0.06952107 0.12291485 0.2032552
00000000: abfa 30be 0e8d 45be a6aa 23be c352 c3bd
00000010: 4486 0e3d 868d 95bd 68be 033e f6e6 d83d
00000020: 04af babc e9e2 22be a8b7 bfbd 9b17 26be
00000030: 7934 09be 809e 223e d060 5bbb 3606 573d
00000040: f0eb debd b6ee 10be 0a40 ca3d d409 e2bb
00000050: 5880 f73d acab e5bd 6896 953d 3910 d13d
00000060: 9284 b0bd 8371 023e 3bf1 203e 8cea 73bd
00000070: 5007 8c3d 52db 1d3e b0ac b63d b2ae 913d
00000080: 2829 093e f1e9 ce3c a521 723d 9a28 263d
00000090: e7a4 b83d 3362 aebc b6cc 7bbd 9853 633d
000000a0: 3d6b 9ebd 7187 47be 5da8 343d 668f 9e3d
000000b0: 1172 16bd 5440 a7bd 04db 31bd 8689 043e
000000c0: 8a52 5ebd e62a 2a3e 1acd 34be 66d5 16be
000000d0: 0f3a 583b c761 2c3e bbda e7bd 0301 b63d
000000e0: c62b 0d3c 7f8e 7abd e11b 2d3e 932c 29bd
000000f0: e7d6 26bd f05a 053d 32ad 183e b44e cb3d
00000100: 61c7 173e 7aa7 21be 5e85 2ebd 3a92 313d
00000110: 1392 ad3d ddd3 08be 40a8 c3bd 8d49 7ebd
00000120: f621 59bc 3420 3dbd 5c00 69bd d181 23bd
00000130: 1845 f9bc a6b0 08be 3363 cdbd 6971 3dbe
00000140: 6d47 36bd bcd5 e73d 22ed bcbd b5ec c7bd
00000150: b0d5 ed3d 21d3 023e ca18 713d 919e c43d
00000160: 9988 19be a9ee 173e 80db f3bd 08a8 1dbe
00000170: bfa8 01be 1221 203d 2c25 9dbd 1465 7d3d
00000180: 0ef4 77bd 3a5b 07be b788 a13d f8ea 1a3e
00000190: f09d 18be 8a98 d8bc 1db4 71bd e5dd b8bd
000001a0: 58a3 19be f919 51bd d9d7 69bd 1619 bc3d
000001b0: 7616 4dbd 6852 4f3d 1354 88bd 029e 1c3e
000001c0: 2a51 1b3e 2938 c2bb d3fa a7bd 9bec 55bd
000001d0: b403 2c3e 4075 f4bd 2550 11be 2bd7 e7bd
000001e0: f24c 213e a73c 93bc f272 ed3d 4bdf 973c
000001f0: a1a2 d8bd a8ec 2f3b 1acc 433d 87e0 033e
00000200: 9166 183e b04a ac3c dc10 013e fc26 9bbe
00000210: 5353 86be 8626 46be 07bb b93d 47c1 ddbd
00000220: 1692 0ebe eec6 753e 336c 563e e6b9 1c3e
00000230: a541 20be 55b6 52be d42f 133e 6f6e 8d3d
00000240: 786a e4bd 3c9b 153e f3f5 aa3d afc0 383e
00000250: fef5 99bd 9a90 c53d c4fd 02be d687 1c3d
00000260: 8cef e0bd 8baf 34bd 1b51 1bbc b7d1 3cbd
00000270: 5c5e 43be 6413 9c3d 5b82 00bd 15d0 943d
00000280: be19 d13d 1ebb 6bbd efe0 ae3d 2d13 0c3e
00000290: 9e48 ac3d bbb3 fe3d 8836 2fbd 844b d53d
000002a0: 8dc6 db3d d273 ee38 2f4e 27be 6146 773d
000002b0: 79cf ecbd 5f88 2ebe f0d3 d5bd d58f 6abc
000002c0: 724e 37bc 336c 22be a205 363e 78f4 83bd
000002d0: 0563 023e dc4b 61be 01c1 4fbe 8d4f d3bd
000002e0: 6b88 06be 017c f9bd eecf fa3c 961b 293e
000002f0: e02c 3b3e 8f03 c7bd 6a4b 913d 3d14 b5bc
00000300: 0506 563e 6982 2abd 7267 2dbd 170c 63be
00000310: 05ef 8ebd 3cb5 c1bc f467 363c bd13 22be
00000320: 9ddc 0bbe a25a 1dbd c1ee cc3d 7977 fd3d
00000330: bfcf 623e dfaf f23d 07fd b93d e166 f13c
00000340: a3c9 a1bc 3eab a2bd 08bd 233e 774b 513d
00000350: 4ea1 493d f732 253c a4de 513d 2f72 b5bd
00000360: 1259 b4bb b71c 05be af2a 53bd aad3 76bc
00000370: 0999 8b3d 4cbb fe3c 0627 ad3d 08c9 433d
00000380: bdad a4bd 795b 13be c779 d5bd eaa9 503e
00000390: 034d 4dbd bd26 263e 7bb6 f9bc db8a c33a
000003a0: 1941 c0bc bff4 993d 762b 4ebd 36e8 8e3d
000003b0: 86ec cc3d beaa 0ebe 0cd3 043e 4a26 023e
000003c0: 6a92 eebd cd99 80bd baa9 413d ed40 963d
000003d0: 6726 563e 1cf5 19be a03c 823d 0de9 3d3e
000003e0: 1331 a5bd c660 a2bd f293 3abd 0c9d 04be
000003f0: f1da 01be 1061 8e3d c8ba fb3d 2222 503e

net.4.bias f4 [14]
0.08658457 -0.14692542 0.08180307 -0.123830944 0.13568985 0.119626805 0.012301488 -0.08956342
0.124685585 0.15202929 -0.023192238 -0.0045029153 0.13309143 0.14605038
00000000: 4053 b13d 9e73 16be 5e88 a73d 149b fdbd
00000010: 48f2 0a3e e6fe f43d 2e8c 493c 076d b7bd
00000020: 285b ff3d 91ad 1b3e a6fd bdbc 318d 93bb
00000030: 1f49 083e 3b8e 153e
