PEM_NN_sampled500_v1.pth (torch, 79178 bytes, 6 tensors)

net.0.weight f4 [128, 5]
-0.3726645 0.42333707 -0.18516852 -0.16531146 -0.2169462 -0.3180369 -0.20110334 -0.3701195
0.30694178 0.26816228 0.41702768 0.28330186 -0.41440517 -0.3269333 0.4070988 -0.1524602
-0.4028142 -0.14350797 0.3243737 -0.070535116 0.030765086 0.21050103 0.38611835 -0.4038536
0.2069481 0.216141 -0.36752608 0.14065295 -0.43293387 0.11188677 -0.14762229 -0.26973748
0.21072406 -0.34739742 -0.19793129 0.18426034 0.19185622 0.41556755 -0.2722489 -0.030923788
-0.035354685 0.43565297 0.053059496 0.14472978 0.14972691 -0.1217401 0.40540394 -0.2903811
0.391956 -0.39670086 -0.17527255 0.15404181 0.34089082 -0.14245956 -0.03380687 0.28489637
-0.19627936 0.037619058 -0.13292837 -0.23041719 -0.34657124 -0.459192 0.1568881 0.08185542
-0.45107225 0.25732794 -0.38267732 0.3468921 -0.21367185 -0.27593714 -0.37427518 -0.16818495
0.25692993 0.052392364 0.027674118 -0.41574904 -0.40078944 -0.41373932 0.3807558 0.0673522
-0.23036541 -0.023788525 -0.41136762 0.0075014764 0.42489138 0.40304536 -0.04830609 0.024177104
0.060682945 -0.18889707 -0.4143625 -0.041462045 0.26809245 0.11567723 -0.111940496 0.3486432
-0.3526315 0.17144176 -0.17359884 -0.25099522 -0.08206215 0.34586143 0.16933334 -0.14220193
0.026787609 -0.2461252 0.2050184 0.4128007 -0.23581438 0.41997528 -0.416075 0.32557625
-0.35503885 -0.4504634 0.35183555 -0.4486109 0.046701193 0.44178998 0.41499734 -0.08279118
-0.012874854 0.07996533 0.31844926 0.29250866 -0.2802205 -0.20525436 -0.28909695 0.1944908
0.35079128 -0.06362672 0.42459375 -0.27933842 0.35904405 0.2535051 -0.37651625 -0.04151246
0.36673507 -0.090814956 0.43379855 0.37539467 -0.19094217 -0.058299668 0.056014456 -0.09905528
0.0468016 0.24045974 -0.17637965 0.1846695 0.110105395 0.34359357 0.35351738 0.3162902
0.26143336 0.25483012 0.27444762 -0.4588299 -0.25759825 -0.26526532 -0.26622304 0.38730988
0.1312353 0.40455583 0.3459465 0.020335242 -0.2953078 0.23412122 0.17050055 0.32919082
-0.38193354 -0.3090521 -0.08842278 0.060115222 0.34682438 -0.34713522 -0.099604025 -0.32646686
0.41644353 -0.3332764 -0.37273613 -0.071806155 -0.13389881 -0.30207095 0.3120508 0.36204347
-0.21534556 -0.013998341 0.13439657 -0.3123571 0.21619031 0.048252735 0.10600306 0.35295874
-0.08013305 -0.40657726 0.0027887404 0.26868033 -0.24621083 -0.17592932 -0.04307629 0.055762872
-0.22632158 -0.10008818 -0.017856922 -0.39913207 0.34687382 -0.29786372 0.12681818 -0.2953032
-0.1528679 0.20428826 -0.19302712 0.22380705 0.17488754 0.07742078 -0.26095623 -0.40225324
0.0545577 -0.40384153 0.38225845 -0.10604589 0.36625698 -0.3821674 0.36279863 0.14846678
0.07020556 0.1653708 -0.080484815 -0.406358 0.002197084 -0.35335585 -0.08811473 0.40074533
0.4009827 -0.30765018 -0.062003992 -0.40211254 0.33751225 0.29645282 -0.2565401 0.22819878
-0.24961466 0.14015236 -0.298446 -0.14563963 -0.06820268 -0.34988144 0.2193355 -0.4360147
-0.38075855 0.028328804 0.43789762 -0.35654745 -0.30816853 -0.2840337 0.4153536 -0.22062027
00000000: e2cd bebe a3bf d83e d19c 3dbe 6847 29be
00000010: 2527 5ebe bcd5 a2be 09ee 4dbe 4e80 bdbe
00000020: 7927 9d3e 914c 893e a784 d53e f10c 913e
00000030: ea2c d4be cd63 a7be 416f d03e 871e 1cbe
00000040: aa3d cebe c1f3 12be 4f14 a63e b774 90bd
00000050: 1007 fc3c 958d 573e 4eb1 c53e e6c5 cebe
00000060: 34ea 533e 1154 5d3e 612c bcbe 5407 103e
00000070: 82a9 ddbe e424 e53d 4c2a 17be 081b 8abe
00000080: 0cc8 573e 13de b1be 80ae 4abe beae 3c3e
00000090: f575 443e 45c5 d43e 3564 8bbe e253 fdbc
000000a0: 13d0 10bd e80d df3e ea54 593d 0b34 143e
000000b0: 0352 193e e052 f9bd 1b91 cf3e d5ac 94be
000000c0: 75ae c83e 601c cbbe a67a 33be 23bd 1d3e
000000d0: 3e89 ae3e ebe0 11be 1379 0abd f0dd 913e
000000e0: 75fd 48be 7116 1a3d 601e 08be 7cf2 6bbe
000000f0: c971 b1be 371b ebbe 46a7 203e d0a3 a73d
00000100: f1f2 e6be 7dc0 833e 48ee c3be d79b b13e
00000110: cbcc 5abe a247 8dbe ffa0 bfbe ad38 2cbe
00000120: 528c 833e 6099 563d d5b4 e23c 0fdd d4be
00000130: 4634 cdbe a4d5 d3be 6df2 c23e f3ef 893d
00000140: e9e4 6bbe 27e0 c2bc c79e d2be f2ce f53b
00000150: 5d8b d93e f65b ce3e 9bdc 45bd 100f c63c
00000160: ae8e 783d 3c6e 41be 5227 d4be 1bd4 29bd
00000170: 6a43 893e 2fe8 ec3d 0f41 e5bd 5d81 b23e
00000180: 1e8c b4be 6e8e 2f3e e5c3 31be 7282 80be
00000190: 3310 a8bd c014 b13e b865 2d3e 629d 11be
000001a0: b071 db3c 3f08 7cbe 58f0 513e 9d5a d33e
000001b0: 5379 71be 0007 d73e c807 d5be eeb1 a63e
000001c0: a7c7 b5be 24a3 e6be ca23 b43e 54b0 e5be
000001d0: c049 3f3d 4c32 e23e 887a d43e 6c8e a9bd
000001e0: 0df1 52bc ddc4 a33d c80b a33e b2c3 953e
000001f0: 1079 8fbe 332e 52be 8404 94be 9928 473e
00000200: ea9a b33e ba4e 82bd 5a64 d93e 7205 8fbe
00000210: 9fd4 b73e 6ccb 813e bdc6 c0be f808 2abd
00000220: b3c4 bb3e 31fd b9bd d81a de3e bb33 c03e
00000230: 5886 43be a2cb 6ebd 6a6f 653d 7fdd cabd
00000240: 09b3 3f3d 143b 763e de9c 34be 001a 3d3e
00000250: f07e e13d 7feb af3e 3b00 b53e caf0 a13e
00000260: 98da 853e 1879 823e 6684 8c3e c1eb eabe
00000270: ebe3 83be dbd0 87be 634e 88be 7b4d c63e
00000280: 8c62 063e f121 cf3e e61f b13e 1896 a63c
00000290: 9532 97be 79bd 6f3e b297 2e3e b38b a83e
000002a0: cb8c c3be 143c 9ebe 0117 b5bd 613b 763d
000002b0: f792 b13e b5bb b1be 32fd cbbd aa26 a7be
000002c0: 1638 d53e 34a3 aabe 45d7 bebe 1b0f 93bd
000002d0: c51c 09be 0ba9 9abe 1fc5 9f3e c35d b93e
000002e0: 8c83 5cbe 4c59 65bc 419f 093e 45ed 9fbe
000002f0: fe60 5d3e a9a4 453d 2218 d93d 02b7 b43e
00000300: cc1c a4bd e52a d0be 4dc3 363b 7890 893e
00000310: b11e 7cbe d126 34be c470 30bd 9c67 643d
00000320: d8c0 67be 08fb ccbd ae48 92bc 0a5b ccbe
00000330: 7299 b13e 9881 98be a0dc 013e fb31 97be
00000340: 6789 1cbe f130 513e e7a8 45be ad2d 653e
00000350: b815 333e c98e 9e3d 0e9c 85be 23f4 cdbe
00000360: e577 5f3d 51c4 cebe 61b7 c33e 962e d9bd
00000370: 0986 bb3e 72ab c3be bec0 b93e ad07 183e
00000380: efc7 8f3d f756 293e 39d5 a4bd 280e d0be
00000390: f4fc 0f3b 0feb b4be 7f75 b4bd 7e2e cd3e
000003a0: 9b4d cd3e 5384 9dbe e6f7 7dbd b2e1 cdbe
000003b0: 68ce ac3e aac8 973e 3959 83be f1ac 693e
000003c0: fc9a 7fbe 1a84 0f3e eacd 98be 8e22 15be
000003d0: d9ad 8bbd a923 b3be 7c99 603e 523d dfbe
000003e0: c9f2 c2be cf11 e83c 1e34 e03e 638d b6be
000003f0: 44c8 9dbe dd6c 91be 3aa9 d43e 48ea 61be

net.0.bias f4 [128]
-0.21004038 0.0045950687 0.24052228 0.24976926 -0.059813447 0.2676715 -0.21759331 0.050187096
-0.41943768 -0.28415847 0.2550181 -0.19383828 -0.17093946 -0.17763151 0.3934541 0.3820084
-0.09060164 0.1442291 -0.15016313 0.117547065 0.2578556 0.30063182 -0.23991522 -0.104191594
-0.09953458 0.44403607 0.02566902 -0.38460436 -0.1985487 0.3304931 0.18576612 -0.31009865
0.059577137 0.049390964 -0.07302867 0.0365616 -0.3828859 -0.21907379 0.4230295 0.2451428
0.3454134 0.091626935 -0.4348116 -0.31944957 0.36387128 -0.29403228 0.2520852 0.31976736
-0.2438587 -0.07970215 0.25354737 -0.19125849 -0.41677737 -0.04205709 -0.06487223 0.29142067
0.39771992 0.37163228 0.018842498 0.10960196 0.18949695 0.01757659 -0.3945249 -0.2812994
-0.44393793 0.19241463 -0.23889428 0.45185426 0.25830603 -0.259457 0.16268453 0.10407152
-0.2847629 0.26604104 0.001215102 0.015554521 0.14358613 -0.2183412 0.24537851 -0.12177387
0.11813302 -0.055857483 0.18056178 0.19879279 -0.2674016 -0.41219676 0.1635775 0.22541633
0.31595343 0.30091712 -0.23076627 0.014064142 -0.17960736 -0.40434575 -0.17651542 0.1118942
0.16261737 0.4297269 -0.41763914 -0.30153546 -0.22599623 0.112982 0.1358625 0.41019556
0.12355293 0.07188292 0.01256936 0.016670233 0.1485918 -0.0033147673 -0.1732018 0.10559908
0.37660712 -0.053523194 -0.4298959 0.33588222 -0.15808854 -0.02486765 0.24439763 -0.111697204
0.4346851 -0.41649783 -0.36334026 0.18443833 0.3427267 0.27458206 -0.08342408 -0.20990516
00000000: d314 57be 3b92 963b 794b 763e 83c3 7f3e
00000010: f2fe 74bd 3d0c 893e c8d0 5ebe fc90 4d3d
00000020: 89c0 d6be 387d 91be bb91 823e 8b7d 46be
00000030: c10a 2fbe 09e5 35be d172 c93e 9b96 c33e
00000040: 5a8d b9bd cbb0 133e 5dc4 19be 84bc f03d
00000050: a605 843e 6aec 993e 56ac 75be 6762 d5bd
00000060: c9d8 cbbd b258 e33e d647 d23c ddea c4be
00000070: 5a50 4bbe 6436 a93e 7939 3e3e 40c5 9ebe
00000080: 2807 743d 2e4e 4a3d 0e90 95bd 9ec1 153d
00000090: 9f09 c4be e154 60be 5397 d83e b706 7b3e
000000a0: 06da b03e e7a6 bb3d a09f debe e58e a3be
000000b0: 564d ba3e 668b 96be 5011 813e 8cb8 a33e
000000c0: 18b6 79be e13a a3bd f6d0 813e 44d9 43be
000000d0: d863 d5be 0e44 2cbd bbdb 84bd 1735 953e
000000e0: f2a1 cb3e 9646 be3e 955b 9a3c fe76 e03d
000000f0: 7d0b 423e c8fc 8f3c 2bff c9be 7a06 90be
00000100: d54b e3be 5708 453e b4a0 74be 7159 e73e
00000110: b040 843e 8cd7 84be c696 263e 7323 d53d
00000120: 71cc 91be 8836 883e 0f44 9f3a 64d8 7e3c
00000130: 3e08 133e d694 5fbe 8144 7b3e 9464 f9bd
00000140: baef f13d d1ca 64bd 30e5 383e 5690 4b3e
00000150: dde8 88be 740b d3be dc80 273e 8ad3 663e
00000160: a6c4 a13e cf11 9a3e fe4d 6cbe 496d 663c
00000170: feea 37be 6806 cfbe 75c0 34be c928 e53d
00000180: 2b85 263e 2a05 dc3e ccd4 d5be db62 9abe
00000190: 8e6b 67be 1b63 e73d 8a1f 0b3e 2705 d23e
000001a0: 5209 fd3d 5a37 933d b8ef 4d3c 0390 883c
000001b0: 7328 183e 913c 59bb d05b 31be 5544 d83d
000001c0: a6d2 c03e 233b 5bbd 511b dcbe c1f8 ab3e
000001d0: f6e1 21be 3eb7 cbbc 5f43 7a3e 81c1 e4bd
000001e0: 0c8f de3e 343f d5be bc07 babe 67dd 3c3e
000001f0: e079 af3e 0596 8c3e 3eda aabd 61f1 56be

net.2.weight f4 [128, 128]
0.065057606 0.07479053 -0.013762859 0.0015183279 0.04618659 -0.028729517 0.021302678 0.048602562
0.059367277 0.0951387 0.05937694 -0.052055597 -0.012554451 -0.030046875 0.024479168 0.06141095
-0.0057106866 0.014003493 0.07795723 -0.023838423 -0.06265245 -0.019283863 -0.049848553 0.08500577
0.017721877 -0.0207588 0.078928836 -0.053861015 0.015907953 0.07297295 0.045856114 -0.09701182
0.015991641 0.0033366974 -0.014647387 0.024982568 0.033528462 -0.010148392 -0.011118833 0.055560928
0.031194692 0.08589385 0.08590285 0.031522535 -0.0051947488 0.07304904 0.029243974 -0.051893335
0.07967739 -0.05067325 -0.043760605 -0.040481474 -0.057700243 0.03994194 -0.011344091 0.01578345
-0.054860003 0.10076438 -0.08843213 0.083246216 -0.019719122 0.03997566 -0.092425 0.054021414
0.008639474 0.02705101 0.03267034 0.015942425 0.030284425 0.05537052 -0.06792226 0.016719615
-0.013466774 -0.052191906 -0.014677399 -0.024699494 -0.04976923 0.058630586 0.001864568 0.038864747
-0.08288506 -0.064145915 -0.003040843 -0.07301359 -0.06547606 -0.073704824 0.09723532 0.079972625
0.03413518 -0.04576297 -0.04728724 0.027612705 0.053889047 0.055945776 -0.09421964 -0.004463826
-0.06696567 0.07873375 0.093707874 0.073931776 0.09055605 -0.021183478 -0.044964917 0.0027585682
0.016998703 -0.00417633 0.047424287 -0.007782189 -0.030615114 0.026145093 -0.07576869 0.054414522
0.038015552 -0.029272372 0.08638554 0.06405397 -0.012241854 -0.038760327 0.011404115 0.020054137
0.08359135 0.019231174 -0.029672502 0.06590132 0.030260393 -0.05100759 0.034596402 -0.09501609
-0.008968406 -0.04311959 -0.008885361 0.01856324 -0.065716386 -0.05354802 0.068551354 -0.009690493
0.08454491 -0.051046077 0.03870369 0.0059001907 -0.027122099 -0.07531292 0.014673934 0.041194487
0.075026035 0.016139258 -0.035667066 -0.021594124 -0.05130231 0.06833971 0.050604835 0.07040825
0.020256551 0.0665827 0.06065697 -0.004671148 0.031860657 0.030774554 0.05923061 -0.010271464
0.049905583 -0.029156335 -0.073817864 0.07113624 -0.046995055 -0.028818453 -0.022884795 -0.042669933
0.04528485 -0.036102645 0.050604723 0.04719335 -0.022539824 -0.051783312 0.07607587 -0.062716946
0.016061116 0.07016775 0.050606202 -0.031054541 0.03671837 0.09796889 -0.08360368 -0.025059918
-0.061357312 -0.01606765 -0.05803289 -0.013101402 0.033521265 -0.06285447 -0.022569621 0.037233964
-0.021215156 0.0643448 0.08046612 -0.003199262 -0.00917119 0.07324187 0.053696066 0.017261226
0.0035882294 0.0825111 -0.0037818667 -0.008585266 -0.0025062123 0.084453166 -0.058039103 -0.066655286
-0.002203894 -0.03676351 -0.054226756 -0.03144883 -0.07665464 0.038899798 -0.0008149833 0.0674204
0.023737084 -0.055499174 -0.07296899 0.04262982 -0.007875079 0.0073025525 -0.031922966 -0.0013489311
0.07057297 -0.06295702 -0.025837995 -0.01365253 -0.07635896 0.05313996 -0.06084247 -0.061545227
-0.07314911 0.08524263 -0.00016618968 -0.08225794 0.057538763 0.041655496 -0.055560246 0.03660591
-0.026567295 0.054667413 -0.047851317 0.08037021 0.07526849 0.020467445 -0.09584979 -0.041882057
-0.05252522 -0.02789691 -0.07402076 0.03191878 -0.047799047 -0.018176407 0.0214635 0.010588394
00000000: ec3c 853d c72b 993d 9d7d 61bc a102 c73a
00000010: 262e 3d3d 2a5a ebbc f482 ae3c 7b13 473d
00000020: 1a2b 733d 14d8 c23d 3c35 733d 4038 55bd
00000030: 2fb1 4dbc dd24 f6bc 8988 c83c 0c8a 7b3d
00000040: b620 bbbb e86e 653c 0aa8 9f3d cc48 c3bc
00000050: ed4f 80bd 31f9 9dbc ff2d 4cbd 8117 ae3d
00000060: 782d 913c 5c0e aabc 71a5 a13d 5e9d 5cbd
00000070: 6551 823c d872 953d 9fd3 3b3d 22ae c6bd
00000080: e700 833c 7eac 5a3b 98fb 6fbc 3ea8 cc3c
00000090: 2455 093d 7145 26bc c42b 36bc db93 633d
000000a0: 038c ff3c 1de9 af3d d5ed af3d c61d 013d
000000b0: b638 aabb bc9a 953d 0f91 ef3c 1b8e 54bd
000000c0: e62d a33d c18e 4fbd 523e 33bd e7cf 25bd
000000d0: 1757 6cbd 299a 233d 91dc 39bc 4b4c 813c
000000e0: e2b4 60bd 8e5d ce3d e81b b5bd fe7c aa3d
000000f0: ff89 a1bc 85bd 233d 5249 bdbd 8f45 5d3d
00000100: 958c 0d3c 149a dd3c 56d1 053d b099 823c
00000110: 0b17 f83c 33cc 623d d31a 8bbd 93f7 883c
00000120: bea3 5cbc 2ec7 55bd 7979 70bc 9856 cabc
00000130: d2da 4bbd a026 703d 8564 f43a a430 1f3d
00000140: a4bf a9bd ef5e 83bd e148 47bb 2688 95bd
00000150: 5018 86bd 8ef2 96bd 5023 c73d b0c8 a33d
00000160: 55d1 0b3d f471 3bbd 44b0 41bd 0a34 e23c
00000170: c3ba 5c3d 6627 653d 3af6 c0bd 4945 92bb
00000180: 4c25 89bd 293f a13d eae9 bf3d 8b69 973d
00000190: 7375 b93d f988 adbc 222d 38bd 18c9 343b
000001a0: dd40 8b3c 98d9 88bb f83f 423d bc01 ffbb
000001b0: 8ccc fabc 3c2e d63c 9d2c 9bbd c3e1 5e3d
000001c0: 32b6 1b3d 9dcc efbc e7ea b03d ba2e 833d
000001d0: 0f92 48bc 26c3 1ebd 53d8 3a3c 9348 a43c
000001e0: f131 ab3d b28a 9d3c bf13 f3bc 45f7 863d
000001f0: a5e4 f73c 56ed 50bd f5b4 0d3d cc97 c2bd
00000200: 39f0 12bc 2b9e 30bd e893 11bc f011 983c
00000210: 5096 86bd 2b55 5bbd a764 8c3d e0c4 1ebc
00000220: e225 ad3d b115 51bd c387 1e3d 6356 c13b
00000230: 2a2f debc a93d 9abd f16a 703c 8dbb 283d
00000240: 40a7 993d 7a36 843c a117 12bd 29e6 b0bc
00000250: 5f22 52bd b1f5 8b3d 0447 4f3d 3332 903d
00000260: 11f1 a53c 835c 883d 7173 783d 6e10 99bb
00000270: 5280 023d eb1a fc3c cc9b 723d a449 28bc
00000280: cc69 4c3d 44d9 eebc d22d 97bd e1af 913d
00000290: e37d 40bd ad14 ecbc e578 bbbc abc6 2ebd
000002a0: 9b7c 393d 5ee0 13bd e646 4f3d d04d 413d
000002b0: 70a5 b8bc bd1a 54bd aacd 9b3d be71 80bd
000002c0: 9a92 833c 1cb4 8f3d 7348 4f3d 1866 febc
000002d0: 0066 163d eaa3 c83d 6838 abbd 754a cdbc
000002e0: ce51 7bbd 4ea0 83bc e5b3 6dbd 43a7 56bc
000002f0: 984d 093d d8b9 80bd ede3 b8bc a482 183d
00000300: 68cb adbc 35c7 833d 6ccb a43d b6aa 51bb
00000310: c242 16bc d5ff 953d 68f0 5b3d 6a67 8d3c
00000320: 8028 6b3b 94fb a83d 32d9 77bb 37a9 0cbc
00000330: 443f 24bb c8f5 ac3d 69ba 6dbd 9182 88bd
00000340: 356f 10bb 5695 16bd e01c 5ebd 7dd0 00bd
00000350: 1cfd 9cbd 6555 1f3d 9aa4 55ba b513 8a3d
00000360: 4674 c23c 1a53 63bd c470 95bd 9b9c 2e3d
00000370: 7a06 01bc 404a ef3b a8c1 02bd 9ece b0ba
00000380: 9088 903d 9cef 80bd 34aa d3bc dcae 5fbc
00000390: 1662 9cbd 49a9 593d f435 79bd d916 7cbd
000003a0: 33cf 95bd b093 ae3d 3443 2eb9 da76 a8bd
000003b0: c4ad 6b3d f49e 2a3d 2493 63bd 14f0 153d
000003c0: a8a3 d9bc f0ea 5f3d beff 43bd 2399 a43d
000003d0: 5e26 9a3d 58ab a73c e54c c4bd 858c 2bbd
000003e0: af24 57bd 1088 e4bc 3298 97bd 44bd 023d
000003f0: efc8 43bd b0e6 94bc 39d4 af3c f17a 2d3c

net.2.bias f4 [128]
0.09721439 -0.010571889 -0.023940098 -0.010274317 -0.009370649 0.038279556 -0.040618304 -0.066497736
0.04921778 -0.07981175 0.08768603 0.074935034 0.0012315314 0.007249587 0.030250667 -0.016823981
0.06307405 0.05585477 0.080803744 0.018425675 -0.0034945726 -0.05733218 0.021715892 0.029926574
-0.07240162 -0.028325714 0.014107049 -0.027838951 0.02778055 0.0025780068 0.06209534 0.03131987
-0.08054611 -0.06418407 0.0730621 -0.029260112 -0.036260992 -0.044166088 0.08678336 0.046805732
0.021704726 0.0076583 0.038043655 -0.04107181 -0.05805468 -0.04110461 0.010045499 0.07297501
0.026743595 0.0018861152 -0.042573407 -0.05416621 0.00043441376 -0.06232934 -0.06834863 -0.06766041
0.062932186 -0.06601321 0.039968994 -0.026193915 0.049247667 0.016176011 -0.028463114 0.044834666
0.027826957 -0.0910266 0.0083778035 -0.08822903 -0.001381284 0.08289457 -0.077552974 -0.061072677
0.023027621 0.030812118 0.013207573 0.0772787 0.05924875 -0.086084515 0.034508076 -0.051146638
-0.042281732 0.053818908 -0.061430946 -0.048502326 -0.0039508776 -0.054936673 -0.039141204 -0.011937402
-0.009662956 -0.07179428 0.029581474 -0.011996524 -0.050445024 -0.030416166 -0.04449797 -0.013091504
-0.00032143347 -0.07245087 -0.026261697 -0.0669751 -0.03874272 -0.006319154 -0.05489467 0.06292331
0.023443853 0.039583143 -0.0074749943 -0.006073624 -0.05239057 -0.022809602 -0.012834029 0.029391626
-0.031151135 -0.035688158 -0.09672094 0.06973865 0.044599984 -0.05248254 0.01612389 0.010836372
-0.0553983 -0.071714565 0.052996878 0.009566887 0.025492059 -0.06943827 -0.009223642 0.032404374
00000000: 5718 c73d b735 2dbc 061e c4bc 9c55 28bc
00000010: 5a87 19bc 06cb 1c3d 615f 26bd f72f 88bd
00000020: 9598 493d 5874 a3bd bc94 b33d 8a77 993d
00000030: 566b a13a f28d ed3b 3fd0 f73c 72d2 89bc
00000040: f82c 813d f9c7 643d 6f7c a53d 71f1 963c
00000050: 3305 65bb 26d5 6abd 87e5 b13c 9328 f53c
00000060: 4d47 94bd 540b e8bc 4121 673c 830e e4bc
00000070: 0994 e33c c7f3 283b af57 7e3d 4449 003d
00000080: 5cf5 a4bd f072 83bd 95a1 953d e7b2 efbc
00000090: 6886 14bd 80e7 34bd 79bb b13d 5eb7 3f3d
000000a0: 1cce b13c 7af2 fa3b aad3 1b3d ea3a 28bd
000000b0: beca 6dbd 4f5d 28bd e095 243c ec73 953d
000000c0: 6215 db3c 8637 f73a 7461 2ebd 63dd 5dbd
000000d0: 07c2 e339 0d4d 7fbd 5efa 8bbd 8b91 8abd
000000e0: 97e2 803d ef31 87bd 87b6 233d 9f94 d6bc
000000f0: ecb7 493d 8e83 843c 7a2b e9bc 8ea4 373d
00000100: 5cf5 e33c 276c babd 0e43 093c 6cb1 b4bd
00000110: 330c b5ba a1c4 a93d 18d4 9ebd 5827 7abd
00000120: 6ca4 bc3c b269 fc3c 9464 583c 4c44 9e3d
00000130: d1ae 723d 144d b0bd 5758 0d3d 237f 51bd
00000140: 9c2f 2dbd 3771 5c3d 049f 7bbd 60aa 46bd
00000150: 5d76 81bb 4705 61bd 8752 20bd 1895 43bc
00000160: 6051 1ebc e108 93bd d954 f23c 128d 44bc
00000170: 719f 4ebd 532b f9bc 8143 36bd bf7d 56bc
00000180: 1286 a8b9 1f61 94bd c522 d7bc 3e2a 89bd
00000190: b0b0 1ebd e810 cfbb 3cd9 60bd f0dd 803d
000001a0: 530d c03c ef21 223d ccf0 f4bb 4005 c7bb
000001b0: 7f97 56bd 34db babc d245 52bc b5c6 f03c
000001c0: aa30 ffbc bf2d 12bd a115 c6bd 23d3 8e3d
000001d0: 79ae 363d eff7 56bd 4016 843c 0a8b 313c
000001e0: 54e9 62bd 16df 92bd 4113 593d 6fbe 1c3c
000001f0: b9d4 d03c a735 8ebd c21e 17bc 73ba 043d

net.4.weight f4 [14, 128]
-0.03884095 -0.005957286 -0.06198207 0.014414431 0.034667175 -0.063597195 -0.062212348 -0.006135603
-0.07147312 -0.058017116 -0.004477261 -0.049306702 0.04180836 0.08400386 0.046497915 -0.08797791
-0.072487965 0.017395612 0.05686528 0.045094468 -0.009404029 0.017383935 -0.03367769 0.0197857
0.05317037 0.062185943 0.07505892 -0.058084004 0.03071308 -0.07726851 0.037195183 -0.07658596
-0.081423886 0.07057516 -0.077514894 0.047327496 -0.043813076 -0.046256285 -0.046276197 -0.07198955
-0.06339026 0.024345372 0.01181266 0.084609516 -0.061453246 0.07372429 0.083446085 0.049467426
-0.07818515 0.04615548 -0.02705091 0.07844056 0.0243276 -0.009795534 0.0606836 0.09081145
0.065654315 0.064070806 9.413816e-06 -0.058764137 0.07764035 -0.06960374 0.025139341 0.034996733
-0.01444769 0.02104155 0.081186 0.005335108 0.04179989 0.032606844 -0.011435848 -0.06607755
-0.00020124299 0.06764563 -0.0050616413 0.01026065 0.086453944 -0.014214311 -0.08287543 0.047982424
0.087056816 0.00019628606 0.04982857 0.018926939 -0.055828594 -0.017047882 -0.06606362 0.051510267
-0.06445641 -0.07326763 -0.07966012 0.095999405 0.06484843 -0.07255424 0.004175879 -0.007527133
0.021789977 -0.089803815 -0.08650054 0.035142176 -0.066895805 -0.044151112 0.067170754 0.072718725
-0.0027580198 -0.01744177 -0.09165107 -0.06521564 0.06385579 0.04968008 -0.07481542 -0.031727485
0.059267044 0.029848084 -0.050067306 -0.013383792 0.06255732 -0.07051062 0.046859052 0.023625333
0.028109815 -0.069812976 -0.04417175 -0.019521069 -0.06727466 0.028049061 0.080958545 0.050749063
0.062282756 0.027460348 -0.048292805 -0.07481312 -0.016867524 0.08889421 -0.031750675 -0.039321583
-0.010076384 0.08485536 0.028347714 -0.040176388 0.04858784 -0.058563743 0.020030137 -0.027686303
0.03229428 0.027092947 0.09360345 -0.043822017 -0.07510341 -0.020972356 -0.04355234 -0.06836555
-0.052257244 -0.07528789 0.046338875 0.048405025 -0.08346513 -0.07732511 0.079839945 -0.035053067
0.043186996 0.02912392 0.054368675 -0.001960747 -0.062473938 -0.07716456 -0.047843877 -0.013344963
-0.043405853 -0.039977435 -0.08217895 0.08168499 -0.028989471 0.07530458 0.07494019 -0.044729263
-0.020619232 0.05048667 0.047552366 0.021178143 -0.0710785 -0.0012121663 -0.055844206 0.067261524
-0.05883385 0.030959172 -0.0594258 0.054508634 -0.03500352 -0.03587856 0.06676116 -0.07957986
-0.08403309 0.0071093533 0.055157334 0.07148143 0.015532834 0.029446412 0.012569931 -0.027455213
-0.011379441 -0.08476694 -0.03047165 0.039313454 -0.06874766 -0.006201555 0.034991436 0.014000581
0.022851449 -0.014334492 0.087742686 -0.047843233 -0.044782266 0.03902107 0.05503512 0.036707573
0.027850518 0.07885869 -0.07925652 0.068061225 -0.029193886 0.04515876 -0.043796103 0.056676447
0.067311734 -0.05271147 0.061551187 0.08214159 -0.079425484 -0.03461206 0.068178706 0.011789583
-0.023646617 -0.07031773 0.0002643368 -0.07170365 0.06027085 -0.086895056 0.07928893 -0.023675403
-0.039718386 0.073787436 -0.0349048 -0.052676935 0.036827527 0.0052893697 -0.0773133 0.061924767
0.08201945 -0.04261776 -0.082270324 -0.08341005 -0.059973974 -0.0053568967 0.021060225 0.04843146
00000000: b017 1fbd 5635 c3bb e9e0 7dbd 812a 6c3c
00000010: 2bff 0d3d 3f3f 82bd 60d2 7ebd 2b0d c9bb
00000020: 8060 92bd 5ba3 6dbd fdb5 92bb d3f5 49bd
00000030: 3e3f 2b3d 370a ac3d 9974 3e3d c32d b4bd
00000040: 9274 94bd 3e81 8e3c 91eb 683d fab4 383d
00000050: 5b13 1abc c168 8e3c 9ef1 09bd 9f15 a23c
00000060: 2dc9 593d b0b6 7e3d 7eb8 993d 7ee9 6dbd
00000070: ff99 fb3c f43e 9ebd fa59 183d 1ad9 9cbd
00000080: 91c1 a6bd b689 903d 21c0 9ebd 7ada 413d
00000090: 5775 33bd 3b77 3dbd 1c8c 3dbd 426f 93bd
000000a0: c1d2 81bd f26f c73c e389 413c c147 ad3d
000000b0: 66b6 7bbd c3fc 963d c8e5 aa3d 5b9e 4a3d
000000c0: 891f a0bd 870d 3d3d df99 ddbc 72a5 a03d
000000d0: ad4a c73c 737d 20bc 5e8f 783d 5afb b93d
000000e0: c575 863d 8e37 833d 08f0 1d37 aab2 70bd
000000f0: e701 9f3d 688c 8ebd 05f1 cd3c bc58 0f3d
00000100: 01b6 6cbc 545f ac3c d844 a63d 21d2 ae3b
00000110: 5d36 2b3d c18e 053d 6c5d 3bbc ab53 87bd
00000120: c104 53b9 cb89 8a3d 20dc a5bb 491c 283c
00000130: c40e b13d 24e3 68bc 98ba a9bd 3889 443d
00000140: d84a b23d 23d2 4d39 0b19 4c3d ab0c 9b3c
00000150: 86ac 64bd 00a8 8bbc 5d4c 87bd 6efc 523d
00000160: b901 84bd 570d 96bd d824 a3bd 569b c43d
00000170: 41cf 843d 5197 94bd d0d5 883b 2ba6 f6bb
00000180: e580 b23c 10eb b7bd 3227 b1bd 3ef1 0f3d
00000190: ab00 89bd ccd7 34bd d290 893d 8eed 943d
000001a0: e5bf 34bb 0be2 8ebc 8eb3 bbbd c78f 85bd
000001b0: d3c6 823d 577d 4b3d d438 99bd aef4 01bd
000001c0: 00c2 723d f883 f43c 6013 4dbd b147 5bbc
000001d0: 0d1e 803d df67 90bd 47ef 3f3d ea89 c13c
000001e0: 8e46 e63c 1bfa 8ebd 70ed 34bd a6ea 9fbc
000001f0: 4cc7 89bd 25c7 e53c 98cd a53d 40de 4f3d
00000200: 341c 7f3d 86f4 e03c adce 45bd 9f37 99bd
00000210: c32d 8abc 2b0e b63d ff0c 02bd ab0f 21bd
00000220: 6b17 25bc a6c8 ad3d 7739 e83c ff8f 24bd
00000230: 0b04 473d 89e0 6fbd 3e16 a43c 63ce e2bc
00000240: 0247 043d 07f2 dd3c 2ab3 bf3d b77e 33bd
00000250: d1cf 99bd 38ce abbc f063 32bd 3d03 8cbd
00000260: b10b 56bd 8a30 9abd d5cd 3d3d 5944 463d
00000270: c4ef aabd a15c 9ebd 2083 a33d ce93 0fbd
00000280: d9e4 303d 4995 ee3c b0b1 5e3d e07f 00bb
00000290: ace4 7fbd 7408 9ebd f1f7 43bd d5a4 5abc
000002a0: 56ca 31bd 61bf 23bd 704d a8bd 764a a73d
000002b0: 547b edbc 4a39 9a3d 3e7a 993d 0836 37bd
000002c0: aae9 a8bc 1ccb 4e3d 45c6 423d c97d ad3c
000002d0: 9b91 91bd 8de1 9eba e5bc 64bd 69c0 893d
000002e0: c3fb 70bd 179e fd3c 7868 73bd 7244 5f3d
000002f0: da5f 0fbd 66f5 12bd 13ba 883d c4fa a2bd
00000300: 8a19 acbd 94f5 e83b a8ec 613d db64 923d
00000310: 6e7d 7e3c 9a39 f13c 1df2 4d3c c1e9 e0bc
00000320: d670 3abc 4a9a adbd af9f f9bc 2507 213d
00000330: 93cb 8cbd 6a36 cbbb 2e53 0f3d b162 653c
00000340: f632 bb3c 38db 6abc 70b2 b33d 44f7 43bd
00000350: 9c6d 37bd 8fd4 1f3d 826c 613d ae5a 163d
00000360: c526 e43c aa80 a13d 3e51 a2bd af63 8b3d
00000370: 0428 efbc 64f8 383d 8b63 33bd 9025 683d
00000380: bcda 893d fbe7 57bd 191d 7c3d da39 a83d
00000390: d4a9 a2bd 60c5 0dbd 47a1 8b3d 1829 413c
000003a0: 8db6 c1bc be02 90bd af96 8a39 5dd9 92bd
000003b0: 91de 763d 09f6 b1bd 3c62 a23d ebf2 c1bc
000003c0: bfaf 22bd de1d 973d 56f8 0ebd c5c3 57bd
000003d0: 76d8 163d 7352 ad3b 6f56 9ebd d3a4 7d3d
000003e0: d0f9 a73d f68f 2ebd 587d a8bd e3d2 aabd
000003f0: 45a7 75bd e888 afbb 7e86 ac3c 1160 463d

net.4.bias f4 [14]
-0.0007120714 0.04371929 0.027150068 0.0059150504 -0.058869287 0.0121559985 -0.043565743 0.070832565
0.0019979286 -0.013245001 -0.07427439 -0.005275847 -0.0072280504 -0.018177535
00000000: 4eaa 3aba 0013 333d d269 de3c 0ad3 c13b
00000010: ec20 71bd f429 473c fe71 32bd aa10 913d
00000020: aeef 023b 9001 59bc 2c1d 98bd 03e1 acbb
00000030: 48d9 ecbb 0ee9 94bc
