PEM_NN_sampled500_v3.pth (torch, 15690 bytes, 6 tensors)

net.0.weight f4 [32, 5]
00000000: e082 5c3e 044d abbe d58b ff3d 1176 63bc
00000010: 986e 153e 770f ca3e 45ba 33be 3f7b 9c3e
00000020: 92f7 9bbc 2105 f3be bc66 d8be 1546 9fbd
00000030: 1dec 8dbe 1409 8a3e 6224 d83e 1778 c03d
00000040: 73fe 5a3e d87c c13e 2cfa 25bd 1fb6 2fbe
00000050: bc17 cc3e 8d08 353e 90d0 d1be 6847 7c3e
00000060: 3d9d a5be 7fe0 653d f93c 813d 160b bcbe
00000070: 1751 2bbc c04b a5bd b6a6 ab3e 96aa 87bd
00000080: 2965 4b3e 5151 d83e 4a53 d73e f527 f5be
00000090: 2f0f cb3e 7c91 a4be b401 ac3e b706 24be
000000a0: ff4a e9bc cc24 dcbe 8186 dcbe e9dc 7b3e
000000b0: 414c c5be 2293 833e 4729 a7be 09ea 69bd
000000c0: 0ffc 223e abd0 2abe d530 3ebe d1bb 14be
000000d0: 2d20 bdbe 6e92 bdbe 499e b93d 31da be3e
000000e0: 7a06 1e3d 882e 83bd daac b8be 3e1c d53d
000000f0: 2249 67be a2d1 413e e81e d5be fcc0 df3e
00000100: 69d8 493e c92c d9be a10c e3be 6115 503e
00000110: 524d 17be 6a71 993d d9a3 a5be 1c46 f23d
00000120: 3e80 dabd ed4c aebd f787 df3e 468e 74be
00000130: 27b9 873e 832e be3e 08b5 a2be 7f80 ca3e
00000140: 3e76 fa3d 2cf1 913e c84f bc3d 5161 873d
00000150: f2a7 9e3e 0d36 39be aa2f 983e 26e8 ee3d
00000160: 73fe 8f3e 6150 d4be 3cf8 dc3e ca76 5cbe
00000170: 7b1e e43e 2ce5 a0be 8b51 79be de0c f7be
00000180: 9938 45be 11de 7dbe 3412 8f3d a235 bd3e
00000190: 1fbb acbd d83e 5cbe c845 1fbe 103d 52bd
000001a0: e657 a9be 1a0e 2b3e 4a9d bd3e e9ff ab3e
000001b0: bcc0 ba3c a078 933e 0a65 2abe 30d1 94be
000001c0: 6c71 8cbe 5d26 e63d 4129 cabe 5b27 933e
000001d0: 22e5 47be a186 033e befd 8ebe fce5 dfbd
000001e0: b007 a53e 38e2 dbbe 2ef5 9bbc 5c9c 1d3d
000001f0: e640 b9be 0663 1f38 a99b a6be af74 3f3e
00000200: d536 e03e f989 da3e 9e0b f2bd 19c4 4cbd
00000210: c74b 1ebe 2bfa c0be fc08 c63e 6309 afbd
00000220: ba31 4c3e 3096 e5be a5fa d73e 2ea5 bbbe
00000230: ca09 bfbe 4074 883e 6618 1d3b aa2e bd3e
00000240: 192c 413e 8b09 d7bc b079 f03d a5e7 7fbe
00000250: 44ad 33be 2d6f 95be d768 abbb 8623 50be
00000260: a8fd e2be f97e d93e a023 e73d e70e 71be
00000270: fcf4 e03d 3565 b53e 3e82 583e 8226 c23d
0.215343 -0.33457196 0.12477843 -0.01388313 0.1459297 0.39464924 -0.17551525 0.3056278
-0.01903895 -0.4746485 -0.4226588 -0.07777039 -0.27719203 0.2696005 0.42215258 0.09397905
0.21386127 0.3779056 -0.040521786 -0.17159317 0.39861858 0.17679043 -0.40979433 0.24636614
-0.32346526 0.0561223 0.06310458 -0.36727208 -0.010456345 -0.08071089 0.33525628 -0.066243336
0.19862808 0.4224954 0.42055732 -0.47882047 0.39660022 -0.32142246 0.3359505 -0.16018187
-0.028478144 -0.42996824 -0.43071368 0.2459599 -0.3853474 0.2569819 -0.3264868 -0.05710796
0.15916465 -0.16681163 -0.18573315 -0.14524771 -0.3693861 -0.3702578 0.090633936 0.37275842
0.038580395 -0.064053595 -0.36069375 0.104057774 -0.22586492 0.18927625 -0.41625142 0.43701923
0.1971146 -0.4241698 -0.44345573 0.20320655 -0.14775589 0.07492335 -0.32351568 0.118297786
-0.106689915 -0.08510766 0.4365842 -0.23882398 0.26508448 0.3714486 -0.3177874 0.3955116
0.12229584 0.28504312 0.091949046 0.066103585 0.30987507 -0.18087025 0.29723865 0.116653726
0.28123817 -0.41467574 0.43158138 -0.2152969 0.44554505 -0.31424844 -0.24347512 -0.48252004
-0.19259872 -0.24791743 0.06985894 0.3695498 -0.08434128 -0.21508348 -0.15553963 -0.051327765
-0.33074874 0.16704598 0.37034065 0.3359368 0.022796981 0.28802967 -0.16640106 -0.29065847
-0.27430284 0.11237786 -0.394846 0.28740963 -0.19521001 0.12844326 -0.27927965 -0.10932538
0.32232428 -0.4294603 -0.01903781 0.038479194 -0.36182326 3.8000777e-05 -0.32540634 0.18696855
0.43791834 0.4268339 -0.11818622 -0.0499917 -0.15458594 -0.37690863 0.3867873 -0.08546712
0.19940844 -0.44841146 0.42183414 -0.3664946 -0.37312156 0.26651192 0.0023970841 0.36949664
0.18864478 -0.026249668 0.1174196 -0.24990709 -0.17546564 -0.29186383 -0.0052310037 -0.20326051
-0.4433415 0.42479685 0.11286092 -0.23540841 0.10984227 0.35428777 0.21143433 0.09480001

net.0.bias f4 [32]
00000000: 1998 38bd a307 64be 23f4 6fbe 11c3 cd3d
00000010: 614b d93e 17f5 d63d e8b4 19be b29c 693e
00000020: 32bb c73e 0198 16be 4833 c8be 92d0 73bc
00000030: d65b 36be bdfa 873e 7813 cd3e 6f06 b13e
00000040: 4f78 42be 02cd 55bd 3bbb 1d3c bf9e 3dbe
00000050: 4332 7fbd a9c2 81be 16f8 6d3e 3050 f23e
00000060: f67f c23d 47ee 59be 261f dbbd 76e6 04be
00000070: 0cd7 3f3d 76f8 863d 2bd4 7d3d c9ff e13e
-0.045066927 -0.22268538 -0.23432975 0.100469716 0.42440322 0.10495966 -0.15010417 0.22813681
0.39010006 -0.14706422 -0.39101624 -0.01488127 -0.1780847 0.26558486 0.40053916 0.3457522
-0.18991207 -0.052197464 0.009627159 -0.18517588 -0.062303793 -0.25343826 0.23239169 0.47326803
0.09497063 -0.21282302 -0.106993005 -0.12978539 0.046835944 0.06590359 0.061969917 0.4414046

net.2.weight f4 [64, 32]
00000000: 976b 28be 6892 9f3d 5ebf ecbd d401 063e
00000010: 8243 9dbb 201f 9d3d 93fc 203e 026e edbd
00000020: ffb6 0fbe 869d 153d 000c cabd 3298 f03d
00000030: bf80 da3c 52e5 96bd 61a3 463e b0bf 17be
00000040: c71c 083d 49ec d73d 6f2a e43c f29d 04bd
00000050: 6217 2ebe a0d4 8cbd 4cab 24be 38b0 313e
00000060: 3348 273e 98c5 833d f18c 3d3e 080e 073e
00000070: 7623 ddbc 5e43 27bd 3a46 b0bd e278 01be
00000080: c664 003e 0387 47bd f01e 153e fc52 413d
00000090: 796a e3bd 4cae 04be b44c f73d 6973 1bbe
000000a0: 4276 383e 1680 f5bc d946 f4bd 49e4 5d3c
000000b0: a542 00bd 132c 453e 6f62 573e 85d5 983b
000000c0: 5ad4 cebb 1abe bd3d 09fe a9bd 3839 8dbd
000000d0: cff0 b1bd 142d f3bd 2630 703d b9c0 8a3d
000000e0: 421a 1e3d 2f3b c23c efe8 8bbd 5aeb 313e
000000f0: 9af3 4a3c abee bc3d 5a1d bd3d d0c3 3b3e
00000100: 5e45 e9bd b8bf 0c3e 637e fbbd 3dab 9e3c
00000110: 4253 493d bece a23d 5836 ab3d cb9a 323e
00000120: 1c7d 20bd 40e4 443e ded9 85bd dce1 143e
00000130: 07e5 fc3d 910a 363e c9be bcbd 0b70 a63c
00000140: 1b1b 34be 778d 193e bae1 90bc 5f3a 483a
00000150: 102f 093e c9f8 233e 4ef2 5dbc 0784 83bd
00000160: d781 153e 455e 053e 50c0 083e 78c5 03be
00000170: 1c6d 7bbd 6314 23be 3e60 023c 7eaa 84bd
00000180: bb6c 063e 3fa0 f43c fc58 42bd 52a2 27bb
00000190: 854a 5abc f5bf 933d 87e2 bc3d 5df3 2bbe
000001a0: 9ece f63d 11e9 c43d bd6f e83c c3e9 563c
000001b0: a57c c83d 83e9 edbd 8d64 003e ad46 123d
000001c0: 2ac7 12be 15ee 00be 36f3 163e 230d 503d
000001d0: 0989 05bc ec0d c6bc 01d5 4f3d c9ef f43d
000001e0: a2eb 86bd cd8c ac3d 6f02 c13c 6e03 edbd
000001f0: aed0 1cbe 947b aebd 4057 063e ce63 173e
00000200: 7b32 a93d 3a1e b7bd 5506 b9bd afa6 413e
00000210: 18bf de3d 4bf2 8cbd c299 c8bd f5fd 023e
00000220: dff8 bbbd 25d4 3ebd 2c46 3b3e c0ad acbc
00000230: ba8b 16be da66 06be 50ab a6bd fd41 04be
00000240: 6c32 04be 4e4e 37bd 54fa 033e 0127 2f3e
00000250: 8446 8dbd d8a7 643d 5275 343d e996 6a3d
00000260: 83dc bd3d 1471 5abd 60bc 1bbd f185 c6bd
00000270: dff1 cbbd dbb6 473e 4925 fdbd d34d 283d
00000280: 0f44 ff3d 2a95 fc3d 5548 d9bd 80b1 473e
00000290: 0d32 f6bd 024a 303e 7cee 12be 374b 703d
000002a0: d708 753d 0e44 a03d 134e 16bd 6cb1 523d
000002b0: a7a7 3bbe 10ff c53c d29a 08be e61d 76bb
000002c0: 204f 0dbe a5ac e0bc 2476 3f3e 247d b4bd
000002d0: 89c2 f93d c82d 16be dfc4 39be 3ac0 2c3e
000002e0: 9980 1d3e 893c 243e b1c0 093d 8305 8dbd
000002f0: 2ee1 013e 71ec 1b3e 5847 33be faaa bf3d
00000300: 9d75 db3d 092b 4ebd 216f 6f3d 93a2 b83d
00000310: 2f56 f13d f748 93bd 577a 25be fd73 3e3e
00000320: d3b2 fa3a 31a3 793b acf1 49be eeb3 c7bd
00000330: 22de 4c3e c97e 973c 30d4 063e d11e da3d
00000340: 40ad 2c3e 204f c13d 5178 23be c3f7 1abe
00000350: 7a36 fe3c d397 f4bd a454 ef3d c0b9 2ebe
00000360: d695 7dbd 5738 313d f17a 25be d602 0c3e
00000370: d5ff 713d 245a 01be 9290 1abe a5d8 b33d
00000380: 76a5 15be 00e2 ac3b b6a6 d33d ae18 0dbe
00000390: b8e3 e4bd 656a 19bd a2d8 f7bc 4fba fa3d
000003a0: 2135 00be ccd4 293e 082c 583e c98d bbbd
000003b0: 4739 c33d 530f 123d 975e c8bd 5845 f4bd
000003c0: 370c 15be bfe1 7cbd 9ad3 a4bd 45a5 fcbd
000003d0: 4b67 1b3e 02eb 0e3d d447 d23c 9e3c 19bd
000003e0: 4d97 b0bd f781 3dbd 0bfb ecbc 75c8 2e3e
000003f0: ddb1 1f38 a1a8 903c 9ed7 493e 6335 923d
-0.16447292 0.07791597 -0.11559938 0.13086635 -0.0047993073 0.07671952 0.1572135 -0.11593248
-0.14034651 0.03652718 -0.0986557 0.11747779 0.026672719 -0.07367958 0.19398262 -0.14819217
0.03323057 0.10543115 0.027852265 -0.03237719 -0.17001107 -0.068764925 -0.1608097 0.17352378
0.16336136 0.064341724 0.18510796 0.13188946 -0.026994448 -0.04083573 -0.08607145 -0.1264377
0.12538442 -0.04871274 0.14562583 0.04719828 -0.111042924 -0.12957114 0.12075177 -0.15180744
0.18013862 -0.029968303 -0.119275756 0.013543197 -0.031313557 0.19255094 0.21033643 0.0046641254
-0.0063119354 0.092647746 -0.083004065 -0.06895679 -0.08688509 -0.11873832 0.058639668 0.0677504
0.03859926 0.023709862 -0.06831538 0.17374936 0.012387181 0.0922521 0.09234114 0.18336415
-0.11390184 0.1374501 -0.12279966 0.019368762 0.049151666 0.07949589 0.083599746 0.17441861
-0.039181814 0.19227695 -0.065356955 0.14539284 0.12348371 0.17777468 -0.09216077 0.020317098
-0.17588465 0.14995371 -0.01768576 0.00076380925 0.13396859 0.16012873 -0.0135465395 -0.064216666
0.14600311 0.13024242 0.13354611 -0.12868297 -0.06138335 -0.15925746 0.007957516 -0.06477831
0.13127415 0.029861568 -0.047448143 -0.0025578928 -0.013323431 0.07214347 0.09222894 -0.16792054
0.12051128 0.096147664 0.028373593 0.013117257 0.09789399 -0.116168045 0.12538357 0.035711933
-0.14333788 -0.12590821 0.14741215 0.05079378 -0.0081503475 -0.02417656 0.050740246 0.11959798
-0.06587912 0.08425293 0.02356073 -0.1157292 -0.1531398 -0.085196644 0.1311922 0.14784166
0.082615815 -0.08941312 -0.09034411 0.18911241 0.10876292 -0.06882151 -0.09794952 0.1279219
-0.09178328 -0.046589036 0.18288487 -0.021078944 -0.14701739 -0.13125172 -0.08138144 -0.12915798
-0.1290986 -0.04475241 0.12888461 0.17104723 -0.068982154 0.05582413 0.044057198 0.057272825
0.09270575 -0.053330496 -0.038021445 -0.09693516 -0.099582426 0.19503348 -0.12360627 0.041089844
0.12464153 0.12333138 -0.10609499 0.19501305 -0.12021265 0.17215732 -0.14348787 0.05866548
0.059822883 0.078254804 -0.03669555 0.051438734 -0.18325673 0.024169475 -0.1334031 -0.0037554442
-0.13799715 -0.027426073 0.18697411 -0.08812931 0.12195308 -0.14665902 -0.18141507 0.16870204
0.15381087 0.16038717 0.03363103 -0.06885817 0.12683555 0.15226914 -0.17507684 0.09358783
0.10715792 -0.05033401 0.05845559 0.090153836 0.11784016 -0.07191651 -0.1615995 0.18598934
0.001912678 0.0038091654 -0.19721097 -0.09751116 0.20006612 0.018493073 0.1316688 0.10650409
0.16862965 0.0943892 -0.15963866 -0.15133576 0.031031836 -0.11943021 0.11686066 -0.17063046
-0.061910473 0.04326662 -0.1616018 0.13672957 0.05908187 -0.12632042 -0.15094212 0.08781556
-0.146139 0.0052759647 0.10334532 -0.13778946 -0.111762464 -0.03745498 -0.030254666 0.12242567
-0.12520267 0.16585082 0.21110547 -0.09157903 0.09532409 0.035659146 -0.097836666 -0.11927289
-0.14555441 -0.061738726 -0.08048172 -0.1233621 0.15176122 0.03489209 0.025669016 -0.037411325
-0.08622608 -0.046266522 -0.0289283 0.17068656 3.8074202e-05 0.017658534 0.19711158 0.07139089

net.2.bias f4 [64]
00000000: efc0 07be 57d2 0abe 1b42 b6bd 1005 3c3d
00000010: 411d e1bd 1308 db3d 1f04 e8bd 3a60 d2bd
00000020: e766 0dbc 817d 94bd 7c0e f4bd 9fc5 de3a
00000030: 1673 a5bd 540b 07be 97f5 883c c26f ee3d
00000040: 63d8 2f3e 6fbc 95ba b553 e4bd 0b52 efbc
00000050: c6f2 203e e9eb 9dbd 5758 96bb 270d 183e
00000060: f668 2abd 82d1 b53c f8d3 0f3e 8119 ecbc
00000070: 6663 c53c 2c4e 8f3d 5c36 9e3d 9522 d5bd
00000080: cc07 75bd 26c7 a23d aed3 f6bd 3374 0f3e
00000090: f49f bf3d dcae 3cbd 136f d8bc c843 933d
000000a0: 0b2c 583d 73e7 053e d4f4 123e 4d95 98bd
000000b0: a7b6 8cbb d309 863d 0224 903d 2622 483e
000000c0: cab6 17be 83e7 0f3e cff8 133e 6aab 0c3e
000000d0: ee71 2a3e 4af2 d63c 6a69 fcbd 7b57 803d
000000e0: 8ce6 8fbd 1a45 b63c 6509 053e b8f9 a9bd
000000f0: 409c 173e 1338 b23c a6a3 9ebc e5ae 0a3e
-0.13257192 -0.13556801 -0.08899327 0.045903265 -0.10991908 0.106948994 -0.11328911 -0.1027226
-0.008630491 -0.072505005 -0.11916825 0.0016996152 -0.080785915 -0.13187915 0.016718669 0.1164241
0.17172389 -0.0011423955 -0.11148778 -0.029213926 0.1571761 -0.07711012 -0.0045881676 0.14848767
-0.041604005 0.022194628 0.14045703 -0.028820755 0.024095248 0.06997332 0.07725212 -0.104069866
-0.05982189 0.07948141 -0.120520934 0.1400917 0.093566805 -0.046065196 -0.026420152 0.071906626
0.052776378 0.13076572 0.14351207 -0.07450352 -0.004294235 0.065448426 0.07038118 0.19544277
-0.14815822 0.14053158 0.14450382 0.13737264 0.16645023 0.02623858 -0.12324794 0.062666856
-0.07026395 0.022249747 0.12991865 -0.08299583 0.14805698 0.021755254 -0.019365143 0.1354328

net.4.weight f4 [14, 64]
00000000: 010a 743c cbee ce3d 3072 263c 6cee 9fbd
00000010: f2c2 003c 71de 7b3d a68a 11be 9396 f63d
00000020: e191 ddbd 7001 14be 4479 55bd cf16 be3d
00000030: 5e23 c73d 3f61 013e 2c72 53bd 62e8 09be
00000040: 559f ee3c e423 ffbd b533 af3d 0ea3 813d
00000050: b4bf 883c 787e 6b3d e097 b1bb e17a 09bc
00000060: bf2f 813d bd7a 753d cf7e b8bd 5d77 17bd
00000070: e589 433d f44b e63d 3fdf a83d a1a9 143d
00000080: fd0b 8e3d ac43 69bd 37ed d5bd 80f8 6f3c
00000090: 2ca9 6d3d f172 87bc 2840 c93c fed7 d03c
000000a0: 3667 3abb e904 cabc e251 b63d f614 5b3d
000000b0: 910d 9f3d 2aa4 02bd 73ef 0bbe 3a57 cbbb
000000c0: cbc9 9bbd 9a9b 0cbd a908 d1bd 5e58 53bc
000000d0: d523 ac3d dacf 0dbe b4d1 eabd 9ff3 823d
000000e0: 0a7b b5bd 7f1c 2fbd 47b7 0c3d e111 debd
000000f0: 235d 7f3d 0aa3 993d 8426 033e 3e83 a03b
00000100: d2a5 05bd 556c 033c e223 9a3d 9d7e b53c
00000110: 2acc 6e3d 5b0f c23c 604e 183c 1bb2 d3bd
00000120: b836 76bd f5cd 1dbd a940 b83d 703d cfbd
00000130: 5843 03bd 733b dfbd 943e 473c ae9a ecbc
00000140: 90d0 35bd 0ca9 6a3c a288 503d 6f29 31bc
00000150: 9a6f 43bd 1479 e93c 547c c3bc f12c e5bb
00000160: 1e34 8e3d 7645 c03d c6b6 d3bc 9df6 6bbd
00000170: 573b 81bc 746a a1b9 135a dc3d ee5e b2bc
00000180: 3da6 3ebd 2e94 9abd e471 3b3d fcef a2bd
00000190: ef42 d03d 777f fb3d 46e6 c23d 7679 8e3b
000001a0: 242c b2bd 7c04 413d 36c5 913c 1ff0 5dba
000001b0: e07e b83d dc76 61bd 403d 93bc 17fb 8b3d
000001c0: bfa7 f13d ad9c 3fbd fd90 e6bd b150 113d
000001d0: 4010 a73d 5372 143d e0db 243d 8684 febd
000001e0: a55b 3e3d 85b2 a83d 496a 0e3c 83d2 a23d
000001f0: 1d73 d63c 6aa1 34bd 81ca cf3d 7ad1 c3bb
00000200: 7fc1 adbd a8c2 acbb 7cdb a33d 0881 b0bd
00000210: 1527 f4bd 31f0 93bd dab2 f43d c237 a33c
00000220: 4316 ac3d 37bd d7bd f376 2abd a7b8 663d
00000230: 9227 efbd cd8e 60bd fb00 af3d 2a53 00bd
00000240: beba 763d dc85 ce3d 4857 e4bd c979 a9bd
00000250: 1c10 063e caad bdbd bf1b d63c fd1b a83d
00000260: bacb 073d 3241 463d 34e8 57bd abe2 053e
00000270: 1dd7 8bbc 82b4 003e b03c 003e 91fb 1abd
00000280: e6bf 2cbe 5454 98bd 3787 be3d 414a f0bd
00000290: e70a 593d b139 8bbd 6e4a d4bc 0341 0cbd
000002a0: 5fe2 f03c 9b20 e0bc 030a 6f3d 5efb 063e
000002b0: 78b7 943d ad6b 613c 63db 67bd b6da e8bd
000002c0: 7335 00be 634d 1dbd 2c7f 8bbb 8cb9 493d
000002d0: 92da cebd b8f3 d6bd 64c7 fe3b 13ef 00bd
000002e0: 5db0 a13d 5e91 27be 5bff b33d 3ce1 8ebd
000002f0: bff4 fa3d ee9b 043e 7ef7 0cbe 54bf 0fbd
00000300: da70 ffbd 819d ca3c b676 41bd 5d85 dabd
00000310: 6ca9 bbbd 13d7 cbbd bc5f 843b b0fc d23c
00000320: a0ec 59bc bfb9 97bb eca4 fa39 0951 9dbc
00000330: 387d 9ebc e343 a7bc ec3f e4bd 6213 dfbc
00000340: 5500 15be 5e69 a53d f942 10bd a239 4abd
00000350: ff99 aabd ff29 973c 7169 e93c 07f6 15be
00000360: 897e c53d 2ca6 793c 74f6 0abd dea9 bfbc
00000370: 6887 273d 14a9 443d cadc dbbd 88bf f4bd
00000380: c785 2c3d 4fd9 bebd 7303 8d3c aaa1 ad3d
00000390: 4a4c 083b 0ea5 98bc 0986 c03d 23b5 cc3d
000003a0: 21df 39bd e1b3 be3d e7a1 103d 5aaa dd3d
000003b0: 4a60 e63d 0e13 913d c70d 8c3d 9a01 7fbd
000003c0: da6b babd f3cd 03be 3112 a03d d438 b6bd
000003d0: f35f b33d 139f 2b3c 0901 b8ba 586d d63c
000003e0: 094e 673d 9806 233d ad73 c2bc 8d98 c23d
000003f0: 2a06 073e d3ea 4a3d 43ba 2c3d af83 ea3d
0.014894963 0.1010414 0.01015906 -0.07809147 0.007858979 0.061491434 -0.14213046 0.120404385
-0.1081884 -0.14453673 -0.0521176 0.09281694 0.09723543 0.12634753 -0.051622555 -0.13467553
0.02912871 -0.124580175 0.08554784 0.06329928 0.016692974 0.057493657 -0.0054197162 -0.008391113
0.06307935 0.059931505 -0.09008562 -0.036979068 0.04773893 0.11244956 0.08245706 0.036294583
0.0693588 -0.056949303 -0.10445636 0.014646649 0.058022663 -0.0165343 0.024566725 0.025493618
-0.0028442866 -0.024660544 0.08902337 0.053486787 0.077662595 -0.03189484 -0.13665561 -0.0062054666
-0.07606848 -0.03432808 -0.1020673 -0.012899486 0.08405272 -0.1384882 -0.11465779 0.06394123
-0.088613585 -0.042751785 0.034354474 -0.10843254 0.06234468 0.075018 0.12807661 0.004898458
-0.03262884 0.008021434 0.07526375 0.0221551 0.058300175 0.023688963 0.00929603 -0.10336705
-0.060110778 -0.038526494 0.08996708 -0.1011914 -0.032046646 -0.10900011 0.012160916 -0.02888235
-0.044388354 0.0143225305 0.050911553 -0.010813101 -0.047713853 0.028500117 -0.023862995 -0.006993883
0.06943534 0.093882486 -0.02584399 -0.057608236 -0.015775366 -0.00030787627 0.10759368 -0.021773782
-0.046545256 -0.07547794 0.04576291 -0.0795593 0.101690166 0.12280171 0.095165774 0.0043479754
-0.086998254 0.047123417 0.017794233 -0.0008466262 0.090085745 -0.055044994 -0.017973542 0.06835001
0.11799573 -0.046780277 -0.11258123 0.035477344 0.08157396 0.03624184 0.04024875 -0.124276206
0.046474118 0.08237175 0.008692333 0.07950308 0.026177937 -0.04409925 0.101460464 -0.0059758993
-0.08484172 -0.0052722283 0.08000848 -0.08618361 -0.11921517 -0.07223547 0.11948176 0.019924048
0.084026836 -0.10534137 -0.041617345 0.056328442 -0.11677469 -0.054823685 0.08545109 -0.03132931
0.060236685 0.100841254 -0.1114946 -0.08275182 0.13092083 -0.09261663 0.026136277 0.08208463
0.033153273 0.04840202 -0.05271168 0.13074748 -0.017070347 0.12568858 0.1252315 -0.03783757
-0.16870078 -0.07437959 0.09303134 -0.11732913 0.052988913 -0.06798113 -0.025914397 -0.034241688
0.029404817 -0.027359297 0.058359157 0.13181826 0.072615564 0.013758582 -0.056605708 -0.11369841
-0.1252039 -0.03840388 -0.0042571034 0.049249217 -0.10100283 -0.104957044 0.007775234 -0.031478
0.07894967 -0.16364047 0.087889396 -0.06976554 0.12253713 0.12950107 -0.13766286 -0.035094574
-0.124726966 0.024733307 -0.047232352 -0.10669968 -0.09163174 -0.099531315 0.0040397327 0.025755256
-0.013301045 -0.004630297 0.00047806592 -0.01920368 -0.019346818 -0.020418113 -0.11145005 -0.027230922
-0.14550908 0.08076738 -0.03522012 -0.04937137 -0.08330154 0.018452642 0.028492661 -0.14644633
0.09643275 0.015237372 -0.033926442 -0.023396429 0.040900618 0.048012808 -0.107354715 -0.11950594
0.042119768 -0.09318792 0.017213559 0.084781006 0.0020797425 -0.018633392 0.09400565 0.099954866
-0.045378808 0.09311653 0.035310652 0.108235076 0.112488344 0.070837125 0.06838565 -0.062257387
-0.09102602 -0.12871532 0.0781597 -0.08897558 0.08758535 0.010474938 -0.0014038394 0.026175186
0.056470904 0.03980121 -0.0237368 0.09501753 0.13185945 0.049540352 0.04216982 0.11450898

net.4.bias f4 [14]
00000000: e8f5 803d c9c6 7cbc c79b 603d d1bf e3bc
00000010: a506 4e3d 5d31 54bd 8977 b8bd 3321 853c
00000020: 93d6 b13c c493 e53d 5121 8dbd aa59 d6bd
00000030: 7a55 60bd 7fbb 823d
0.06296903 -0.015428253 0.05483606 -0.027801426 0.050299305 -0.05180489 -0.090071745 0.016251182
0.021708762 0.11209825 -0.0689112 -0.10466321 -0.054769017 0.06383418
